Navigation/Solved_ep403.pth (torch_old, 738269 bytes, 8 tensors)

hidden_layers.0.weight f4 [512, 37]
0.06434501 -0.04928417 0.1431484 0.0787465 -0.13898876 -0.19682953 0.07005784 0.064869724
0.2132203 0.3958662 -0.086181186 0.077933215 0.03022735 0.19170406 0.039777096 0.056493405
0.04164055 -0.011022584 -0.11577239 -0.011278315 -0.07663819 0.10403745 0.23071457 0.13758579
0.4818709 0.14375915 0.014785525 -0.21664128 -0.06772992 -0.036871094 -0.20901 0.0852129
0.1596223 0.30068728 0.036923263 -0.09129617 -0.023382166 -0.12173205 0.21808952 -0.115859
0.04695303 -0.16795349 0.058684647 0.05899533 0.27872837 -0.22044548 0.0053669843 0.07317137
-0.017035404 -0.034355838 0.18519823 0.10757985 -0.07607885 0.06867105 0.00046600972 -0.19377993
-0.17114687 -0.3098037 0.03380664 -0.06997763 0.47142857 0.042879093 -0.033866905 -0.034645837
-0.1123504 -0.013187815 -0.22265358 0.06682647 0.040787883 -0.15109447 -0.14889786 0.27145973
-0.0042868876 -0.04763653 -0.19732915 -0.1501646 0.15860231 -0.12073658 -0.11386885 0.053658083
0.2087841 -0.21470653 -0.07169747 -0.0246706 0.14865275 -0.037836906 -0.14987217 0.04947417
0.3175869 -0.20820183 0.023884997 -0.11276344 0.096595615 -0.20269579 -0.33899885 -0.121692136
0.2287927 0.101067245 -0.18294021 0.06931155 0.042958066 0.036564536 -0.07798958 0.29519477
-0.18585514 0.13491295 0.20819642 0.22748601 -0.20335115 0.07000894 -0.022721145 0.006470665
0.09742157 0.10475308 -0.06377562 0.0940425 -0.10964675 0.12975325 -0.0073491274 0.13873401
0.33517292 -0.11934273 -0.04864699 -0.05077394 -0.14915508 -0.13265502 -0.011343229 0.13192694
0.020301554 -0.13281383 0.14636031 0.22965617 -0.46494466 -0.14650558 -0.27931118 -0.66827905
-0.036748357 0.03983385 0.0040669725 0.025659136 0.089916885 0.028622372 0.12776875 -0.11668551
-0.06824055 -0.36630765 0.26578936 0.031290412 -0.14867593 0.05461972 -0.018694231 -0.046973214
0.15436237 -0.024733588 -0.083060235 -0.1711968 -0.28207803 -0.49132326 -0.082326464 0.1576673
-0.29538348 -0.17251578 -0.103476904 -0.09012383 -0.3135319 0.15527707 0.041972782 -0.036758326
0.014070889 -0.027313935 0.012178393 -0.06897241 -0.155809 -0.11289308 0.055172373 -0.10299623
-0.063004956 -0.32596737 0.033700995 -0.1991003 -0.25473842 0.09929266 -0.19496185 0.017151296
-0.06533035 -0.1707526 -0.214803 -0.08493596 0.038976137 0.12761924 -0.11013071 -0.1458129
-0.018108109 0.17304374 0.24992502 -0.09648793 -0.07364558 0.10905502 0.0329911 -0.051550552
0.055201296 0.16738437 -0.1448276 0.0182078 0.00033768744 -0.2898649 -0.15049821 0.11059709
0.12201905 -0.072159424 -0.05470219 -0.11749529 0.12326923 -0.080499716 -0.023131462 -0.026969526
-0.1287568 -0.15262528 -0.055882003 0.10632954 0.097632684 -0.09945527 -0.18911295 0.09967945
-0.12480328 0.1669274 0.12356261 0.03031064 -0.18921858 0.0863362 0.15000165 -0.27225164
-0.018401757 -0.27626196 -0.14809847 -0.0072144973 -0.39762428 -0.073705316 -0.19124383 0.25906676
0.097881064 -0.0630552 0.052673362 -0.11805931 -0.46936664 -0.211504 -0.5115269 0.23673162
-0.21919985 -0.07739457 -0.078801945 0.13407913 0.187375 -0.35063794 -0.03870958 -0.02689373
00000000: 51c7 833d 33de 49bd 7f95 123e d845 a13d
00000010: 1253 0ebe ae8d 49be 7c7a 8f3d 6bda 843d
00000020: 6c56 5a3e f9ae ca3e c37f b0bd 739b 9f3d
00000030: 599f f73c 124e 443e 4fed 223d a165 673d
00000040: 488f 2a3d 1198 34bc 131a edbd afc8 38bc
00000050: 7cf4 9cbd 9611 d53d 7140 6c3e 4ae3 0c3e
00000060: c8b7 f63e 9935 133e fd3e 723c 36d7 5dbe
00000070: fcb5 8abd 2506 17bd b806 56be 1a84 ae3d
00000080: 0774 233e aff3 993e d93c 173d 7df9 babd
00000090: f58b bfbc a74e f9bd dc52 5f3e 7c47 edbd
000000a0: d251 403d 00fc 2bbe 505f 703d 16a5 713d
000000b0: 7cb5 8e3e 76bc 61be 87dd af3b dfda 953d
000000c0: d58d 8bbc b5b8 0cbd 9ba4 3d3e d352 dc3d
000000d0: 3acf 9bbd 68a3 8c3d c452 f439 3f6e 46be
000000e0: 2041 2fbe 979e 9ebe d578 0a3d 6f50 8fbd
000000f0: 165f f13e fda1 2f3d 06b8 0abd cbe8 0dbd
00000100: f717 e6bd b511 58bc 4dff 63be 51dc 883d
00000110: 3211 273d 82b8 1abe ae78 18be c5fc 8a3e
00000120: 0579 8cbb 861e 43bd a710 4abe c0c4 19be
00000130: a568 223e bd44 f7bd 1234 e9bd 94c8 5b3d
00000140: 80cb 553e 07dc 5bbe 20d6 92bd 001a cabc
00000150: 6d38 183e dffa 1abd 1778 19be 6da5 4a3d
00000160: c09a a23e dc32 55be 78aa c33c 85f0 e6bd
00000170: ecd3 c53d 7c8f 4fbe 4291 adbe ba39 f9bd
00000180: a248 6a3e 58fc ce3d ae54 3bbe 37f3 8d3d
00000190: ccf4 2f3d b2c4 153d 00b9 9fbd c523 973e
000001a0: cf50 3ebe 9f26 0a3e 7131 553e 18f2 683e
000001b0: 493b 50be d960 8f3d b221 babc df07 d43b
000001c0: f684 c73d c888 d63d cb9c 82bd 5b99 c03d
000001d0: 7a8e e0bd 09de 043e f3d0 f0bb 4a10 0e3e
000001e0: c99b ab3e f669 f4bd 1142 47bd 56f8 4fbd
000001f0: 1cbc 18be b8d6 07be f3d8 39bc db17 073e
00000200: 724f a63c 5900 08be 7adf 153e fd2a 6b3e
00000210: 3a0d eebe 8f05 16be e001 8fbe 5614 2bbf
00000220: 7285 16bd d228 233d 3d44 853b 1c33 d23c
00000230: 5826 b83d 7779 ea3c d0d5 023e d0f8 eebd
00000240: b4c1 8bbd ad8c bbbe 8b15 883e 602a 003d
00000250: 813e 18be edb8 5f3d a524 99bc fc66 40bd
00000260: 2b11 1e3e 189e cabc 7c1b aabd 374e 2fbe
00000270: 886c 90be b98e fbbe c79a a8bd 8973 213e
00000280: 813c 97be faa7 30be b3eb d3bd d892 b8bd
00000290: 4187 a0be f400 1f3e a7eb 2b3d e68f 16bd
000002a0: 9689 663c 79c1 dfbc e287 473c 6841 8dbd
000002b0: 658c 1fbe 7d34 e7bd 6dfc 613d b0ef d2bd
000002c0: be08 81bd 32e5 a6be 0e0a 0a3d f3e0 4bbe
000002d0: 136d 82be f359 cb3d 14a4 47be e080 8c3c
000002e0: ebcb 85bd c5d9 2ebe 51f5 5bbe e8f2 adbd
000002f0: 71a5 1f3d 9eae 023e 368c e1bd fa4f 15be
00000300: 7557 94bc 6132 313e 58ec 7f3e 779b c5bd
00000310: 7ed3 96bd 3d58 df3d ad21 073d ac26 53bd
00000320: c11a 623d cf66 2b3e b04d 14be 8628 953c
00000330: a40b b139 2c69 94be 341c 1abe ba80 e23d
00000340: 20e5 f93d 52c8 93bd 670f 60bd 5fa1 f0bd
00000350: 9474 fc3d 09dd a4bd 317e bdbc 32ef dcbc
00000360: d3d8 03be cd49 1cbe 87e4 64bd 4dc3 d93d
00000370: a5f3 c73d 34af cbbd d3a6 41be bd24 cc3d
00000380: dd98 ffbd 04ef 2a3e 650e fd3d 054e f83c
00000390: 84c2 41be 09d1 b03d 089a 193e 9164 8bbe
000003a0: 48bf 96bc 3572 8dbe 20a7 17be 9767 ecbb
000003b0: 6995 cbbe d0f2 96bd 6cd5 43be 66a4 843e
000003c0: de75 c83d 1623 81bd 06c0 573d 14c9 f1bd
000003d0: d350 f0be 8194 58be 6df3 02bf c669 723e
000003e0: ed75 60be 0b81 9ebd ea62 a1bd 0a4c 093e
000003f0: 3bdf 3f3e d186 b3be f08d 1ebd 3d50 dcbc

hidden_layers.0.bias f4 [512]
0.057123907 -0.1072246 -0.12777525 -0.18087935 -0.0057598273 -0.13569312 0.06474031 -0.040809155
-0.076026656 0.029946636 -0.056475926 0.009644172 -0.07790948 -0.15176767 -0.15989491 -0.22207229
0.025666606 -0.08230631 -0.058562536 -0.05296576 -0.016345846 -0.021722501 0.120956756 0.11843422
-0.27627385 -0.13785481 0.06805724 0.12380239 0.19747767 -0.025592938 -0.17177847 0.040131535
-0.10827075 -0.16700253 0.13613796 -0.096370384 -0.24524443 -0.115251146 -0.07414789 -0.20164652
-0.1330028 0.032254916 -0.11415283 -0.032908656 -0.0737601 -0.012909299 0.01933371 0.018262066
0.0094175665 -0.061338294 -0.18991344 -0.23212343 -0.18872738 -0.058333956 -0.18282533 0.08427163
-0.07374991 0.086406015 0.020051466 -0.14549743 -0.14537914 -0.1974589 -0.23619355 0.057474244
0.030612541 -0.16084957 0.16643856 -0.22384936 -0.23896115 -0.10552417 -0.047618598 -0.16582257
0.012354576 -0.112333484 0.02420692 0.048448846 -0.12898928 -0.09216654 -0.1809737 -0.26223522
-0.020949226 -0.016828675 0.22784637 -0.0099246865 -0.0072095115 -0.1464583 -0.08702192 0.12217487
-0.24578434 -0.117078215 -0.06857425 0.034846917 -0.20496808 0.06535326 0.07266783 0.06513678
-0.13916081 -0.0847988 -0.21769941 0.04443718 0.0074060992 -0.12379012 -0.16475508 -0.19422986
-0.039435424 0.0002074858 -0.14520071 -0.013739714 0.10093158 -0.17163473 0.057593085 0.03362204
0.228863 0.07787708 0.106469445 0.059178717 -0.21761724 0.034689598 0.07872007 0.0036050768
0.097112805 -0.16584763 -0.12707934 0.019295417 0.22157009 -0.06818714 0.037710965 -0.19041866
0.15436055 -0.18136856 -0.008228502 -0.05195859 -0.11218434 -0.08916328 -0.046496265 -0.022741184
-0.12925526 -0.1177368 -0.11630127 -0.2471513 -0.043045938 -0.29755023 -0.03938193 -0.057117406
0.005122252 -0.10090578 -0.052922923 -0.07777365 -0.18443407 0.15716958 -0.03833439 -0.016648773
0.038483612 0.16360924 0.18364808 -0.06276794 -0.076975465 0.10807338 0.08663943 -0.059129238
-0.03883178 -0.052945007 0.00848015 -0.09295595 -0.074998476 -0.20638819 -0.035640076 -0.024136225
-0.052321915 -0.12580337 0.032442123 0.02429416 -0.24367917 -0.048295498 -0.06939685 -0.07709267
0.16297814 -0.16580865 0.04725227 -0.2437922 -0.12231104 -0.23055837 0.18386391 -0.22027533
-0.036891103 -0.045433376 -0.13410325 -0.07570912 -0.026001409 -0.13406923 0.027916638 0.006891418
-0.024878692 -0.09928972 -0.13617302 0.0075377584 0.041721825 -0.27436432 -0.1343544 -0.07517231
-0.23657934 -0.09601787 -0.0069363066 -0.034906913 -0.07544743 -0.2139998 -0.054730497 0.021914272
0.15691674 0.08235814 -0.06805159 -0.13574994 -0.09620905 0.081682034 -0.12858085 0.0032662519
-0.15921868 0.019746037 -0.175687 0.020633407 0.08677304 0.017728789 0.039873213 -0.105054535
0.06484211 0.09338064 -0.097052224 -0.076930344 -0.21870677 0.0026044073 -0.2753054 -0.18245693
0.13919884 0.0034271237 -0.11992928 0.032542117 -0.06163806 0.05878181 -0.22353217 -0.09441527
0.13592507 -0.30080023 0.01289132 -0.050383292 -0.07435678 -0.1311317 0.09449795 -0.09920893
0.19431554 -0.13354698 -0.18525402 0.023925385 -0.08421982 0.089944564 -0.050088823 -0.020844627
00000000: c2fa 693d 9298 dbbd 84d7 02be 7038 39be
00000010: efbc bcbb 23f3 0abe 9196 843d 8027 27bd
00000020: ddb3 9bbd a652 f53c 4d53 67bd 9702 1e3c
00000030: 018f 9fbd fc68 1bbe 7ebb 23be eb66 63be
00000040: c642 d23c 3690 a8bd 45df 6fbd a0f2 58bd
00000050: b9e7 85bc 63f3 b1bc 2db8 f73d a48d f23d
00000060: c473 8dbe d029 0dbe 9861 8b3d 1c8c fd3d
00000070: 9637 4a3e 48a8 d1bc b2e6 2fbe f760 243d
00000080: 0ebd ddbd b602 2bbe c067 0b3e d65d c5bd
00000090: 5b21 7bbe cb08 ecbd d9da 97bd 6d7c 4ebe
000000a0: e331 08be bb1d 043d f5c8 e9bd 3acb 06bd
000000b0: 890f 97bd 8681 53bc bb61 9e3c 549a 953c
000000c0: 234c 1a3c dd3d 7bbd ab78 42be c4b1 6dbe
000000d0: c041 41be 96ef 6ebd 9036 3bbe 9b96 ac3d
000000e0: 310a 97bd a3f5 b03d f942 a43c 47fd 14be
000000f0: 45de 14be aa32 4abe b9dc 71be 1d6a 6b3d
00000100: 27c7 fa3c c0b5 24be df6e 2a3e c438 65be
00000110: 3bb2 74be 0e1d d8bd b80b 43bd 64cd 29be
00000120: d96a 4a3c 190f e6bd 974d c63c 4c72 463d
00000130: c415 04be d0c1 bcbd 2b51 39be b243 86be
00000140: b69d abbc 4adc 89bc 8f50 693e 279b 22bc
00000150: c43d ecbb 2af9 15be 8c38 b2bd d136 fa3d
00000160: e4ae 7bbe b4c6 efbd a870 8cbd a4bb 0e3d
00000170: 27e3 51be eed7 853d dfd2 943d 6f66 853d
00000180: 2c80 0ebe feaa adbd 98ec 5ebe c303 363d
00000190: ddae f23b ad85 fdbd 8eb5 28be 31e4 46be
000001a0: 0a87 21bd 8c90 5939 7faf 14be 8a1c 61bc
000001b0: 37b5 ce3d 04c1 2fbe bae6 6b3d 44b7 093d
000001c0: 105b 6a3e 057e 9f3d a70c da3d 6265 723d
000001d0: 0ed7 5ebe ae16 0e3d fd37 a13d 2743 6c3b
000001e0: 14e3 c63d f6d3 29be 1621 02be 6c11 9e3c
000001f0: 45e3 623e b3a5 8bbd d076 1a3d 1cfd 42be
00000200: b110 1e3e aeb8 39be d7d0 06bc 88d2 54bd
00000210: e7c0 e5bd 3d9b b6bd de72 3ebd b84b babc
00000220: 7e5b 04be fe1f f1bd 5c2f eebd 3b15 7dbe
00000230: f050 30bd 8158 98be f24e 21bd f1f3 69bd
00000240: 90d8 a73b b1a7 cebd b5c5 58bd cb47 9fbd
00000250: 49dc 3cbe 10f1 203e 8504 1dbd 0263 88bc
00000260: fea0 1d3d 2e89 273e 3e0e 3c3e 7a8c 80bd
00000270: 50a5 9dbd 9455 dd3d 0370 b13d 8031 72bd
00000280: 130e 1fbd dddc 58bd 54f0 0a3c b05f bebd
00000290: cd98 99bd 6d57 53be 54fb 11bd 55b9 c5bc
000002a0: 814f 56bd 99d2 00be 08e2 043d 8c04 c73c
000002b0: 0887 79be 80d1 45bd f01f 8ebd c3e2 9dbd
000002c0: bee3 263e bec9 29be 998b 413d aaa4 79be
000002d0: 367e fabd 7e17 6cbe d246 3c3e db8f 61be
000002e0: 201b 17bd 5918 3abd 5d52 09be 620d 9bbd
000002f0: e800 d5bc 7249 09be 6fb1 e43c 67d1 e13b
00000300: 66ce cbbc 6958 cbbd f170 0bbe 4dff f63b
00000310: 81e4 2a3d 7b79 8cbe 3394 09be f1f3 99bd
00000320: db41 72be 04a5 c4bd f549 e3bb 8dfa 0ebd
00000330: 2f84 9abd c322 5bbe 162d 60bd 8f85 b33c
00000340: c8ae 203e 62ab a83d a25e 8bbd 0802 0bbe
00000350: 4009 c5bd e948 a73d b3aa 03be 9d0e 563b
00000360: 390a 23be 71c2 a13c 4be7 33be 6407 a93c
00000370: 10b6 b13d f73b 913c 1852 233d d526 d7bd
00000380: f1cb 843d 593e bf3d 51c3 c6bd a88d 9dbd
00000390: abf4 5fbe b4ae 2a3b d4f4 8cbe fdd5 3abe
000003a0: 248a 0e3e 9899 603b 7b9d f5bd e24a 053d
000003b0: 3178 7cbd 32c5 703d 9ee5 64be cb5c c1bd
000003c0: f12f 0b3e 7d02 9abe 1d36 533c b65e 4ebd
000003d0: 5e48 98bd 6347 06be 2488 c13d 0d2e cbbd
000003e0: a7fa 463e 8ac0 08be 3bb3 3dbe 2bff c33c
000003f0: 717b acbd db34 b83d f029 4dbd 5ac2 aabc

hidden_layers.1.weight f4 [256, 512]
-0.040287368 0.0018567042 -0.030661944 -0.013086356 0.019674525 0.00014313858 -0.050742827 0.011870592
-0.0818181 -0.0015516958 -0.05391539 0.010540488 0.0042027147 0.009721699 0.011181765 0.003871594
-0.0036432578 -0.023562152 0.0069843642 0.019334417 -0.0540415 -0.03018987 -0.027866261 -0.02999264
-0.03079027 -0.031049745 -0.037985556 0.012616639 -0.03315546 0.0065358407 0.03158129 0.00063973846
-0.004364775 0.0044986825 -0.0037320927 -0.03118726 -0.006277524 -0.075871974 -0.067923024 -0.022324348
0.013900402 0.022150451 -0.031630244 -0.0053162575 0.011782399 0.0016469347 -0.0071784034 -0.04314202
0.032874532 -0.027710903 -0.018927285 -0.012961772 -0.00929784 -0.04866454 0.008800637 0.009288939
0.03414421 -0.009477435 -0.03651105 -0.019570187 -0.013416313 0.014520964 -0.025450945 -0.048737835
-0.005725371 0.014481685 -0.0068131094 -0.040086623 -0.034164835 -9.647253e-06 -0.005859323 0.0115039665
0.024183467 -0.03899548 -0.03330922 -0.0502951 -0.00067976967 -0.018243304 0.005622701 8.711153e-06
0.0030716248 -0.0141664 -0.04744356 0.011539704 -0.027107265 -0.04207782 -0.022064699 -0.0136049865
-0.0063497033 0.019277064 -0.037984923 -0.04859351 0.0038242165 0.014251508 0.00093367096 -0.007644136
0.009612297 -0.064321995 0.006915089 0.035634745 -0.044588633 -0.032944858 -0.01230366 0.025318878
-0.03805918 0.02534249 -0.017680747 -0.043925483 -0.046080332 0.016201878 -0.015814109 -0.043565065
-0.047563132 -0.021654723 0.004685664 0.0040424205 0.015194662 0.020618137 0.027853608 0.014793807
0.0035024504 0.0061900555 -0.054174513 -0.006104813 0.046184346 -0.018050626 -0.018645573 0.038135894
0.048234828 -0.028311651 -0.053534694 -0.040968627 0.045833226 0.0067810235 0.010152604 0.053905185
0.037878197 -0.0058318707 -0.058210768 -0.041209098 0.015071528 -0.06250539 -0.006712125 -0.013168583
-0.03135258 0.016965706 0.045535054 -0.00478022 0.038872644 -0.00012054885 0.027049955 -0.046802357
-0.006438855 0.025970671 -0.028440818 -0.036775902 0.020461509 -0.043313652 -0.01772003 -0.015168974
0.033303082 -0.024119904 -0.05277755 0.037581272 -0.047031377 0.00014229269 -0.013490466 -0.07476765
-0.029982569 -0.015941795 -0.0103596095 -0.048021164 0.004031287 0.01153755 -0.0022634359 0.015423969
-0.06207136 -0.01237539 -0.005768802 -0.027067035 0.01343832 0.013922068 -0.050894894 -0.05137255
-0.007310485 -0.02873762 -0.011176809 0.037988264 -0.020709807 -0.018295845 -0.06989878 -0.06026317
-0.02465677 -0.02327425 0.015111111 0.008056097 0.031308077 -0.0010755103 -0.033260092 -0.0012101001
-0.0262695 0.019486934 -0.068494916 0.013218816 -0.026397036 -0.070162065 -0.023280144 0.0027088749
-0.017309153 -0.035269532 0.0030154383 -0.005100575 0.002825563 -0.03897327 -0.013125526 -0.0036964242
0.0200432 -0.037911862 0.027300034 -0.01398778 -0.017129375 0.025586233 -0.014098344 -0.044448502
0.0019394342 0.0077464767 0.019937621 0.002579959 0.021669382 0.015357418 -0.029664071 -0.037678596
-0.005352698 -0.048197065 0.007881245 -0.007720135 -0.031700872 0.004260324 -0.018709633 -0.002241663
-0.064768665 0.045974374 0.010600663 0.03928262 -0.0528714 -0.027425487 0.0031988393 8.839574e-05
-0.015181325 0.020123748 -0.045518745 -0.023995122 -0.036052436 -0.053422313 -0.05049346 -0.03809883
00000000: 5e04 25bd a85c f33a c22e fbbc 2868 56bc
00000010: 782c a13c 7817 1639 b6d7 4fbd df7c 423c
00000020: 3f90 a7bd 4562 cbba 62d6 5cbd 03b2 2c3c
00000030: edb6 893b c347 1f3c b933 373c 92ba 7d3b
00000040: b9c3 6ebb 6a05 c1bc 18dd e43b 3663 9e3c
00000050: 9f5a 5dbd bf50 f7bc c947 e4bc 20b3 f5bc
00000060: e03b fcbc 095c febc be96 1bbd 05b6 4e3c
00000070: 05ce 07bd 9b2a d63b 625b 013d 1fb4 273a
00000080: 6306 8fbb af69 933b 2096 74bb 6d7c ffbc
00000090: b0b3 cdbb c462 9bbd 3a1b 8bbd 8de1 b6bc
000000a0: 83be 633c dd74 b53c b78e 01bd 0034 aebb
000000b0: f70a 413c f5dd d73a d038 ebbb b0b5 30bd
000000c0: 72a7 063d fa01 e3bc 650d 9bbc 9d5d 54bc
000000d0: f855 18bc 7854 47bd 8c30 103c a230 183c
000000e0: cdda 0b3d 3e47 1bbc 9c8c 15bd a851 a0bc
000000f0: 18d0 5bbc 56e9 6d3c 807e d0bc 53a1 47bd
00000100: e59b bbbb 9744 6d3c 8140 dfbb df31 24bd
00000110: 6df0 0bbd a3da 21b7 90ff bfbb 227b 3c3c
00000120: 681c c63c b9b9 1fbd 406f 08bd 3c02 4ebd
00000130: 9232 32ba fb72 95bc a23e b83b 1e26 1237
00000140: 504d 493b 301a 68bc 2e54 42bd 0711 3d3c
00000150: 0e10 debc cb59 2cbd 07c1 b4bc 73e7 5ebc
00000160: 2c11 d0bb efea 9d3c 1496 1bbd fd09 47bd
00000170: b59f 7a3b 287f 693c 99c1 743a a97b fabb
00000180: e57c 1d3c 40bb 83bd f997 e23b bdf5 113d
00000190: 92a2 36bd 30f1 06bd 4a95 49bc 8969 cf3c
000001a0: f1e3 1bbd 0e9b cf3c 37d7 90bc 35eb 33bd
000001b0: bbbe 3cbd cdb9 843c 978c 81bc 4871 32bd
000001c0: 8fd1 42bd 3f65 b1bc 338a 993b 4876 843b
000001d0: 08f3 783c 5ee7 a83c 402d e43c b961 723c
000001e0: 5e89 653b f3d5 ca3b 18e6 5dbd e20a c8bb
000001f0: cc2b 3d3d e8de 93bc 9abe 98bc 6234 1c3d
00000200: e291 453d d6ed e7bc 3247 5bbd b8ce 27bd
00000210: 9fbb 3b3d 5933 de3b 1c57 263c afcb 5c3d
00000220: 2b26 1b3d 4719 bfbb 6a6e 6ebd dfca 28bd
00000230: 92ee 763c d302 80bd 63f1 dbbb 0ac1 57bc
00000240: 906b 00bd aafb 8a3c f782 3a3d 64a3 9cbb
00000250: ec38 1f3d 2ccf fcb8 de97 dd3c d4b3 3fbd
00000260: 08fd d2bb 72c0 d43c b8fc e8bc 54a2 16bd
00000270: e59e a73c a869 31bd 9929 91bc 4a87 78bc
00000280: d068 083d 1b97 c5bc 462d 58bd d2ee 193d
00000290: f9a3 40bd 6734 1539 1e07 5dbc c81f 99bd
000002a0: 019e f5bc 5e98 82bc 5abb 29bc d7b1 44bd
000002b0: e318 843b fe07 3d3c 2756 14bb d1b4 7c3c
000002c0: 8a3e 7ebd 26c2 4abc 3808 bdbb b0bb ddbc
000002d0: 662c 5c3c 6319 643c 2a77 50bd 066c 52bd
000002e0: cb8c efbb 286b ebbc ef1e 37bc 9599 1b3d
000002f0: 9da7 a9bc 2be1 95bc 1727 8fbd 84d6 76bd
00000300: fffc c9bc a4a9 bebc 9894 773c b8fd 033c
00000310: e63c 003d 23f8 8cba bc3b 08bd 399c 9eba
00000320: 2233 d7bc 10a3 9f3c 1047 8cbd bc93 583c
00000330: 993e d8bc 21b1 8fbd 00b6 bebc 6187 313b
00000340: edcb 8dbc c976 10bd a99e 453b b922 a7bb
00000350: 152d 393b 70a2 1fbd 720c 57bc b53f 72bb
00000360: a331 a43c 7849 1bbd 52a4 df3c 002d 65bc
00000370: e752 8cbc 389a d13c befc 66bc a20f 36bd
00000380: 9d34 fe3a 28d6 fd3b 3954 a33c 8814 293b
00000390: fd83 b13c ae9d 7b3c 1102 f3bc df54 1abd
000003a0: af65 afbb 496a 45bd 5620 013c 30f9 fcbb
000003b0: c6d8 01bd 309a 8b3b f244 99bc dde8 12bb
000003c0: 6fa5 84bd a04f 3c3d 67ae 2d3c d0e6 203d
000003d0: ae8f 58bd 6aab e0bc 9ea3 513b 1a61 b938
000003e0: 18bb 78bc 8fda a43c dd71 3abd 6b91 c4bc
000003f0: b8ab 13bd 5bd1 5abd 3bd2 4ebd 850d 1cbd

hidden_layers.1.bias f4 [256]
-0.022333182 -0.02187963 -0.038421694 -0.04607918 0.0059782914 -0.051945932 -0.036758438 -0.03651102
-0.050567113 -0.05463688 -0.02364456 -0.07596332 -0.055582203 0.007473808 0.029539233 -0.0061668693
-0.0014888874 0.022463001 -0.014270222 -0.0149117 -0.05543599 -0.010779042 -0.047280967 -0.012291663
-0.021724813 0.010264825 -0.06884823 0.010247363 -0.024051158 -0.05008363 -0.0006769073 -0.032027178
0.014129257 -0.0110380445 -0.04452654 0.026482103 -0.085842274 0.013236643 -0.0062125335 -0.016610764
-0.054513797 0.0028956148 -0.02237236 -0.05189021 -0.03039855 -0.0022490206 0.010081927 -0.04190064
-0.050137006 -0.007827205 -0.013221509 -0.0026251448 -0.04670874 -0.034669608 0.012064843 -0.0046461592
0.0037346967 0.010785971 0.0062448806 -0.004723495 0.012137573 -0.018462347 -0.01606707 -0.071305536
-0.01109761 -0.0592518 -0.055037633 -0.013234408 -0.057970215 -0.024399573 -0.0076692095 -0.0069046323
-0.027891954 -0.014278131 -0.02091763 0.010421047 -0.013026758 -0.004509376 0.07130738 -0.041674845
0.0025327061 -0.041751802 -0.02936381 -0.014734263 -0.012482336 0.00514484 -0.03245638 -0.060673982
-0.038411602 -0.044684194 -0.061054986 -0.0032264749 0.006474178 -0.036816817 -0.061748352 -0.03305413
0.1500759 0.01309428 -0.018735081 -0.029078094 -0.077666566 0.03390866 -0.0024685257 -0.033934344
0.0070566516 -0.019650443 0.0029647097 0.013478494 -0.06450098 -0.061031215 -0.045377012 0.0076724924
-0.033913627 -0.0033799272 -0.04228462 -0.03825329 0.030739415 -0.023379162 -0.023360888 0.004875775
-0.02062777 -0.018648162 -0.041378986 -0.008475492 -0.062122814 -0.033447858 -0.043491513 -0.028848445
-0.00787876 -0.031817034 0.0019015068 -0.011227563 -0.013833836 0.018618617 0.06128113 -0.0029232528
0.02761417 -0.0072330767 0.0034771867 -0.028827557 0.06978188 -0.02159908 0.029374532 0.002828328
-0.012961466 -0.040521048 -0.018268948 0.004579474 -0.00020028307 -0.02795726 -0.053484246 -0.05159449
-0.042080034 -0.07973043 -0.052575868 -0.0071184547 0.0013425655 -0.011651939 0.017744707 -0.045835305
-0.07932777 -0.05832873 -0.04267045 0.035772633 -0.036926106 -0.04405707 -0.0040588053 0.13614808
0.0029257496 -0.048926473 -0.04621459 -0.02439058 -0.05298292 -0.02283378 -0.04565636 -0.003775296
-0.021254396 -0.02831562 -0.023476968 -0.07714848 -0.025676165 -0.046500478 0.009006154 -0.002469236
-0.024382595 -0.0019432149 -0.052848537 -0.028674103 0.022037853 -0.018299472 -0.07014737 -0.055977844
-0.03554872 -0.0617141 0.01766023 -0.03889383 -0.049853027 -0.07001459 -0.032685 -0.05140796
0.006506888 -0.048120018 -0.040105138 0.07174666 0.0056370855 -0.019988365 0.01619755 -0.06255166
-0.012998262 -0.02230396 0.0023059181 -0.09311765 -0.0068475967 -0.023677556 -0.0115199145 -0.018263554
-0.012636232 -0.03545868 -0.011001159 -0.009982141 -0.062677614 -0.034726128 0.00074541033 -0.029486597
-0.0355843 -0.007849777 0.103913575 -0.017247023 0.144802 -0.043319136 -0.028966429 0.016975103
0.008216627 -0.029203998 0.0052115433 -0.022280777 -0.0044107162 0.013877358 0.16893901 -0.0014278144
0.024835631 -0.04706912 -0.062839665 0.0016931996 -0.03943432 0.0041435575 -0.07370175 -0.052528705
-0.056272507 -0.048490644 0.0069413106 -0.0022774683 -0.03443645 -0.044281185 -0.053416472 -0.01726108
00000000: 14f4 b6bc e93c b3bc 1160 1dbd 86bd 3cbd
00000010: 8be5 c33b 42c5 54bd 0490 16bd 948c 15bd
00000020: 761f 4fbd ecca 5fbd 3cb2 c1bc a892 9bbd
00000030: 2aaa 63bd d8e6 f43b 43fc f13c 7313 cabb
00000040: c526 c3ba 5404 b83c a6cd 69bc 3450 74bc
00000050: d910 63bd 949a 30bc b0a9 41bd f962 49bc
00000060: 3cf8 b1bc cc2d 283c 4d00 8dbd 8ee4 273c
00000070: ef06 c5bc 7e24 4dbd 7b72 31ba ee2e 03bd
00000080: 667e 673c ead8 34bc 7661 36bd fff0 d83c
00000090: 13ce afbd 81de 583c 8292 cbbb 4c13 88bc
000000a0: dc49 5fbd 5bc4 3d3b 3d46 b7bc d48a 54bd
000000b0: 6106 f9bc 4e64 13bb ab2e 253c 01a0 2bbd
000000c0: 765c 4dbd ad3d 00bc 079f 58bc 9f0a 2cbb
000000d0: aa51 3fbd b801 0ebd 9fab 453c cf3e 98bb
000000e0: d0c1 743b a4b7 303c dba1 cc3b 8cc7 9abb
000000f0: acdc 463c 593e 97bc 179f 83bc a308 92bd
00000100: c0d2 35bc 04b2 72bd 246f 61bd 21d5 58bc
00000110: 2d72 6dbd 9de1 c7bc fe4d fbbb 4140 e2bb
00000120: ab7d e4bc d2ee 69bc 735b abbc 0abd 2a3c
00000130: 2f6e 55bc 63c3 93bb 9b09 923d 3eb3 2abd
00000140: c2fb 253b f003 2bbd 5f8c f0bc fa67 71bc
00000150: b682 4cbc 0c96 a83b fbf0 04bd 4885 78bd
00000160: 7c55 1dbd c606 37bd cb14 7abd 4473 53bb
00000170: 5725 d43b 3bcd 16bd d7eb 7cbd c463 07bd
00000180: 7fad 193e 6489 563c 507a 99bc 2f35 eebc
00000190: a60f 9fbd cfe3 0a3d fdc6 21bb bdfe 0abd
000001a0: 7c3b e73b f7f9 a0bc 934b 423b e7d4 5c3c
000001b0: 1719 84bd defb 79bd 3fdd 39bd 8869 fb3b
000001c0: 04e9 0abd c581 5dbb a332 2dbd 7baf 1cbd
000001d0: 3ad1 fb3c a885 bfbc 555f bfbc f7c4 9f3b
000001e0: 92fb a8bc 08c4 98bc 037d 29bd cadc 0abc
000001f0: 7e74 7ebd 9f00 09bd 2824 32bd 9353 ecbc
00000200: ea15 01bc 9452 02bd fb3b f93a d0f3 37bc
00000210: 50a7 62bc 1286 983c ec01 7b3d 0b94 3fbb
00000220: 1d37 e23c 7203 edbb 83e1 633b c527 ecbc
00000230: cde9 8e3d 8ef0 b0bc dca2 f03c 785b 393b
00000240: 545c 54bc 66f9 25bd c3a8 95bc 6a0f 963b
00000250: 1403 52b9 a006 e5bc 4c12 5bbd be54 53bd
00000260: 1d5c 2cbd b549 a3bd cb59 57bd ed41 e9bb
00000270: 06f9 af3a c6e7 3ebc 595d 913c cdbd 3bbd
00000280: 9976 a2bd 1bea 6ebd 36c7 2ebd 5386 123d
00000290: d43f 17bd 3075 34bd baff 84bb 676a 0b3e
000002a0: efbd 3f3b 2067 48bd 834b 3dbd c1ce c7bc
000002b0: 9e04 59bd e80d bbbc 2a02 3bbd f56a 77bb
000002c0: b31d aebc 29f6 e7bc c552 c0bc 0600 9ebd
000002d0: d256 d2bc 4977 3ebd 8c8e 133c e8d2 21bb
000002e0: 02be c7bc 79b3 feba b577 58bd f4e5 eabc
000002f0: ba88 b43c c6e8 95bc 6da9 8fbd 0649 65bd
00000300: 899b 11bd edc7 7cbd 30ac 903c 234f 1fbd
00000310: b032 4cbd cf63 8fbd b5e0 05bd 2791 52bd
00000320: bc37 d53b 7f19 45bd 4945 24bd eaef 923d
00000330: 4db7 b83b a4be a3bc b9b0 843c 161b 80bd
00000340: aaf6 54bc cbb6 b6bc e31e 173b 77b4 bebd
00000350: ce61 e0bb 6ff7 c1bc 06be 3cbc 739d 95bc
00000360: 3308 4fbc 1f3d 11bd 353e 34bc 228c 23bc
00000370: 1f5d 80bd fc3c 0ebd a467 433a e08d f1bc
00000380: d8c0 11bd 5a9c 00bc a4d0 d43d a149 8dbc
00000390: fa46 143e 686f 31bd 014b edbc 5f0f 8b3c
000003a0: 089f 063c 393d efbc 98c5 aa3b 2d86 b6bc
000003b0: c587 90bb dc5d 633c 59fe 2c3e 8025 bbba
000003c0: 1874 cb3c 8dcb 40bd 15b2 80bd 5aee dd3a
000003d0: e285 21bd aec6 873b f1f0 96bd 5728 57bd
000003e0: 007e 66bd 209e 46bd ef73 e33b 9441 15bb
000003f0: 3c0d 0dbd 3060 35bd 3bcb 5abd 1c67 8dbc

hidden_layers.2.weight f4 [128, 256]
0.016309341 -0.06443868 -0.05233131 -0.044001766 0.055678982 -0.057063654 -0.027921088 0.02831285
0.062287286 0.0025098845 0.03997415 0.05316437 0.028403409 0.030355493 0.064009055 0.0050120656
-0.01705788 0.03272321 -0.0071824705 0.024366716 -0.0080232145 0.06170888 0.0398087 -0.037849754
0.019155879 0.0071849995 0.018127855 0.033614412 -0.07670042 0.022776479 -0.036551088 0.05223742
0.06464841 0.013691536 0.045752387 -0.036473755 -0.010320689 0.05274289 0.0041264594 0.015611099
0.009086685 0.04783881 0.0010077703 -0.06692981 -0.020250684 -0.02314336 -0.031316277 -0.002094473
0.031937078 -0.037781775 -0.029457817 -0.012821197 0.036002837 0.037951015 -0.027381884 0.047524538
-0.022961074 -0.05157888 -0.052765694 -0.031588797 0.03782954 0.041449256 -6.869341e-05 0.010348987
-0.008589885 0.0019038154 -0.028732587 0.058225535 -0.021561401 -0.043888833 -0.06038763 -0.01000394
-0.07762242 0.036759052 -0.0078706825 0.007977163 -0.056491412 -0.077724636 0.06287583 0.037631307
0.036335137 0.005081449 0.0030350136 -0.016931938 0.043131385 -0.03880493 0.049045756 -0.059432976
0.049224764 0.036109693 -0.053104322 -0.04829287 -0.02858782 -0.052955955 -0.021559024 -0.024682121
0.044289395 -0.063185304 -0.031376638 -0.06204091 -0.012880776 -0.000384066 0.03603179 0.0006369408
0.058019698 0.058666293 0.01886681 0.041088093 -0.011090275 0.072181284 -0.04430793 -0.020143194
-0.044941988 -0.041560158 -0.043331165 0.0148857925 -0.021857962 0.045862466 -0.024429752 0.08654176
-0.021034427 -0.025552006 0.06261764 0.032063678 0.006431138 -0.030239835 -0.013976661 0.039913487
0.0065320767 0.0651191 -0.056024585 -0.01193187 -0.042630013 0.04799293 -0.008443842 0.01681889
0.019804707 0.03522217 -0.041450422 -0.014810835 0.12728718 0.011515673 -0.024160445 0.029930025
-0.17506799 0.042548582 0.051739722 -0.03609226 -0.018118944 -0.015537157 0.005227665 -0.026025673
0.011488173 -0.007914166 -0.022626894 0.044043686 0.05694475 0.0427584 -0.015297016 -0.008747335
-0.009056256 0.002672545 0.05984273 0.022394404 -0.09201427 -0.034218837 0.012447842 0.0600771
0.06691088 -0.0028879624 0.01882376 0.016067702 0.018857105 0.027414924 -0.033189166 -0.0081351055
0.014418853 -0.013997105 -0.015785344 -0.064211756 0.007615767 0.01667504 0.0014801098 0.0048515587
0.05562838 0.0252078 -0.03156267 0.06362975 -0.031734828 0.01930101 -0.0022817235 0.04591644
0.019990005 0.07055665 0.061018806 0.03642719 -0.027671823 0.06357723 0.03607529 0.045441743
-3.5571433e-05 0.063232176 -0.10702226 -0.030223122 -0.0015968928 -0.040057592 -0.0012674553 -0.011697172
0.034076083 0.044536293 0.016770383 -0.004397746 0.044298865 -0.049376596 0.03094157 0.04400207
-0.048413742 0.061230976 -0.04505184 0.036122568 0.009394228 -0.016841011 0.01468198 0.0039027962
0.055463612 -0.054713752 0.020317093 -0.045023512 0.13179274 -0.05877947 -0.017579965 -0.030354673
0.022544274 0.011077003 -0.011586187 0.0473381 0.028906094 0.018373335 0.12667969 -0.018615218
0.017984943 -0.024521967 0.05416874 0.0033689167 -0.007401524 -0.036446974 -0.048459098 -0.027324986
-0.029622918 0.040239245 -0.040424094 -0.021724015 -0.045702208 -0.044039275 -0.018987779 -0.028614864
00000000: 2b9b 853c 6df8 83bd 5b59 56bd 323b 34bd
00000010: a50f 643d 94bb 69bd c4ba e4bc 5af0 e73c
00000020: f420 7f3d e07c 243b efbb 233d e2c2 593d
00000030: 44ae e83c 15ac f83c 2e17 833d 413c a43b
00000040: f8bc 8bbc c608 063d ee5a ebbb b59c c73c
00000050: cd73 03bc 73c2 7c3d 730e 233d 5808 1bbd
00000060: caec 9c3c 2570 eb3b de80 943c 44af 093d
00000070: 1c15 9dbd bd95 ba3c 98b6 15bd e8f6 553d
00000080: 6366 843d 7752 603c db66 3b3d 8165 15bd
00000090: 1b18 29bc ee08 583d 4037 873b b2c5 7f3c
000000a0: 52e0 143c a1f2 433d 2917 843a 7f12 89bd
000000b0: c3e4 a5bc 2597 bdbc 7f45 00bd 6d43 09bb
000000c0: 74d0 023d 10c1 1abd 8551 f1bc ff0f 52bc
000000d0: b677 133d 8672 1b3d f94f e0bc 17a9 423d
000000e0: dd18 bcbc 6044 53bd d720 58bd 4163 01bd
000000f0: 26f3 1a3d b2c6 293d 7e0f 90b8 cc8e 293c
00000100: 97bc 0cbc 7289 f93a 9a60 ebbc e67d 6e3d
00000110: 89a1 b0bc c7c4 33bd 0559 77bd 91e7 23bc
00000120: 81f8 9ebd a990 163d 09f4 00bc a6b2 023c
00000130: 8a63 67bd 182e 9fbd 0bc5 803d 4923 1a3d
00000140: 27d4 143d 4982 a63b 14e7 463b d9b4 8abc
00000150: 89aa 303d ebf1 1ebd 34e4 483d fe6f 73bd
00000160: e89f 493d c2e7 133d eb83 59bd bfce 45bd
00000170: 0131 eabc 58e8 58bd 8d9c b0bc 2932 cabc
00000180: cc68 353d 4c67 81bd ca84 00bd 9c1e 7ebd
00000190: e409 53bc 775c c9b9 1296 133d 60f8 263a
000001a0: 10a6 6d3d 114c 703d 918e 9a3c fd4b 283d
000001b0: fcb3 35bc c8d3 933d 3b7c 35bd 5703 a5bc
000001c0: 1715 38bd fc3a 2abd 057c 31bd 8ae3 733c
000001d0: 780f b3bc 48da 3b3d e720 c8bc ce3c b13d
000001e0: 6450 acbc 7152 d1bc ad3d 803d 3455 033d
000001f0: 4cbc d23b 88b9 f7bc 5dfe 64bc 537c 233d
00000200: 080b d63b 2a5d 853d 097a 65bd e47d 43bc
00000210: cf9c 2ebd 3c94 443d 0a58 0abc c5c7 893c
00000220: 7b3d a23c 1f45 103d ebc7 29bd 25a9 72bc
00000230: 9257 023e 3cac 3c3c 20ec c5bc d02f f53c
00000240: 0645 33be 6c47 2e3d 08ed 533d 7ad5 13bd
00000250: 2e6e 94bc 8f8f 7ebc d54c ab3b cb33 d5bc
00000260: e438 3c3c 6baa 01bc 095c b9bc 2767 343d
00000270: e63e 693d 6f23 2f3d 56a0 7abc fb50 0fbc
00000280: b160 14bc dd25 2f3b a71d 753d 7874 b73c
00000290: fa71 bcbd 0d29 0cbd 09f2 4b3c 6813 763d
000002a0: 9208 893d f843 3dbb 4934 9a3c 6aa0 833c
000002b0: 377a 9a3c 4395 e03c 5df1 07bd 1b49 05bc
000002c0: 0e3d 6c3c 1d54 65bc 4450 81bc 7481 83bd
000002d0: af8d f93b 189a 883c 3e00 c23a d3f9 9e3b
000002e0: 96da 633d 9780 ce3c dc47 01bd 5050 823d
000002f0: 61fc 01bd 271d 9e3c f888 15bb e112 3c3d
00000300: 14c2 a33c 0180 903d dbee 793d ad34 153d
00000310: 05b0 e2bc c734 823d afc3 133d 1f21 3a3d
00000320: 8932 15b8 df7f 813d 7d2e dbbd 7b96 f7bc
00000330: d54e d1ba 6e13 24bd be20 a6ba 7fa5 3fbc
00000340: 5d93 0b3d b06b 363d 0b62 893c f81a 90bb
00000350: ba72 353d 1d3f 4abd 2d79 fd3c 843b 343d
00000360: 7d4d 46bd 55cd 7a3d 4788 38bd 42f5 133d
00000370: 40ea 193c 29f6 89bc b08c 703c 0ec6 7f3b
00000380: d02d 633d 871b 60bd 0870 a63c 936a 38bd
00000390: adf4 063e bec2 70bd dc03 90bc 5daa f8bc
000003a0: c5ae b83c 517c 353c fed3 3dbc 98e5 413d
000003b0: 79cc ec3c ad83 963c 52b8 013e f17e 98bc
000003c0: 2955 933c 4be2 c8bc 0ae0 5d3d 0bc9 5c3b
000003d0: 7c88 f2bb 6c49 15bd 0c7d 46bd a6d8 dfbc
000003e0: c3ab f2bc e8d1 243d bc93 25bd 90f6 b1bc
000003f0: 3d32 3bbd 8762 34bd 428c 9bbc b869 eabc

hidden_layers.2.bias f4 [128]
0.35882345 -0.17075196 -0.07097563 0.0419109 -0.04963339 -0.068221174 -0.023356615 -0.042211004
-0.08001983 -0.07187639 -0.07935361 0.07418516 -0.08238732 0.15980682 -0.019319214 0.33823216
0.118200116 -0.08175109 0.040060487 -0.08938177 -0.05565091 -0.0822553 -0.11692061 -0.15861809
-0.0604269 -0.121592514 -0.07913427 -0.054517638 -0.076159574 -0.116915874 -0.07417384 -0.0076123616
-0.00027628223 0.11578015 0.02113808 -0.19507734 -0.0574026 -0.13711657 -0.054152798 0.12802832
-0.15688692 -0.1085045 -0.081730805 0.2510014 0.13950357 0.027517091 0.05910423 -0.0042302227
-0.03654894 -0.090250105 0.22188444 0.17330042 0.0008872526 -0.06507997 -0.087895624 -0.07733471
-0.0842761 0.000622668 -0.111876816 -0.086128905 0.058410037 -0.052635394 -0.13007003 -0.024860846
-0.04587324 0.26769665 -0.090300284 0.032823965 0.01078107 0.28682375 0.018592495 -0.06268107
-0.06934341 -0.102666356 -0.097957626 -0.12804866 0.05477529 0.11826612 -0.101920545 -0.10799984
0.17115843 -0.026392575 0.38485783 -0.06835835 -0.08893795 -0.052769557 -0.019133855 0.011359978
-0.104348466 0.076668516 -0.09284021 0.07985804 0.03155669 -0.017889159 0.15131518 0.4091904
-0.10383587 -0.06981333 -0.11952809 -0.14021926 -0.057562497 0.14319983 -0.09275177 -0.11440859
0.2830303 0.36426917 0.06238731 -0.08599136 -0.117307626 0.11580716 -0.068642445 0.03460604
-0.04552802 0.052201487 -0.12324857 -0.06317852 -0.073531754 -0.12967351 0.18017676 0.0012026092
0.090994954 -0.07409715 0.046064854 -0.09579574 -0.09432898 -0.097302966 -0.058596615 -0.07118837
00000000: b5b7 b73e 9ad9 2ebe ac5b 91bd c4aa 2b3d
00000010: 624c 4bbd 8bb7 8bbd 5f56 bfbc 72e5 2cbd
00000020: 70e1 a3bd ee33 93bd 2584 a2bd 64ee 973d
00000030: afba a8bd 66a4 233e 5443 9ebc c42c ad3e
00000040: e712 f23d 1e6d a7bd 7716 243d ca0d b7bd
00000050: 35f2 63bd 7775 a8bd 1374 efbd c86c 22be
00000060: 3282 77bd 7f05 f9bd 2611 a2bd e34d 5fbd
00000070: 8df9 9bbd 9771 efbd 74e8 97bd 1e71 f9bb
00000080: f9d9 90b9 251e ed3d c429 ad3c 5bc2 47be
00000090: fd1e 6bbd 4968 0cbe 53cf 5dbd db19 033e
000000a0: f7a6 20be 9b37 debd 7b62 a7bd 4183 803e
000000b0: 06da 0e3e 866b e13c 4717 723d ae9d 8abb
000000c0: 57b4 15bd 0cd5 b8bd ad35 633e aa75 313e
000000d0: 8496 683a a648 85bd 9f02 b4bd a961 9ebd
000000e0: f398 acbd 8b3a 233a ac1f e5bd 5a64 b0bd
000000f0: 5d3f 6f3d 3698 57bd 1431 05be f9a8 cbbc
00000100: 94e5 3bbd 890f 893e 5bef b8bd 6c72 063d
00000110: 16a3 303c 90da 923e 4a4f 983c ef5e 80bd
00000120: eb03 8ebd bd42 d2bd 029e c8bd 301f 03be
00000130: 0e5c 603d 8235 f23d b8bb d0bd 052f ddbd
00000140: 2844 2f3e 3e35 d8bc 160c c53e 76ff 8bbd
00000150: 1a25 b6bd e424 58bd 9abe 9cbc 331f 3a3c
00000160: a6b4 d5bd 6204 9d3d 0223 bebd 9d8c a33d
00000170: 9641 013d 498c 92bc 5ef2 1a3e 6781 d13e
00000180: e7a7 d4bd 4bfa 8ebd 25cb f4bd a395 0fbe
00000190: a7c6 6bbd faa2 123e a4f4 bdbd 0d4f eabd
000001a0: 59e9 903e 7d81 ba3e d689 7f3d 3d1c b0bd
000001b0: fb3e f0bd 4e2c ed3d 6994 8cbd 10bf 0d3d
000001c0: 977b 3abd 3ad1 553d bf69 fcbd bd63 81bd
000001d0: d197 96bd 22c9 04be 4280 383e dea0 9d3a
000001e0: 905b ba3d 3fc0 97bd 80ae 3c3d 8f30 c4bd
000001f0: 8d2f c1bd c746 c7bd 0103 70bd 35cb 91bd

output.weight f4 [4, 128]
0.10364431 0.031554874 0.034075364 0.046698604 -0.018774118 0.013121576 0.028929017 -0.0060425573
-0.089665644 -0.040849082 -0.056283552 0.042586647 -0.002172796 0.05496508 0.0062550334 0.104707815
0.05036995 -0.055576276 -0.10730946 -0.010193275 0.024838528 0.073332034 -0.04205176 -0.034570727
-0.05240782 -0.087051444 -0.07309522 -0.07005314 -0.050161418 -0.053200327 -0.013854429 -0.001969558
-0.13116723 0.032350313 -0.13043669 0.02657778 -0.06880924 -0.0059766285 -0.0049141976 -0.028646495
-0.02777051 0.0028122573 0.005893527 0.051249426 0.05768815 0.065760784 -0.13635495 0.014041064
0.03398703 0.013389457 0.0743055 0.07142751 -0.056534354 0.0038930397 -0.02152256 -0.014710888
-0.0048743016 0.044855677 0.019019648 0.003520299 0.05263517 -0.01816984 -0.033208992 -0.06305341
-0.04129756 0.15202597 -0.027430093 0.034087922 -0.044129763 0.16887996 -0.15576684 -0.01927126
0.0040312973 0.0074447636 0.0011101553 -0.020539973 0.02399084 0.041125342 -0.036601674 -0.033887886
0.045585264 -0.08777466 0.12515599 0.007624191 0.005097604 -9.962617e-05 0.017542263 0.020327954
-0.024257163 0.0044218106 0.047138575 0.021262676 -0.004003238 0.033466425 0.038690567 0.1531832
-0.041925453 -0.025704674 0.028372478 0.027862813 0.01787733 -0.033891812 -0.070241705 0.023084695
0.08918536 0.12832639 0.08393369 -0.007436545 -0.027113171 0.1284228 0.009356245 0.14874075
0.03325341 0.0858875 -0.007776555 -0.048995838 0.011516615 0.023757145 0.02017297 -0.11205155
0.027117057 -0.0020946255 0.043932896 -0.006622764 0.03159538 -0.043140057 -0.022480255 -0.038294807
0.12368526 -0.03855801 0.044639125 -0.030966723 0.005077937 -0.025112377 -0.033755567 -0.0041878456
-0.038404465 -0.028244205 -0.006949472 0.13597323 -0.029820945 0.19534083 0.024245998 0.12680179
0.06957743 0.0692113 -0.024166936 0.112556 0.055208705 0.051853467 -0.10041636 -0.015367602
-0.0060925176 -0.020250317 -0.027571946 0.004371286 -0.008908997 0.020533906 -0.021787018 0.09076838
0.025315782 0.07154509 -0.02702157 -0.13464081 -0.07614544 0.015203369 -0.13395263 0.07848936
0.014290621 -0.012348547 0.03517016 0.0772774 -0.0035981948 -0.009065082 -0.00950322 0.09846345
0.048183735 -0.056844074 0.062436007 0.102829486 -0.039486263 -0.0010083872 0.032469578 0.0970967
-0.009791392 -0.07400788 -0.06631796 -0.05237475 -0.050897304 0.06586262 0.056752738 0.014220632
0.015552436 0.03012818 0.010071201 -0.04062997 -7.308911e-05 0.12591124 0.021610862 0.07005602
-0.07350469 -0.065228656 0.049087707 0.01585498 0.004504564 0.08775533 -0.05037388 0.08487184
0.039180562 -0.016683187 0.15182206 0.0037616799 -0.017678892 0.0047792 -6.5182962e-06 0.13855307
-0.05353609 0.060282066 0.064005695 0.05614894 0.044857156 -0.036566712 -0.039409306 0.114933565
-0.02539254 -0.033787023 0.020027982 0.04671641 0.018198958 0.029008927 0.016970163 0.010639743
0.092118986 0.1215774 0.08477353 0.027969105 -0.05278734 0.13397375 -0.049876288 0.007773085
-0.0030261534 0.121310934 -0.0039151106 -0.11703366 -0.014186211 -0.06940222 -0.01968237 0.014646255
-0.0017146452 -0.123339385 0.1361957 -0.035396807 0.026763279 0.006772591 0.02569263 0.035969883
00000000: 7843 d43d af3f 013d 9c92 0b3d 0947 3f3d
00000010: 2ecc 99bc e1fb 563c 8cfc ec3c a500 c6bb
00000020: 9fa2 b7bd 5e51 27bd 9589 66bd 566f 2e3d
00000030: 7865 0ebb 1023 613d 06f7 cc3b 0d71 d63d
00000040: b850 4e3d f3a3 63bd 10c5 dbbd b201 27bc
00000050: 2b7a cb3c 1b2f 963d 773e 2cbd 099a 0dbd
00000060: 95a9 56bd 0748 b2bd f2b2 95bd 0578 8fbd
00000070: 0f76 4dbd 96e8 59bd b0fd 62bc b313 01bb
00000080: b450 06be c381 043d 3291 05be a5b9 d93c
00000090: dceb 8cbd 98d7 c3bb 4707 a1bb 0eac eabc
000000a0: fb7e e3bc d94d 383b 7d1e c13b ebea 513d
000000b0: 694a 6c3d 97ad 863d a2a0 0bbe 7e0c 663c
000000c0: fc35 0b3d 745f 5b3c 7b2d 983d 9648 923d
000000d0: 9190 67bd 5e22 7f3b 1450 b0bc f005 71bc
000000e0: 9bb8 9fbb 96ba 373d 18cf 9b3c d1b4 663b
000000f0: fa97 573d ebd8 94bc 2706 08bd 2522 81bd
00000100: a127 29bd b2ac 1b3e 13b5 e0bc c79f 0b3d
00000110: 69c1 34bd deee 2c3e 5881 1fbe c3de 9dbc
00000120: f918 843b 34f3 f33b a182 913a 7243 a8bc
00000130: 7088 c43c 0c73 283d a3eb 15bd 06ce 0abd
00000140: 9db7 3a3d 33c3 b3bd e428 003e 5ad4 f93b
00000150: cd09 a73b 65ee d0b8 cbb4 8f3c cf86 a63c
00000160: f5b6 c6bc d6e4 903b 6114 413d 102f ae3c
00000170: 982d 83bb 1714 093d 007a 1e3d 0fdc 1c3e
00000180: 06ba 2bbd 9c92 d2bc 666d e83c 8e40 e43c
00000190: 7a73 923c 24d2 0abd e2da 8fbd 1d1c bd3c
000001a0: d0a6 b63d fe67 033e 6de5 ab3d 43ae f3bb
000001b0: 711c debc 4481 033e f04a 193c 7f4f 183e
000001c0: ba34 083d c9e5 af3d 79d2 febb dcaf 48bd
000001d0: 2fb0 3c3c 589e c23c c941 a53c 487b e5bd
000001e0: 9724 de3c fc45 09bb fbf2 333d c503 d9bb
000001f0: 286a 013d a1b3 30bd 8328 b8bc 04db 1cbd
00000200: b34e fd3d 01ef 1dbd 84d7 363d edad fdbc
00000210: d364 a63b 79b8 cdbc 4743 0abd 323a 89bb
00000220: 004e 1dbd 6460 e7bc 65b8 e3bb 913c 0b3e
00000230: 0e4b f4bc 6d07 483e 8b9f c63c 54d8 013e
00000240: 9d7e 8e3d a7be 8d3d bdf9 c5bc c383 e63d
00000250: 8622 623d 4d64 543d 18a7 cdbd 65c8 7bbc
00000260: bea3 c7bb fee3 a5bc 90de e1bc 013d 8f3b
00000270: 0bf7 11bc b936 a83c b07a b2bc c6e4 b93d
00000280: 0b63 cf3c 3b86 923d 575c ddbc 48df 09be
00000290: 24f2 9bbd 8d17 793c e12a 09be 08bf a03d
000002a0: 3523 6a3c 8f51 4abc 960e 103d 9d43 9e3d
000002b0: b1cf 6bbb b685 14bc 65b3 1bbc 35a7 c93d
000002c0: 4f5c 453d 55d5 68bd e6bc 7f3d 4498 d23d
000002d0: 59bc 21bd dc2b 84ba d2fe 043d a2da c63d
000002e0: 136c 20bc 7291 97bd b6d1 87bd e886 56bd
000002f0: b179 50bd fbe2 863d 8f75 683d a7fd 683c
00000300: a5cf 7e3c 5fcf f63c ae01 253c 9d6b 26bd
00000310: 6b47 99b8 e0ee 003e 4309 b13c 8879 8f3d
00000320: a089 96bd 9a96 85bd 3110 493d 4ee2 813c
00000330: 069b 933b 11b9 b33d d754 4ebd 4ad1 ad3d
00000340: cc7b 203d 2eab 88bc 3e77 1b3e 8486 763b
00000350: 53d3 90bc d69a 9c3b bdb7 dab6 dbe0 0d3e
00000360: a948 5bbd 54ea 763d 6b15 833d 6efc 653d
00000370: 23bc 373d fac6 15bd a76b 21bd 4a62 eb3d
00000380: 0404 d0bc 4364 0abd b911 a43c b559 3f3d
00000390: fb15 953c 21a4 ed3c 0305 8b3c 5152 2e3c
000003a0: e1a8 bc3d 92fd f83d bf9d ad3d 771f e53c
000003b0: 8a37 58bd 6a30 093e 144b 4cbd 5db5 fe3b
000003c0: 6e52 46bb de71 f83d 544a 80bb 58af efbd
000003d0: 486d 68bc c022 8ebd ec3c a1bc d9f6 6f3c
000003e0: f2bd e0ba 5c99 fcbd e376 0b3e 3efc 10bd
000003f0: aa3e db3c 9cec dd3b 5a79 d23c 2855 133d

output.bias f4 [4]
0.23569812 0.1821148 0.21978182 0.22248311
00000000: d95a 713e 4d7c 3a3e 7c0e 613e 9dd2 633e
