Navigation/Solved_ep271.pth (torch_old, 738269 bytes, 8 tensors)

hidden_layers.0.weight f4 [512, 37]
00000000: 925e 9dbd 7843 c83d 6f43 3dbe bab4 0dbe
00000010: bd6d 3bbe 892a 113d 7a27 84bd 52b6 9e3d
00000020: 7a44 cbbc 90fd debc 1df6 db3c 9b84 75be
00000030: 14c7 92be 43a1 a8bd 8a59 2ebe 05af f7bc
00000040: 2657 593d 4af4 6c3d 70f6 73be 2bd8 66be
00000050: 181e b03d cf44 533d 83b4 6fbd fc45 0ebe
00000060: 59fd 7d3d 52a3 053b 422f e23d 7d71 20be
00000070: fd8f 4abe 2fc1 09be ac27 3bbd 9050 e8bd
00000080: 7b30 8ebd 7341 5abe 7087 9fbe 6d9e 8cbe
00000090: d88f 7ebd 8189 ccbb 6e0b 7ebd 5a08 54bd
000000a0: be9e c43d 4e43 a7be 040e 74be 1df3 45be
000000b0: 5446 c4bd 53a2 55be 30fb 10bf f07d f2b9
000000c0: c2c0 14be f88d bfbc db81 1ebe 3383 b43d
000000d0: ab62 d8bb c879 f1bc b69a cd3d 56ba 5dbe
000000e0: 9f59 1bbd b195 f7bd d6bb 36be 61de 9fbd
000000f0: 40ed e9bd 5e6e 8d3b 4a49 24be 6cea e8bc
00000100: c4ad 9d3d c998 ffbd 6fa8 95be bda7 04be
00000110: 14e1 b83c c3aa 513e d183 e6be ce23 c3be
00000120: 301d d53d 5ad3 753c 8300 a03e 6ac5 a33d
00000130: 9353 64bd dd9d b8be 0fb0 bb3d 6b85 90be
00000140: b3b1 8ebe 2613 063e ba6b b73e daad c8be
00000150: 72ca a33d 0d7e 57be 1bd6 81bd d49b fa3d
00000160: 8b43 8dbc fb0b 273c 1bfa 5d3c 58e7 c43b
00000170: f0b6 873d e080 e83d c533 69be 9054 16be
00000180: ae06 a93d 69a0 0c3d 34fb babd 92f2 36be
00000190: 6c5d 793e 6fef d93c 3950 0bbe fd6b 98bc
000001a0: 321c fcbd 716c 96be 4596 22be 16d6 86bc
000001b0: f5ff 07be 4db6 a43d 7022 bb3a 8ce1 363e
000001c0: eba8 53be 7ab4 f23d 1c76 e73b 8cbe 97be
000001d0: b9c8 9c3d 16ce 8dbd 7e93 02be 0a2b b83c
000001e0: 676c c3be 6de2 c0bc 1a51 babd 8ed3 d33d
000001f0: 7247 66be 677f 08be 7d85 9dbd 0783 c2bd
00000200: 3734 4b3c 8a70 77be 604c 99bd f57f 903d
00000210: 745b 5ebe f448 9cbb a94a 013e 31af e5bc
00000220: 7920 42bc 8a44 dcbd 98ca b03d 03d7 f63d
00000230: 45ff 8b3d d64c 093e cd03 373e 7d0f b0bc
00000240: 4014 84be c571 8cbe 7601 2a3e ccac c3bb
00000250: 8511 cbbd 3caa 33be 93a5 a6bd 0136 77be
00000260: ec7f 7ebd 66fa adbb 0cc7 b53d bde1 1dbe
00000270: 58fd 433e 53bf dcbd ef40 4fbd 3c57 febd
00000280: c6f0 96bc 2f3c 793c b1fe aabd 6b0f 8fbe
00000290: 1717 b1bc dcfd d0bc 608a eb3d 6d78 613d
000002a0: 9d8f 45be c842 6fbe 12cd 443e 16f5 ae3d
000002b0: d949 213e 0f85 acbc 6654 fcbd db2f 943d
000002c0: 170b b73d 4840 803e 5b49 d8bc 5f58 76be
000002d0: ff5f 9f3c ac84 873e 1603 c63e bebf 03be
000002e0: 1464 ba3c 23db d93c 91e8 f2bc 1c45 2dbd
000002f0: a7b1 67be be7e f63d 9946 2d3e bc5c 5e3d
00000300: 6eeb 8bbe 97fe 0dbe 8657 94bf df2b bfbd
00000310: 40ae 1bbe 1a5f 1d3d dd5c 22be b67d 92bd
00000320: a15a 71bc 519d fd3d 27b5 21be 42e9 6ebe
00000330: d26b cebd b49a b43d ef3b 57be 4f6d 063e
00000340: a870 1e3e 6c33 33be 894d 20bd e22a 4fbd
00000350: 81e5 4f3d 8510 9fbd 2a24 baba bad4 b8bd
00000360: 0550 bcbd 9008 4fbd 097c 5b3e f9ac ddbd
00000370: bdc8 a7bc 8f1b 543d 321e 1fbe f8bb 09bd
00000380: 462f 85bd e497 dd3d dda5 db3c adba 06be
00000390: 33b4 11be c27a 97bc 1b88 38bd 449e 3e3d
000003a0: 2de7 d6bd 495e 523e 6e5a 8fbc b075 40be
000003b0: d47b 15bc 85ad 6fbe fc78 acbd 58ba 13be
000003c0: f08d 193e 3c61 533d b9dd 89be afa1 b43d
000003d0: 890a 0fba 18ca 8fbe 79a7 cd3c e028 b9be
000003e0: b9ed a13a 9fc5 09be a5ff aabd 3020 c5bb
000003f0: c096 60be 6cf1 7cbb 8419 0cbe ec35 3c3e
-0.076840535 0.09778494 -0.18482755 -0.13838473 -0.1830358 0.035440955 -0.06452842 0.077496186
-0.024812926 -0.027220517 0.026850754 -0.23976366 -0.2866751 -0.08233883 -0.17026344 -0.030234823
0.053061627 0.05785016 -0.23824477 -0.22543399 0.0859949 0.051579293 -0.05852176 -0.13893884
0.06200919 0.0020391536 0.1104417 -0.15668292 -0.1978149 -0.134526 -0.04569213 -0.11343491
-0.06942841 -0.2131403 -0.31158018 -0.2746462 -0.0621489 -0.0062419777 -0.06202262 -0.051765777
0.0960059 -0.32668537 -0.23833472 -0.19331022 -0.095837265 -0.20862703 -0.5663328 -0.00046251668
-0.14526656 -0.023383126 -0.15479223 0.08814087 -0.006603559 -0.029477015 0.100392744 -0.21653113
-0.037927266 -0.12089098 -0.17845091 -0.07806087 -0.11422205 0.0043161353 -0.16043583 -0.028432094
0.07699159 -0.12480313 -0.29230067 -0.12954612 0.022568263 0.20475297 -0.45022443 -0.38113254
0.10405958 0.015004003 0.3125039 0.07996638 -0.055743765 -0.3605794 0.0916444 -0.2822679
-0.2786995 0.13093242 0.35824376 -0.39195138 0.07997598 -0.21044178 -0.063396655 0.12236753
-0.017244121 0.010195727 0.013548399 0.0060090236 0.066266894 0.11352706 -0.22773655 -0.14680696
0.08253227 0.034332667 -0.091299444 -0.1786597 0.24352044 0.026603429 -0.13604821 -0.01860618
-0.12310065 -0.2937961 -0.15877636 -0.016459506 -0.13281234 0.080425836 0.0014277231 0.17859477
-0.20669906 0.118508294 0.0070636403 -0.29637563 0.07655472 -0.069240734 -0.12751576 0.02248146
-0.38168642 -0.023545468 -0.090975 0.10343085 -0.22488192 -0.1332985 -0.076914765 -0.09497648
0.012402586 -0.24164024 -0.074852705 0.07055656 -0.21714574 -0.004769439 0.12626137 -0.02803764
-0.011848562 -0.1075526 0.08632392 0.12052729 0.06835798 0.13408217 0.17872544 -0.02149176
-0.257967 -0.2743055 0.1660212 -0.0059715267 -0.09915451 -0.17545408 -0.081370495 -0.24141695
-0.062133715 -0.005309391 0.08875856 -0.15418144 0.19139612 -0.1077868 -0.050599035 -0.124189824
-0.018425357 0.015212103 -0.0834936 -0.2794145 -0.021617455 -0.025511675 0.11501002 0.055046488
-0.19293065 -0.23365319 0.19218853 0.0854284 0.15750827 -0.021059541 -0.12320785 0.0723569
0.08937662 0.25049043 -0.026402166 -0.24057148 0.019454954 0.26468408 0.3867423 -0.12866113
0.0227528 0.02659375 -0.029651912 -0.042302236 -0.22626363 0.12035893 0.16921462 0.054287657
-0.27328056 -0.1386665 -1.158921 -0.093345396 -0.1520319 0.038420774 -0.15855737 -0.07152884
-0.01473108 0.12383521 -0.1579176 -0.23331168 -0.10079159 0.0881857 -0.21018957 0.13127635
0.15472662 -0.17500085 -0.039136443 -0.050578006 0.05075598 -0.07766823 -0.0014201452 -0.09024949
-0.0919495 -0.050545275 0.21434034 -0.108240075 -0.020481462 0.051784094 -0.15538862 -0.033626527
-0.06503157 0.108199865 0.026812488 -0.13157149 -0.14228897 -0.018491153 -0.045051675 0.046537653
-0.10493312 0.2054378 -0.017499175 -0.18794894 -0.009123761 -0.23406036 -0.084215134 -0.14426553
0.14995551 0.0516064 -0.26926973 0.08819901 -0.0005456587 -0.28083873 0.025104271 -0.36163998
0.0012354172 -0.13454293 -0.083495416 -0.0060158 -0.21932507 -0.0038596047 -0.13681608 0.18379945

hidden_layers.0.bias f4 [512]
00000000: b820 68be 1024 623c 9318 b13c 224d 4abc
00000010: dca7 86bd 93f6 17be 6fb9 9cbd 5cf0 fdbd
00000020: 802f 7bbd 5b94 913d f8ea 80be 54a2 ad3d
00000030: ca99 d23d 3cd1 f6bd 02c0 27be 70b9 67be
00000040: 1c15 473d 879c 4dbd d398 e1bd e2fd 8a3d
00000050: 3f5e 12be 5f22 e53b a5ee 853b 655b a8bd
00000060: 8b93 1fbe e0f1 22be 01b1 43be 9c11 423e
00000070: 5f9e 113e 5652 543e 3907 783c acfe debd
00000080: fdf4 23be 4a03 7abe 3680 dfbd 6c67 2cbe
00000090: 7696 13be 3870 c4bd 5eeb a3bd 235c 85bc
000000a0: 17a0 13be 4536 b5bd 14c3 a6bc 722b de3d
000000b0: 2eba 4c3d ed39 243d 4ff2 36be 970c 90bd
000000c0: 29f0 2ebe 1266 b63c d9cd 013e a0ec e9bd
000000d0: 7ad0 be3d 929e a6bd 5eef 11be 5013 ccbd
000000e0: 0242 7bbc 2f53 0cbe 17b1 3fbe 1c39 8bbd
000000f0: 641f 07be 81ae 183e d6ad 6bbd 3f41 063c
00000100: 6f61 bb3c 15a7 2ebe 20b1 c73d 26c2 57bc
00000110: a924 9abc b1bc 63be 7080 0c3e 924d 0ebe
00000120: a292 443d 4bde da3d 34ea b4bd 3e73 7b3d
00000130: ae7b 05be 99b1 803c 3e7c f2bd c02c 0d3a
00000140: d3f9 61bd 9567 143d cade 13be f008 b2bc
00000150: f03b 813c decd 4a3d dccf 34be 81b6 8ebc
00000160: 2ec2 4d3d 1113 24be 3d52 e2bd b52b 7ebd
00000170: 60d9 16be 0ea8 0b3e e999 003d 36e3 7abd
00000180: 78fa 8cbd ea17 cabd a05b 19bd 6981 86bd
00000190: 7902 343d 3d11 f53b 14e0 263d db15 18be
000001a0: 9a7e 3ebe ac10 753d 357a d3bd feb0 7abe
000001b0: 734e ab3d 3c7a 5d3c 0350 d4bd 806a 28bd
000001c0: 8de2 2dbe 4185 063d 281b febd 7d2d 083e
000001d0: 608f af3d fce7 f53d 7bee c4bd 3dbe bebd
000001e0: 2145 a6bd 8d91 d6bc 4526 7cbd bd3d b4bd
000001f0: 6f5b d23d 781b c03c 8619 00be 398d e4bd
00000200: cfa5 b03d 84bb 3f3d 5bc8 88be c139 43be
00000210: 1d7c 47be b09f 663d d8cb 04be be42 903d
00000220: 5e06 fabd 71c9 ea3d 3e24 cbbd 25db dbbd
00000230: ed7e c53b 82d8 3d3e 8cac 0cbe 1d6a d53d
00000240: 5c48 48be f8a0 26be a9d0 43bd b018 2c3e
00000250: a218 a6bc 61a3 713d f68a 9c3d c79f b53d
00000260: d8f6 c6bc be30 24be fc37 e9bc dc52 5fbe
00000270: 3d0b 253b 0fc6 a2bd 475b 2dbd 4001 8bbe
00000280: 9528 a43b 590c d5bd 67b8 88be 7dda 27bd
00000290: 787b b3bd 4294 54be 6d06 ad3c 4e48 2a3d
000002a0: 7418 5abe 503a cbbc 3505 aa3c c971 353d
000002b0: e4f5 cabd f81c 1fbe 87ae 15be 0a43 6cbe
000002c0: 672e aabd 5cd7 403d 1715 b73c 77d9 d8bd
000002d0: b0b3 68bd 975b 34be 55fb 2ebd 3e20 853b
000002e0: c76b 373d f6c1 c3bd ee0e 0ebe 3fec e2bc
000002f0: f475 fbbd 6e9c c6bd 10d0 bc3d 2ad8 bbbd
00000300: d38c 653c 7f45 b3bd 2bef adbd 1c2d c13c
00000310: ec89 b8bc c5c2 58be 58ea d93d 16ef 21be
00000320: f236 f13d 0491 32bc 7754 883c e025 393d
00000330: 5db4 0ebe 3d30 1cbc 988c 6cbd d188 96bd
00000340: 8fa0 d63d 1009 833d 8371 4fbd 7886 913d
00000350: 2180 b83c 00db d63d 3d0e 0abe b7c0 203e
00000360: 1dab 14bc f42c d8bc e667 433d cb45 3dbe
00000370: 3afd 95bd 88aa ebbd c5e7 913d 1eb8 a1bd
00000380: 2718 39bd df14 883d a85e 833d 447e b9bd
00000390: 0b49 0f3a 0aa1 123d 62e6 2dbe b8a9 60bd
000003a0: 429f 65be d423 a83d 2aa0 8f3b 63ae 28bd
000003b0: 8913 4f3d b97c cd3d c11b 2abd 1389 cabd
000003c0: 9239 f43d f68d e5bd 428b 503d 4f49 9a3d
000003d0: b590 eabc 87cd 5cbe 2b62 0cbd f0fb c23d
000003e0: 761e 06bd 63b9 6c3c c67b 12bd 7a9d 0cbd
000003f0: cd2f 943d 9fdf 3cbd 51a6 bcbd 768a 0ebe
-0.22668731 0.013802543 0.021618163 -0.012347491 -0.065749854 -0.14840154 -0.07652556 -0.123993605
-0.061324596 0.07108375 -0.25179267 0.08478227 0.10283239 -0.12051627 -0.16381839 -0.22629333
0.048604116 -0.050198104 -0.11015477 0.067867056 -0.14293765 0.0069926227 0.0040872865 -0.08220557
-0.15583627 -0.1591258 -0.1911049 0.1895203 0.1422057 0.20734534 0.015138441 -0.108884186
-0.16011424 -0.24415317 -0.10913126 -0.16836327 -0.14412865 -0.095917165 -0.08003877 -0.016279286
-0.14416538 -0.08848242 -0.020356692 0.1084813 0.049982242 0.040094305 -0.17865871 -0.07033651
-0.17083801 0.022265468 0.12676181 -0.11422086 0.093171075 -0.08135714 -0.14251468 -0.09964621
-0.015335562 -0.13703607 -0.18719898 -0.06798002 -0.13195568 0.14910318 -0.05753883 0.008194267
0.022873608 -0.17055924 0.09750581 -0.013168847 -0.018816309 -0.22239949 0.1372087 -0.13896778
0.047991402 0.1068693 -0.08833733 0.0613892 -0.13035461 0.015709685 -0.118401036 0.00053853914
-0.05516989 0.036231596 -0.14440456 -0.021732777 0.01577565 0.049512736 -0.17657417 -0.017421009
0.050234012 -0.16022898 -0.11050842 -0.0620534 -0.1473136 0.13638327 0.03139678 -0.06125184
-0.068837106 -0.098678425 -0.037440896 -0.06567652 0.04394767 0.0074788616 0.04074104 -0.14852087
-0.18602982 0.059830353 -0.103260435 -0.2448158 0.083645724 0.0135179125 -0.103668235 -0.04111719
-0.16980954 0.032841925 -0.124075234 0.13298602 0.085722685 0.12007138 -0.09615799 -0.09313629
-0.08118654 -0.02619245 -0.061559934 -0.08800838 0.10271346 0.023450598 -0.12509736 -0.111597486
0.086253755 0.04680969 -0.2671536 -0.19065 -0.19480939 0.056304634 -0.12968385 0.0704398
-0.12208246 0.11464203 -0.09919022 -0.10735158 0.0060270936 0.18539622 -0.13737696 0.1042063
-0.19558853 -0.16272342 -0.047806416 0.16806293 -0.020275418 0.0589937 0.07643692 0.08868366
-0.024287626 -0.16034219 -0.028469078 -0.21808952 0.00251837 -0.07947933 -0.042323377 -0.2714939
0.0050097206 -0.10402746 -0.26703188 -0.04097985 -0.08763784 -0.20759681 0.021121228 0.04157286
-0.2129839 -0.024808079 0.020754436 0.044297967 -0.09910181 -0.15538394 -0.14617358 -0.23072448
-0.08309632 0.047080383 0.022348924 -0.10588353 -0.05681199 -0.17613064 -0.042720158 0.0040626815
0.04478052 -0.095584795 -0.13872883 -0.027700542 -0.12278357 -0.09697805 0.09219372 -0.091720894
0.014010626 -0.0875349 -0.08492883 0.02358108 -0.022526704 -0.21168049 0.10640401 -0.1581386
0.11778058 -0.010898832 0.016641838 0.045202136 -0.1393599 -0.009532985 -0.05775127 -0.073503144
0.10479843 0.06398213 -0.050645363 0.07105726 0.022522034 0.1049099 -0.13481994 0.15698515
-0.009074 -0.026388623 0.047706507 -0.18483655 -0.0732369 -0.11507136 0.07124285 -0.07896446
-0.04518905 0.06644606 0.064145386 -0.090572864 0.00054659013 0.03579811 -0.16982415 -0.054849356
-0.22424033 0.08209959 0.0043831067 -0.041181933 0.05055574 0.100335546 -0.041530374 -0.09889426
0.11925043 -0.112087175 0.050914057 0.07533514 -0.028633455 -0.21562777 -0.034273308 0.095207095
-0.032743894 0.0144484965 -0.03576257 -0.03432987 0.0723568 -0.0461117 -0.0921141 -0.13920006

hidden_layers.1.weight f4 [256, 512]
00000000: e666 9aba 69d5 77bc b6bd 65bb 73f9 19bd
00000010: c6bd 31bd 0611 24bd 694b 3e3d dfb8 30bd
00000020: 9e1a 2e3c 0e4d 3c3d dde4 71bd 0ee3 19bd
00000030: 6cf2 4fbd dbc4 16bd 8c0e 1abc 45a2 c1bc
00000040: e75d 443d 3234 2abd a995 d23c b95e cfbb
00000050: 44ac 4cbc d747 06bd ca05 11bd b6bd f1bc
00000060: 4ca1 46bd 9125 02bc 6129 dd3c 65a3 74bd
00000070: 4439 d13c 9647 00bc 312d 943b e9b9 1ebc
00000080: 18e1 79bd d9d4 7f3c ebe3 d63c 0854 583c
00000090: bf60 a33b dfc8 433d 6d2e dcbc 468f 0dbd
000000a0: a4a1 993c 8722 08bd f764 323d 6ce1 173b
000000b0: 1c2e dd3c 2582 173b 7c29 9e3c 06d3 c13c
000000c0: f225 f83c 051d cebc c2e6 983c 10b8 6439
000000d0: 1f32 213d a365 dabc bdf5 a33c 0112 d2bc
000000e0: 6b58 b53c e5a1 f7bb 1a1c 1ebd 9f0c 043d
000000f0: 73f4 53bc c59d 86bc cf4c b43c 380f e63c
00000100: f5b6 95b8 8f83 00bd 76c4 cdbc d57f 46bc
00000110: 3339 2b3c 1e1d 1fbd aa31 75bc b491 52bd
00000120: 7932 bfbc 3e4d cc3c 0c4c 4ebc f7e3 063c
00000130: d4a6 703b b136 cabc 442b 0fbd b092 d13c
00000140: 68ba 94bd aa45 43bd 2f03 00bd 48a1 8ebc
00000150: 5b13 c3bc 2624 923c fa6c b5bc 4cfc 5cbc
00000160: 6d7a 59bc cadd 10bd 270e e1bc c44d a33b
00000170: 0018 de3c cbe6 12bd 295b fb3c 7551 00bd
00000180: d23c 99bd 489b b1bb a067 933c 2f48 2fbc
00000190: 4ed7 4a3c 60bd 94ba 86db d9bc 7686 b63c
000001a0: 859a c83b 27b1 5bbd c302 053d 437d 61bc
000001b0: abc1 a1bd 4d11 103d b207 a5bd 7bbf 313b
000001c0: 72a5 56bd 46eb 2ebc 213f 273c c6d3 81bc
000001d0: 488f a73c c931 e9bb a8df 963a 9826 3abc
000001e0: 41fe 47bd 3318 f4bc ce2d b93c c562 aa3b
000001f0: 845b b0bb 88df 21bc db14 563c dee2 87bc
00000200: ef70 713c e68b a23c 9111 463b c5c0 32bd
00000210: 6a6e d03c f560 81bc 5dcc 0c3a 4012 fabc
00000220: c946 09bc 4f65 debc 9e5e 8a3c 3635 0abc
00000230: b3f3 e93c e0e9 4abd 45c8 d63c f4af 2ebd
00000240: 8f6d 72bd ba86 45bd de9f 42bd d346 f8bc
00000250: 2b51 f33b 3dde 91bc 38c2 33bd 2400 413c
00000260: b175 81bd 1cab d23c 3ae0 eebc 5b14 a3bc
00000270: 3b4b d8bc daa5 66bc 39c7 03bc 1d9a a3bc
00000280: af63 b03c f380 acbc 2d27 8bbc 14b1 d6bc
00000290: d06e 033a 836a 9d3c fa7c 94bb f312 f03b
000002a0: 5b08 93bc 785f 9bbc 4571 33bd 23af 31bd
000002b0: 8d32 97bd 86f3 1dbd aa9f e43c 7343 d3bc
000002c0: f685 5fbd f240 38bd 46ca 27bd b1aa cc3b
000002d0: 6836 06bd 0ff8 42bb c52e c13c 5429 053d
000002e0: 3847 04bd 3c7c d23c 51fe bf3a 8228 a6bc
000002f0: 2d40 23bd b5fb 093c 1d71 8a3b 864d 223c
00000300: 90ed 87bd c6dd 23bd 77ed 22bc 2a6c 93bd
00000310: 0edc 2bbd 22ff dc3b 7c5f 20bd 358b d53c
00000320: 53fc 2c3d 60d7 ffbc 6bf9 d7bc b4ec afbc
00000330: b3bc 4dbd bb3d 053d 7557 abbc 2207 71bd
00000340: 6b0b 54bd af7d 7ebc 4775 d3bc 316d 7fbc
00000350: 7057 12bc 6b56 c63c 65d6 25bd 15f4 883b
00000360: 223d 20bd ca0c c8bc 04fb 1fbd 68af 693c
00000370: 0643 0c3d 9982 a3bc 514d 7cbc be94 80bb
00000380: 874a 33bb b7f6 dcbc 012e 763c dffd 943c
00000390: 39e7 ae3c 9a42 9dbc 02f0 bcba e532 12bd
000003a0: c738 1c3c 4a7f 02bd a9ba 15bb 1a01 e0b8
000003b0: a309 80bc 85a9 42bd 48a3 30bd 3d7c 0dbd
000003c0: 93a1 9fbc d1f0 2abd 2571 87bd ece5 24bd
000003d0: 78ea 2cbd 86ec f23b 4aaf 8e3b e927 87bd
000003e0: 57ae 29bd 5f6d 15bd 9004 1c3c 8e78 e73c
000003f0: 9b77 18bc 5034 4f3c 12ec 023d e901 3abd
-0.0011779934 -0.015126565 -0.0035055703 -0.03759141 -0.043393873 -0.040055297 0.046458635 -0.043145057
0.010626463 0.045971923 -0.05905615 -0.03757005 -0.0507683 -0.03680883 -0.009402882 -0.023636946
0.047941115 -0.041553684 0.02570613 -0.0063284305 -0.012492243 -0.032783356 -0.03540591 -0.029509407
-0.04849367 -0.007943527 0.02699727 -0.059726138 0.025540002 -0.007829567 0.004521989 -0.009687879
-0.06100568 0.015614712 0.026231727 0.013203628 0.0049858983 0.047798987 -0.026877606 -0.034560464
0.018753834 -0.033236053 0.04355332 0.0023175133 0.026999526 0.0023118344 0.01930689 0.023660194
0.030291531 -0.025160322 0.018664721 0.00021812343 0.03935444 -0.026659792 0.020014638 -0.02564335
0.022136888 -0.007557141 -0.03860102 0.0322386 -0.012936699 -0.016432652 0.022009281 0.028083429
-7.138952e-05 -0.031375464 -0.025118094 -0.0121154385 0.010450649 -0.038846128 -0.014965454 -0.051408485
-0.023339497 0.024939176 -0.012591373 0.008233062 0.003672053 -0.024684282 -0.03495337 0.025582641
-0.07262117 -0.04767386 -0.031253036 -0.01741089 -0.02381294 0.017839503 -0.02214669 -0.013487887
-0.0132738175 -0.035367765 -0.027472569 0.0049836356 0.027111053 -0.035864633 0.030683117 -0.031327683
-0.07482304 -0.0054201223 0.017993748 -0.010698362 0.012380434 -0.0011347942 -0.026593935 0.022280913
0.006121936 -0.053635743 0.032473337 -0.013762775 -0.07898267 0.03517275 -0.080581084 0.0027122188
-0.052403875 -0.010676211 0.010207922 -0.015848052 0.020454064 -0.0071165306 0.0011510747 -0.0113617405
-0.04882646 -0.029796695 0.02260485 0.0051997625 -0.0053820033 -0.009879954 0.013066496 -0.01658767
0.014736398 0.0198421 0.0030222873 -0.04364087 0.025443275 -0.015793303 0.00053710287 -0.03052628
-0.008378693 -0.027147917 0.01689082 -0.008435538 0.028558588 -0.049539447 0.026218543 -0.04264827
-0.059186514 -0.04822419 -0.047515742 -0.03030721 0.0074254475 -0.017806167 -0.043886393 0.011779819
-0.06321276 0.025716357 -0.029159654 -0.019907167 -0.02640306 -0.014077628 -0.008043104 -0.019970948
0.021531908 -0.021057582 -0.016986454 -0.026207484 0.0005013766 0.019215828 -0.0045315 0.0073264777
-0.01794832 -0.018966421 -0.043809194 -0.043379914 -0.07382689 -0.03856232 0.027908165 -0.025788998
-0.054571114 -0.04498381 -0.040964387 0.006245934 -0.03276673 -0.0029749905 0.023581872 0.032510117
-0.032294482 0.025694005 0.0014647936 -0.020282988 -0.039856125 0.008421828 0.00422491 0.009906178
-0.06637108 -0.04000642 -0.009944311 -0.07198365 -0.041957907 0.0067442814 -0.03915356 0.026067356
0.042232823 -0.031230628 -0.026364049 -0.021475174 -0.050228786 0.032529574 -0.020915726 -0.058844693
-0.0517687 -0.015532895 -0.025812758 -0.015589998 -0.00893198 0.02421113 -0.040487666 0.0041794875
-0.0391208 -0.02442016 -0.039057747 0.0142630115 0.034243606 -0.019959735 -0.015399293 -0.0039239815
-0.0027357654 -0.026973112 0.015025617 0.018187461 0.02135049 -0.019196797 -0.001441479 -0.035693068
0.009535021 -0.031859674 -0.0022846854 -0.000106813575 -0.015629595 -0.047524948 -0.043124467 -0.03454231
-0.019486224 -0.041733567 -0.066133775 -0.040258333 -0.042215794 0.0074134497 0.004354392 -0.06599409
-0.04142603 -0.036481258 0.009522572 0.028255727 -0.00930586 0.01264675 0.031963415 -0.045411978

hidden_layers.1.bias f4 [256]
00000000: 05e6 1abd 397e 8a3d 2e5c 18bd 2275 64bd
00000010: c413 62bd c577 88bd df8a 81bd a22d c8bc
00000020: 11ba 8dbd 0f39 afbd 60f1 9cbc ef0a 21bc
00000030: cead 0abd 3e4b 103e ffb0 acbc 2cfe fbbc
00000040: ec41 55bb fc89 373d e604 50bd 4a21 6e3d
00000050: 10fe 5fbc 6f32 babc 9477 ab3c 3644 49bc
00000060: 9108 17bd c32a 6c3d 5b32 a6bb d199 26bc
00000070: 66c9 5ebd 5031 21bd fc23 68bd 8e89 01bd
00000080: 8299 233c 6d31 b1bc 2061 87bd 3ec9 fdbd
00000090: e8ab 343d b795 ae3b 1dd1 4fbc 2786 993c
000000a0: 3607 61bd 9fc2 d5bc f060 a2bc cb24 5b3b
000000b0: cbb7 64bd 83f7 28bd 9cf3 75bc 8ac8 96bc
000000c0: ebd6 eabc e6ce 3a3b 51e8 c0bc 4a1f 5c3b
000000d0: 3025 19bd fce0 18bd 9590 4c3c ccc5 87bd
000000e0: ad2a 48ba af99 4a3c a871 7bbd 395c 45bd
000000f0: 5d0c 48bd 0010 edba e503 17bd 993d c93b
00000100: 4b3d 89bc 456f 8b3d 14f0 d53c 35b1 823b
00000110: 763d db3c 9926 46bd 5c54 ff3c c7dd 99bd
00000120: 57ac 6abd 7a68 8f3c 3337 11bd 9946 19bc
00000130: e674 0bbd 6dcd 9ebc 33b9 cebc b94f 13bb
00000140: 591a 4abd 84aa a43d 7378 a8bd 7466 07bd
00000150: 451a da3c aa14 1b3c 01a6 82bd e3e8 24bc
00000160: 63ee c2bd aa88 36bd 6fee 14bd 22b6 9ebd
00000170: f6bf 4a3d 9e2c 273e c5df e63d 9b63 bcbc
00000180: ddd1 f53b 65f0 d9bc 519c 53bd a754 43bd
00000190: 78bf 1fbc 32b0 2abd 46aa 31bd 4244 86bc
000001a0: f5f8 2bbc 6479 b13c 85a5 01bd 85bf 0fbd
000001b0: 437b 613c a51a 49bd 4f0c 72bd 0ff3 96bd
000001c0: accf 37bc f134 c6bb efd1 66bd 5b04 98bc
000001d0: a8c3 febc b3b5 15bc 5b47 77bd fc1f e13d
000001e0: a981 debc ce2b d6bc 89a8 2e3d d684 67bd
000001f0: d14d 65bd dc38 aabc a1fb 69bc 6cac 3a3d
00000200: d040 92bd 7fb8 7f3c 97e9 473c 732d e93b
00000210: a77f c13c 47f8 4ebb ed01 ab3c 5861 e8bc
00000220: b11e 92bd b19d a13c 62ad e0bb 8e88 f83b
00000230: e52c 28bc 8022 81bd 8f0d 36bd 51a5 39bd
00000240: cdac 1ebc 31be 6dbc 6fd4 c3bd 39dc 02bd
00000250: 09a4 64bd 50a7 dabb 9e05 99bd 0fb5 32bd
00000260: e896 8bbd 3796 e43c 470e 2bb9 612a 3c3c
00000270: 446b 823d 601e 82bd 1dcf 80bc c223 08bd
00000280: b328 a0bd 52d3 4f3d a3ec 71bc ef3b 15bd
00000290: 1c47 97bd 0dda abbd 76ec b2bd ba2b 03bd
000002a0: c511 91bd 824d f0bc 7221 323c 0f24 493b
000002b0: 7687 e23b 0130 89bd 0647 853d 796d acbc
000002c0: 3294 aabd 2e5a 9c3b 09b8 84bd 4744 6fbd
000002d0: ffc5 91bc c88a d8bd 9f2d 533c c3fa a33c
000002e0: 5fac 03bd c2f3 92bd 4d87 45bd 4534 303b
000002f0: 30f7 383d bb73 6abd ac34 d33b 7596 a2bd
00000300: f4c7 48bd 54cd 18bd 81e9 0fba 81b9 1abd
00000310: 6aef cabc 5f27 973d 7f9a 4cbd e119 e33d
00000320: bc74 18bd e8cc 6f3d 65b7 9cb8 025f a73c
00000330: af2c c4bc e62a 713c 2c4c 09bd 7c9c b0bc
00000340: 02df 23bd 588f 4ebd 3b72 a9bc 5cf1 1cbc
00000350: 513c 5abd 7328 b73c 3739 843d a259 45bc
00000360: 3984 913c 3509 ed3c 5641 49bd d30e 4c3c
00000370: 4e6a aabc 9fb2 c3bc 3495 5e3d 1a68 01bd
00000380: ac69 9ebd 4267 5ebd 4bf5 aabd 757d 98bd
00000390: 90a4 4c3b acf8 5abd e762 63bc afba 07bd
000003a0: 0086 8cbd b37b a2bd fcac d4bc e3c9 fd3c
000003b0: 884d 90bd c041 58bc 4b97 32bd 5c8a eabc
000003c0: ef48 a8bd bae0 0abd a26e f93d 8f7d 5d3c
000003d0: fd51 a6bc 8057 8ebd cf3d 88bd 02aa eebc
000003e0: a895 91bd 5c86 08be 6399 59bd 6d1e 01bd
000003f0: 2585 f4bc 07b3 bb3d 0415 e33d 1675 0bbd
-0.03781702 0.06762356 -0.037197284 -0.05577577 -0.05519463 -0.06663469 -0.06325316 -0.024435822
-0.06920255 -0.08555805 -0.019158065 -0.009829267 -0.03385716 0.14091203 -0.021080492 -0.030760847
-0.0032540513 0.044809327 -0.05078592 0.058137216 -0.013671413 -0.022729127 0.020931043 -0.012284329
-0.036873404 0.05765797 -0.005071921 -0.010168509 -0.054391287 -0.03935367 -0.056674942 -0.031625323
0.00998533 -0.021630013 -0.06610322 -0.123918995 0.044109255 0.005327906 -0.012684134 0.018740727
-0.054938518 -0.02609378 -0.019821614 0.0033438678 -0.05583934 -0.04125167 -0.015011694 -0.018406171
-0.028666934 0.0028504669 -0.023548277 0.0033587986 -0.03738898 -0.037323937 0.012485643 -0.06629524
-0.0007635754 0.012365743 -0.061387688 -0.048183654 -0.048839916 -0.0018086433 -0.03686895 0.006141376
-0.01675286 0.06808332 0.026115455 0.00398841 0.026762705 -0.048376653 0.031168155 -0.07513004
-0.057293262 0.017505873 -0.035453033 -0.009355211 -0.03404703 -0.019385064 -0.025234794 -0.0022477938
-0.049341533 0.08040336 -0.08226099 -0.03305669 0.026623854 0.009465376 -0.06379319 -0.01006529
-0.09518125 -0.044563927 -0.0363602 -0.07749583 0.049499474 0.16325614 0.112731494 -0.022996714
0.0075018243 -0.026603887 -0.051662747 -0.047688153 -0.00975024 -0.04167194 -0.043375276 -0.01638997
-0.010496368 0.021664329 -0.031651992 -0.035094757 0.013762298 -0.049097676 -0.05909377 -0.073705785
-0.011218946 -0.0060487916 -0.056352552 -0.018556764 -0.031099156 -0.009137559 -0.060370784 0.10992429
-0.027161436 -0.026143935 0.042641196 -0.056523167 -0.055982415 -0.020779066 -0.014281184 0.04557459
-0.07141268 0.015607952 0.012201688 0.0071160137 0.02362044 -0.003158109 0.020874942 -0.02836673
-0.0713476 0.019728513 -0.0068566063 0.007584638 -0.01026461 -0.063054085 -0.044446524 -0.045323674
-0.009684754 -0.014510677 -0.09562003 -0.031948302 -0.0558205 -0.0066727772 -0.074717745 -0.043629702
-0.068158925 0.02790366 -0.0001631315 0.011484713 0.063681155 -0.0635345 -0.01572376 -0.033237226
-0.07820263 0.05073864 -0.014765891 -0.03643411 -0.0738661 -0.08391199 -0.087365076 -0.032024123
-0.070834674 -0.029333834 0.010872232 0.0030691659 0.006913121 -0.06698609 0.06507687 -0.021048294
-0.08329047 0.0047714924 -0.064804144 -0.058414724 -0.017794607 -0.105733454 0.012889295 0.020017033
-0.032146808 -0.07175399 -0.048224736 0.0026886624 0.04515761 -0.057239275 0.006445488 -0.07938854
-0.049018815 -0.03730519 -0.0005489812 -0.037774567 -0.024772365 0.07380556 -0.049952026 0.110889204
-0.0372207 0.058545023 -7.4728196e-05 0.020431045 -0.023947088 0.0147197 -0.03351991 -0.021558993
-0.0400076 -0.050429672 -0.020684352 -0.009579029 -0.05328018 0.022358155 0.06456225 -0.012045296
0.017763244 0.028935054 -0.049134575 0.012454706 -0.020802643 -0.023888884 0.05434151 -0.03159342
-0.07734999 -0.054297693 -0.08347567 -0.07445804 0.0031226017 -0.05345981 -0.013878561 -0.03313702
-0.06861496 -0.0793375 -0.025961392 0.030980056 -0.07046038 -0.01319927 -0.043601315 -0.028630428
-0.08217036 -0.033905722 0.12179305 0.013518705 -0.020302767 -0.06950283 -0.06652414 -0.0291338
-0.07108623 -0.13332504 -0.053124797 -0.031523157 -0.029848645 0.09165006 0.11087993 -0.03404721

hidden_layers.2.weight f4 [128, 256]
00000000: 5dd8 043d 101a debd 0565 7fbd 1fae 0db9
00000010: b6f0 bbbd 608c 293e 499b 953d ba47 db3d
00000020: ffe6 a63d 03ff 563d d232 1cbd fd15 77bc
00000030: 05db 56bc 8938 debc 6885 aebd f490 79bc
00000040: 2e22 e13d 7474 6dbc c609 dc3c 9af1 4abd
00000050: 578e 2cbc 9036 43bd abd9 803c 4367 023c
00000060: b9cf 2d3c c6ab a9bd 1475 02bd 4c6b 79bd
00000070: 9641 f0bb 6398 e8ba 53ee 34bd 8dbc 823b
00000080: 2038 aabd cf0b 88bc 7c29 a0bc 90b2 36bd
00000090: b26f dabd 21d1 efbd 984b c3bc 647f 203d
000000a0: 6410 10bb 8b50 84bd 4f92 873c e1c9 0a3d
000000b0: fde4 c03c a32f c8bc 4245 d33c 54f4 a0ba
000000c0: 9839 03bd 4c9a bdbd a16e 65bc 5c12 5ebd
000000d0: 4302 01bb 8e93 bbbc 625c cdbc 6595 5ebc
000000e0: 38b5 413d d9c7 d13c ee24 9cbc 1d38 e2bc
000000f0: 849c 703d 190f c73c 5c56 483d a89e c33c
00000100: 8692 05bd e1c9 3dbd 5fc9 75bd e3c4 9fbc
00000110: f262 f3bb fe85 593d 3bd6 193d 26f7 00bd
00000120: 5f47 913c 9c83 cbbd f87e ed3c 6f02 6bbd
00000130: c96c eabc 24d1 9aba f395 c03b 698a 123c
00000140: aeb5 80bb 940f a33c c420 43bd 54fb 893d
00000150: 865a 993d 09da 46be cb8c 9e3c b9be df3c
00000160: 8de3 d6bc e132 9b3c dfe9 8ebc 092b a03d
00000170: 7acd 6dbd f0fa 903d 3153 83bd b708 84bd
00000180: a41d f63c cc56 5e3d ed2a 303d be12 113d
00000190: a655 843b cdb8 12bc 0a5d 46bd 18c2 023e
000001a0: 477d 4a3d 2f50 413c 6e4b 0ebd 62db 073e
000001b0: ec63 f6bc 84bc 72bd f007 1e3d 47b5 8cbd
000001c0: 63b2 97bc 4163 45bd f231 923d e0f3 393c
000001d0: d782 303d 472f 68bd 3d63 ffbd ba09 86bb
000001e0: 68fe 903d 9758 043c d9f8 98bd 8138 193d
000001f0: 7d43 2abd b72b eb3c 6078 7c3d b79e 61bd
00000200: 3ab7 8ebc e7be 863d 1a02 dabd 1cbb 7dbd
00000210: b3c9 88bc d9dd 683c 2fa0 573d d0ee 66bd
00000220: 545e 783d c383 963c 1e75 8f3d ec48 a83c
00000230: 08a0 0e3e 1198 56bd bc5b 09bc 5d2b 49bd
00000240: 04d6 8cbc b898 743c 6af3 7cbd 166e 9c3d
00000250: a906 e23c 567f 6b3d a385 44bd 94d8 45bd
00000260: d117 113d ad9e a9bd bf05 2e3d a07a 0c3d
00000270: 92f6 90bd 0ac3 4e3c 0db3 fdbc cb56 edbd
00000280: 80a6 bcbc 65bd 89bd da6a 853d e88b 0e3d
00000290: e04f 66bd 4024 133d b4b9 4fbd 46a9 de3d
000002a0: a0ae b6b9 3b5b f83c fdfd 103d 1f63 febc
000002b0: ed9d 293d 72b6 bbbc a30b f4bd 1707 9d3c
000002c0: efe5 523d ed4a b9bd f588 e5bc 72d5 ac3b
000002d0: 6191 bc3c bd01 d9bd 73d7 40bd 36e4 42bd
000002e0: 0dfd 6dbd 183d efbb d972 bd3b 86c0 0a3b
000002f0: 761b fbbd 52d8 1fbd 0e3a f8bd 9763 163d
00000300: a4b7 2d3d 81d5 753d 96c5 e93c 6b3c 0c3d
00000310: 4eba 55bd de3a 95bd 8ab1 5b3d 29a9 aabd
00000320: fec9 0ebd 9ea3 823c 2475 d23c 6df8 18be
00000330: b9ae 82bd 75ce bfbd a482 d13c 722c 393e
00000340: 4d20 433d ad64 d23d dae1 243e 4b7d 133b
00000350: 5316 6b3d 1a08 0dbe ad1c a5bc 525d 85bd
00000360: 733d 84bd eb1d a6bd 271f 7f3d 5d93 89bd
00000370: c5b2 b0bc eb8f bdbd 5dcb 43bd 4f9f 62bd
00000380: e0a6 9fbc f377 21bc 1fdb 2dbd 2112 a1bd
00000390: 7d75 2fbd 1861 743c 5915 273c 96dd 3f3d
000003a0: f402 2a3c ba87 a8bb 2d08 c8bd 1ccd 8d3d
000003b0: 70f4 40bc 45f9 0a3d b91b 88bd 6e11 84bc
000003c0: e5f2 a4bd 4fa2 c2bc 9427 d53b c803 8e3d
000003d0: 20f2 b3bb 700b c0bd 0202 c7bc a037 603d
000003e0: 6e6a 34bc c99b c63b 8142 c93c a16e 8c3c
000003f0: b347 993b ed3b 80bd f21c a83d 24e4 13ba
0.032432903 -0.10844815 -0.0623522 -0.00013511673 -0.09176771 0.16557455 0.07305009 0.1070704
0.08149528 0.052489292 -0.038134404 -0.015080926 -0.013113742 -0.027126567 -0.08521539 -0.015232313
0.109928474 -0.014493097 0.02686013 -0.049546815 -0.010531983 -0.047659457 0.015728792 0.00795919
0.010608607 -0.08284716 -0.031849936 -0.060893342 -0.007332037 -0.001774561 -0.044172596 0.003989762
-0.08311486 -0.016607193 -0.019551031 -0.044603884 -0.106658354 -0.1170981 -0.023839757 0.03918399
-0.0021982426 -0.06460675 0.016549258 0.033883933 0.02354669 -0.024436777 0.02578986 -0.0012279847
-0.032037348 -0.092579454 -0.014003427 -0.054216728 -0.0019685186 -0.022897508 -0.025068466 -0.013585423
0.047291964 0.02560799 -0.019060578 -0.027614648 0.058743015 0.024299191 0.048910484 0.023879364
-0.03261044 -0.046335105 -0.060006496 -0.019503063 -0.0074275667 0.0531063 0.03755782 -0.0314857
0.017734228 -0.09937212 0.028991207 -0.057375368 -0.028616326 -0.0011811596 0.0058772503 0.008944132
-0.003927908 0.01990489 -0.04763867 0.0673739 0.07487969 -0.19419111 0.019354245 0.027312623
-0.026231552 0.01894516 -0.017445503 0.07820708 -0.058057286 0.070791125 -0.06412352 -0.06446975
0.03004343 0.054281995 0.043009687 0.035418265 0.0040385304 -0.008955193 -0.048428573 0.12769353
0.04943588 0.011798902 -0.034739904 0.13267282 -0.030076943 -0.059261814 0.03858179 -0.068705134
-0.018517679 -0.04819036 0.071384326 0.011349648 0.04309353 -0.056685712 -0.124701 -0.004090515
0.07079774 0.008077762 -0.07469339 0.037407402 -0.041568268 0.028707368 0.061638236 -0.055083003
-0.017421354 0.065793805 -0.10644932 -0.06194602 -0.01669774 0.014213049 0.052642997 -0.056380093
0.060636833 0.018373376 0.0700476 0.020542584 0.13928235 -0.052391116 -0.008383688 -0.04911362
-0.017191894 0.014928989 -0.061755575 0.07638185 0.027591066 0.057494484 -0.04797901 -0.048302248
0.035423104 -0.08282218 0.04248595 0.03429663 -0.070782796 0.012619743 -0.030969167 -0.1158882
-0.023028612 -0.06725577 0.06514521 0.034801394 -0.05622852 0.035923243 -0.05071421 0.1087213
-0.0003484385 0.03031694 0.035398472 -0.031053124 0.041410375 -0.022914145 -0.11916282 0.01916842
0.051488813 -0.09047494 -0.028019408 0.005274468 0.02301854 -0.10596035 -0.04708047 -0.04758092
-0.058102656 -0.007300984 0.005781513 0.0021171882 -0.12261097 -0.03902466 -0.12120448 0.03671607
0.04241146 0.060018066 0.0285366 0.034237307 -0.052179627 -0.07286619 0.05363611 -0.08333046
-0.034860604 0.01594716 0.025690623 -0.14938517 -0.06380982 -0.093655504 0.02557499 0.18083361
0.047638226 0.10273109 0.1610178 0.00225051 0.057394337 -0.13772622 -0.020155275 -0.0651194
-0.06457033 -0.08111175 0.06228557 -0.067175604 -0.021569619 -0.09255966 -0.047801364 -0.05532771
-0.019488752 -0.009855258 -0.0424453 -0.07864786 -0.042836655 0.014915727 0.010197961 0.04684218
0.010376681 -0.005143133 -0.097671844 0.06923887 -0.011777028 0.03392913 -0.06645913 -0.016121592
-0.08054141 -0.023759035 0.006504962 0.06934315 -0.00549151 -0.093771815 -0.02429295 0.054740548
-0.011011703 0.0060610515 0.024567844 0.017142596 0.0046777367 -0.0626143 0.08208646 -0.00056416006

hidden_layers.2.bias f4 [128]
00000000: ce8b 74bd aa26 90bd d4f8 003c eae6 053e
00000010: eede b9bd a1bb 92bd 039c 0a3c 5177 493c
00000020: f533 d7bd 64b3 17be 0fa9 223d 8497 173e
00000030: 19b7 b43e c6f0 c9bd d718 453e c114 883d
00000040: a1ea d1bd ca15 d6bd 90e5 d8bd a3ef babd
00000050: 0bbd e8bc 1ce5 5c3e ce80 acbd df05 833e
00000060: f6f2 b0bd 8618 acbc dea4 a1bd eeaf c6bd
00000070: 2bed 1fbd a46d dbbd 5fc6 63bd ca5e 8cbd
00000080: 33bc f7bd 5f2e debd 0612 d23c 5f48 8fbd
00000090: 3b74 4a3e 2436 5dbd e7bf 14bd 10fc 223d
000000a0: ae27 533d 17ee 3f3c 25af bbbd 158f 27bd
000000b0: eff6 03bd 3c1a ed3d a619 933e e657 973d
000000c0: a761 bb3d 2f6c 73bd 4fc1 273e d195 a8bd
000000d0: 5b2c 32be bb0d f1bd b2e9 05bd 88d8 aabb
000000e0: ec4a 11bd 5613 9d3d 6dd6 893e 2005 c23d
000000f0: 4f53 03bd 80d9 9a3c 7272 be3e 3222 12be
00000100: b24b db3c ec16 593c 024d cabd 995b babd
00000110: f63c b83c 4dd8 933d e301 0fbd 671d a5bd
00000120: 30a1 223e 4ee9 ff3d 4c63 c4bd 8b87 61bc
00000130: 7190 f3bd 409e f83d 1a22 f3bc 02a8 f1bd
00000140: 5880 0bbc da2f a33e 2cef 873e 303d 8d3d
00000150: b858 90bd 5a0a cfbd 9c7f 0cbc 23ab bf3d
00000160: 4a27 7a3d 4845 a2bd 6f33 03be 0c81 55bd
00000170: 35c2 83bd b5f0 acbd 34f2 9cbd e3d0 ebbd
00000180: f1c0 8bbd ea39 dfbd 1881 28bd 2e59 c3bc
00000190: e674 6b3c efac 89bd 7e80 113e a73e ccbd
000001a0: 3184 4ebe 7658 62bd e0bb eabd d29c e6bd
000001b0: db6f 1dbc 8fca 8a3d cdea 9a3e a2f6 e23c
000001c0: d242 57bd d9db 24bd d73f 9439 aea1 9b3e
000001d0: 9562 c33c 69e4 153e daa3 993b 99d6 e2bd
000001e0: c748 bcbd e086 3cbd 1825 81bd a955 fa3c
000001f0: 083a 25bd ee46 543c d78b 55bd 0794 88bd
-0.05970364 -0.070386246 0.007871825 0.13076368 -0.090757236 -0.071646936 0.008460048 0.012296514
-0.10507957 -0.14814526 0.039712008 0.14803892 0.35295942 -0.09860377 0.19247757 0.066445835
-0.1024983 -0.10453375 -0.105906606 -0.09127738 -0.028410455 0.21571773 -0.08423005 0.25590417
-0.08640091 -0.021007787 -0.07892774 -0.09701525 -0.03904454 -0.10714272 -0.055609103 -0.06854017
-0.12096443 -0.10848688 0.02564336 -0.069962256 0.19770901 -0.05400671 -0.036315825 0.039791167
0.051551513 0.01171448 -0.091642655 -0.040907938 -0.032217916 0.115772694 0.28730506 0.07389812
0.09149485 -0.059429344 0.16382335 -0.082317 -0.17399733 -0.11770197 -0.032693572 -0.005213801
-0.03547184 0.07669704 0.26921406 0.09473634 -0.03206187 0.01890254 0.3719669 -0.14270857
0.026769493 0.013250094 -0.09877969 -0.09099502 0.022490006 0.072189905 -0.03491391 -0.08062249
0.158818 0.12495671 -0.09589252 -0.013765226 -0.118927844 0.12139559 -0.029679347 -0.11799623
-0.008514486 0.31872445 0.2654966 0.06896436 -0.07048172 -0.10109396 -0.008575346 0.093588136
0.061072625 -0.079233706 -0.12812589 -0.05212502 -0.064335264 -0.08444349 -0.07663384 -0.11514451
-0.0682391 -0.10899718 -0.04113874 -0.023846235 0.0143711325 -0.067224376 0.14209172 -0.099728875
-0.20167615 -0.055260144 -0.114616156 -0.1126038 -0.009609188 0.06776916 0.30257264 0.027705494
-0.05255396 -0.040248726 0.00028276324 0.3039679 0.023850719 0.14637913 0.004688722 -0.110760875
-0.09193569 -0.046027064 -0.06305903 0.030558424 -0.040338546 0.012956364 -0.052135315 -0.06668859

output.weight f4 [4, 128]
00000000: 4760 b03d 1ca1 f93b 749c b23c 2a5d 183e
00000010: 1b18 123b 5245 58bd 6198 34be bf1a a03d
00000020: c27f 74bd b7ee 9abd 0f8b c0bd 883d 693d
00000030: 0d4e d63d 762a 37bc 462d e33d d611 bf3d
00000040: 69e9 8ebb 1558 60bd f644 d33d 265d 01bd
00000050: 2ff1 a4bb 3ccb 983b b32e 853d f0b0 a53c
00000060: 7a67 17be e097 063c 8a93 c6bc 920b 2a3d
00000070: aa25 a63c bb4b e2bc 154a fdbb c114 c7bd
00000080: b5f2 17bd 30fe fa3d 8b23 123e af8a 423b
00000090: 1cd8 543e 41b8 85bb dc83 46be 9c92 413d
000000a0: d683 0f3d 5c33 a73c 8874 53bd a07d 373e
000000b0: 856b 82bd d4a9 6f3c 0c1c 333d bda2 cf3d
000000c0: a456 073e 1b77 f9ba 0a81 9a3c 87a3 21bd
000000d0: 32ac 98bd 9327 e9bd de49 53be 3b34 18be
000000e0: dfe9 94bb b4ff 303e 4429 103e 79cc d43c
000000f0: db25 4c3c 49e7 0f3c 2b53 103e 3e4a 2cbe
00000100: ff83 f9bc 5275 c3bd 0dd1 8bbd 4b93 503c
00000110: 2152 2e3e 8e6b 7a3c 06f0 09be 8fd6 3ebc
00000120: 64dd 113c 28ca 9dba 7d44 5dbe 12a4 3b3d
00000130: b2c9 19bc f205 013e b31d ff3d 6944 f73b
00000140: 4ae1 9abc 79c8 603d b82d bf3d abb2 4a3d
00000150: 78b6 333d dfc2 1a3e 2fc6 94bd ec3a 1d3e
00000160: 12fb b9bc bdd9 a9bc e8d0 8cbb f1e3 77bc
00000170: b030 55bd d46f b939 47c6 3d3c d750 a5bb
00000180: ab3b 8a3a bfe5 213b 49c4 dd3d 19c2 2dbe
00000190: 5cc8 983b 3ed2 50bc 77b4 953a cd79 62bc
000001a0: e3f9 24be 8555 d1bc 0257 5e3c 5631 2cbe
000001b0: 172e 493a 856d 8abd 611a f63d f9b8 c53c
000001c0: 1e72 103e d23d 57bd 5ec3 2abe b765 e03d
000001d0: 2613 2cbe a872 b13d ef26 b8bd 4998 723d
000001e0: 01e5 87bd 4306 56bd d939 20bd dd57 d43d
000001f0: 7675 ee3c 3af2 c4bd 0183 033e 0864 5f3c
00000200: 568f df3d 37af 67bd 446f 38bb 3f49 1d3e
00000210: 0b5b 523d 2f4d 90bd b4c0 3f3d b469 be3d
00000220: cc6e 993d 00a3 ebbd 93e1 73bd f0c1 483e
00000230: 23a7 ce3d 18ee 073d e7a9 4a3e 1285 fe3d
00000240: 6082 af3d 4f21 9a3d 4ee1 0fbd 8a5f 14b9
00000250: fc92 f73d 2959 723d fef4 7e3d 58c5 223d
00000260: e635 e7bd 4b34 223e 8b57 35bd 70ed febb
00000270: 51e7 bbbb 1d49 ed3c b910 353d 33d7 40be
00000280: 5131 3cbd 8c94 08be f687 6fbd f635 07bc
00000290: f03c 193e f00a 643d 930c b7bd 5465 293d
000002a0: 9753 ab3c 9b1b d83d 7854 04bd 5805 a0bc
000002b0: e850 2ebe 153d ae3d 5b2d 8b3d bffc e83d
000002c0: 55a6 22bc 8523 29bd 9429 053e 2d56 d7bd
000002d0: b407 b0bc 845a eebc 7507 23bc 3340 17be
000002e0: 6a66 693d abe9 3b3e f33c 3f3d 834e 213e
000002f0: 9119 dbbd c5b2 1dbe 299a 5c3d c36f 553e
00000300: 1949 f4bc 9b24 f83d 8b70 9abd 6558 6a3c
00000310: c9fe fb3d 3e7e 373e fecd dfbd 3e4e 28be
00000320: 9175 1a3e 6866 4a3d 8ca7 c4bd 72d6 babc
00000330: 0f37 1ebd 899d b23d f30c 3e3e 3ee8 173c
00000340: 8aa1 25bd ed19 dc3d 8a59 103e 9d87 87bb
00000350: eeaf bfbb 1427 afbc b945 953d 5381 853d
00000360: e3df 973d 4da2 263e aaa0 8b3d b06d f43c
00000370: 2b89 5a3c 5ac8 0ebe 61c4 9d3d af69 31be
00000380: 3a17 f43c 7dbe 0dbd fd53 783d 94a0 803d
00000390: 50d1 1c3e 4eea c2ba 27b2 88bc dbe8 b3bd
000003a0: f7b7 8e3d 3437 6d3d 8474 02bd 8f68 183d
000003b0: 251f 44bd c0db 033e 80a5 163e 0d63 243d
000003c0: ac92 f7bc c0fc cdbb 3830 8abd 704f 453d
000003d0: c8fd f2bd 81fb 463d af65 ecbc c4d3 41bc
000003e0: ca52 2abc 2c92 993d 6043 21be 2926 943d
000003f0: 93ac 2a3e 2019 76bd 69eb 103e b820 a2bc
0.086121134 0.0076180827 0.021803118 0.1487929 0.00222922 -0.052800484 -0.17636253 0.078176014
-0.05969215 -0.075650625 -0.09401523 0.056943446 0.10464106 -0.011179557 0.110926196 0.09329574
-0.0043613208 -0.0547715 0.10315888 -0.031582974 -0.005033634 0.0046628993 0.06503048 0.020225972
-0.14785567 0.008214921 -0.024240274 0.04151494 0.020281631 -0.027624002 -0.0077297785 -0.09720755
-0.037096698 0.12255514 0.14271371 0.0029684713 0.20785564 -0.0040808027 -0.19386238 0.04725896
0.035037838 0.020410232 -0.051624805 0.17919016 -0.06368164 0.0146278925 0.04372792 0.10138462
0.13216645 -0.0019032689 0.018860359 -0.039462592 -0.07454719 -0.11384501 -0.20633647 -0.14863674
-0.004544481 0.17285043 0.14078242 0.025976406 0.012460197 0.00878317 0.14094226 -0.16825196
-0.030458448 -0.095438614 -0.06826983 0.01273043 0.17023517 0.015284432 -0.13470468 -0.011647834
0.008902881 -0.0012038397 -0.21608157 0.045810767 -0.009386467 0.12599924 0.124568366 0.007545997
-0.018906254 0.054878686 0.09334892 0.049486797 0.043875188 0.151134 -0.07264363 0.15354508
-0.022702727 -0.020733709 -0.0042973645 -0.015130029 -0.052048385 0.00035369268 0.0115829175 -0.0050450373
0.0010546347 0.002470359 0.10828454 -0.16968574 0.0046625566 -0.012745438 0.001142158 -0.013822985
-0.16110949 -0.025553474 0.013570549 -0.16815695 0.00076744094 -0.067591704 0.1201675 0.024136053
0.14106032 -0.05254919 -0.16676089 0.109569006 -0.1680418 0.08664447 -0.08991801 0.05922726
-0.06635476 -0.052252065 -0.039117668 0.10368321 0.029108744 -0.096165136 0.12842943 0.013634689
0.10916011 -0.056563582 -0.0028142491 0.15359972 0.051356357 -0.070459716 0.046814635 0.09297505
0.07491836 -0.11505699 -0.059541296 0.19605231 0.100904725 0.03318605 0.19791375 0.12427725
0.08569789 0.07525884 -0.035126977 -0.00014149971 0.12088582 0.05916706 0.06224536 0.039738983
-0.11289577 0.1584026 -0.04427294 -0.0077797696 -0.005734362 0.028965527 0.0442054 -0.18832092
-0.04594547 -0.13337916 -0.05847927 -0.008252611 0.14964652 0.055674493 -0.08937945 0.0413564
0.020913882 0.1055214 -0.03230712 -0.019533798 -0.17023051 0.08507744 0.0679576 0.113763325
-0.009927352 -0.04129364 0.13004142 -0.105144836 -0.021488048 -0.029095896 -0.009950508 -0.14770584
0.056982435 0.18350856 0.046688985 0.15752606 -0.10698236 -0.15400226 0.053857956 0.20843415
-0.029820012 0.12116357 -0.07540997 0.014303301 0.12304456 0.17919251 -0.10927962 -0.16436097
0.1508391 0.04941407 -0.096022695 -0.022807334 -0.038626727 0.08721454 0.18559627 0.009271679
-0.04043726 0.107471325 0.14096656 -0.0041360394 -0.00584983 -0.021380939 0.07288689 0.06518807
0.0741575 0.1627285 0.068177536 0.02983746 0.013338367 -0.13943616 0.07703472 -0.17325471
0.029796232 -0.034605492 0.060626972 0.06280628 0.15314221 -0.0014870854 -0.016686512 -0.08784648
0.06968682 0.057913974 -0.0318494 0.03720909 -0.047881264 0.12876797 0.1471157 0.040133525
-0.030221306 -0.0062862337 -0.06747478 0.04817146 -0.11864811 0.048579697 -0.02885708 -0.011830274
-0.010395715 0.07498583 -0.15748358 0.07233841 0.16667394 -0.060082555 0.14152302 -0.019790992

output.bias f4 [4]
00000000: fe6a 9b3e 8a3e 503e 5409 1d3e 0bcc 1e3e
0.30355066 0.20336357 0.1533559 0.15507524
