Collaboration and Competition/checkpoint_critic_1.pth (torch_old, 185386 bytes, 5 tensors)

fcs1.weight f4 [256, 48]
1.492406 2.094775 -0.029785266 0.92786956 0.3659518 -1.6633898 -0.052091762 0.9278284
1.2747711 2.1503901 -0.0061544497 0.23530008 -0.44257554 -1.9247708 0.040989846 0.18622988
1.0641966 1.9688615 -0.07358998 0.8133464 -0.7739816 -1.4194118 0.028560538 0.9248806
-0.19224246 0.26464072 -0.089366764 -0.14496519 -0.45272365 -1.7167153 -0.075797215 -0.08858108
-0.028293958 0.786084 -0.012087475 0.23295583 0.4449319 -1.9325292 -0.015175683 0.18299198
0.55352294 0.7869143 -0.19515258 -0.46488884 0.7839776 -1.3504566 -0.23989978 -0.39077696
0.51630414 -0.9504534 -0.06375749 0.23133259 -0.7219501 -1.8486516 -0.041157685 0.17890365
0.5011516 -1.292944 -0.041202392 -0.0006432375 -0.757532 -0.85103714 -0.055663083 0.064716086
0.8388388 -1.6084443 0.016353615 0.32578692 -0.9485242 0.56429935 0.0013424773 0.39404875
0.10923569 1.4926302 0.025300529 0.07441534 0.67724144 -1.752946 -0.0026964524 0.027850669
1.8261503 1.41784 -0.0545451 0.19739848 0.67451763 -0.7935869 0.04379143 0.116222575
1.3567594 0.66453326 0.014004958 -0.35111254 0.9643541 0.48697564 0.017104253 -0.2601081
1.3075379 0.34216917 -0.027431732 -0.2543774 1.8667493 -1.4520103 -0.040218238 -0.14027792
0.1973459 0.08005075 0.024329606 -0.22117749 0.13164888 -0.3043689 0.027653743 -0.16239892
0.2656761 0.41425464 -0.027132396 0.33444038 -1.6329392 0.0075816014 -0.06115229 0.223759
0.4072335 -1.6364342 0.03477734 0.069644324 -1.8531185 -1.4907783 -0.04088352 0.13684927
-0.09829696 -2.4025512 0.0032338202 -0.020849314 -0.16388883 -0.3292573 -0.078400135 0.026864065
0.1492526 -2.7732651 -0.008487836 -0.0038609507 1.5977437 0.08503676 0.033923987 -0.02424628
0.35357553 1.1904737 -0.000612746 0.06963592 0.7367876 -0.83343387 -0.00075384177 0.07379246
0.23769069 1.157765 0.017985435 -0.004460085 0.10168687 -0.80604947 -0.08972645 -0.0026125852
0.16288815 0.72168887 0.019191297 0.40980637 -1.1797166 -0.7537074 -0.027368104 0.47374693
-0.19259733 -1.767644 0.01027414 0.52505547 -0.74543655 -0.8369626 -0.023271935 0.541119
0.26253632 -2.0597317 0.055405427 0.16717786 -0.07391909 -0.73123044 0.04707182 0.15435165
-0.11758563 -2.4893339 0.14514542 0.066840276 1.2229208 -0.7165395 0.15272382 0.10975148
1.0821537 -0.77301705 0.022712301 -0.34363267 -0.01978833 -2.3578894 -0.06678579 -0.32678375
0.8149065 -0.7101984 -0.08111417 0.36340854 -0.055498462 -2.1028562 -0.04403144 0.3633074
0.90110916 -0.18415034 0.12979856 1.0299271 -0.080131814 -1.8031616 0.16934438 0.9608713
-0.14739548 1.8093638 -0.13320448 0.16518305 -0.012562748 -2.314804 -0.13890433 0.1364342
-0.078588076 1.6096102 -0.1609472 -0.29332805 0.029142907 -2.1047947 -0.18624496 -0.3469111
0.23557055 0.7771366 -0.039336454 -0.7756124 0.08034173 -1.786988 -0.10030844 -0.8010812
-0.23681477 0.71356744 0.024388403 0.2947828 0.18781212 -0.49320015 0.0011771655 0.3361635
-0.0035521523 0.8030538 0.081230715 -0.11654123 0.07283616 -0.9001901 -0.020621456 -0.07598498
00000000: 2907 bf3f cb10 0640 3b00 f4bc dc88 6d3f
00000010: 095e bb3e f5e9 d4bf 2c5e 55bd 2986 6d3f
00000020: b32b a33f fe9f 0940 44ab c9bb 81f2 703e
00000030: 4399 e2be e45e f6bf f8e4 273d 0cb3 3e3e
00000040: 9837 883f a703 fc3f 58b6 96bd 7837 503f
00000050: a823 46bf 49af b5bf caf7 e93c fac4 6c3f
00000060: 35db 44be fd7e 873e ec05 b7bd c171 14be
00000070: 65cb e7be 54bd dbbf 923b 9bbd ff69 b5bd
00000080: bbc8 e7bc cd3c 493f 8b0a 46bc f98b 6e3e
00000090: 1dce e33e 1e5d f7bf 6ea3 78bc 4062 3b3e
000000a0: aeb3 0d3f 3773 493f 14d6 47be e905 eebe
000000b0: c2b2 483f c3db acbf 4aa8 75be eb13 c8be
000000c0: 822c 043f ea50 73bf 4993 82bd 73e2 6c3e
000000d0: b9d1 38bf 9ea0 ecbf f694 28bd 8532 373e
000000e0: 794b 003f 307f a5bf d7c3 28bd f09e 28ba
000000f0: 9eed 41bf 92dd 59bf f9fe 63bd de89 843d
00000100: 24be 563f 81e1 cdbf 04f8 853c 8bcd a63e
00000110: 7bd2 72bf ec75 103f 10f6 af3a c2c0 c93e
00000120: f6b6 df3d 820e bf3f 0e43 cf3c 1267 983d
00000130: b25f 2d3f 8960 e0bf f7b6 30bb 1627 e43c
00000140: 4bbf e93f c87b b53f af6a 5fbd d422 4a3e
00000150: 30ad 2c3f 8328 4bbf a45e 333d 1a06 ee3d
00000160: 4baa ad3f da1e 2a3f 0d75 653c 06c5 b3be
00000170: e9df 763f df54 f93e 381e 8c3c e42c 85be
00000180: 675d a73f cc30 af3e 83b8 e0bc c13d 82be
00000190: a4f1 ee3f 79db b9bf e1bb 24bd 04a5 0fbe
000001a0: 0b15 4a3e a6f1 a33d e24e c73c 5a7c 62be
000001b0: f7ce 063e 3ed6 9bbe 1a8a e23c e74b 26be
000001c0: b306 883e 2f19 d43e c244 debc c53b ab3e
000001d0: 2704 d1bf 156f f83b d37a 7abd 1421 653e
000001e0: e980 d03e ad76 d1bf af72 0e3d afa1 8e3d
000001f0: fd32 edbf d3d1 bebf 7a75 27bd 3722 0c3e
00000200: eb4f c9bd 66c3 19c0 80ee 533b 2ecc aabc
00000210: 79d2 27be 6a94 a8be 4090 a0bd 0712 dc3c
00000220: acd5 183e 2d7d 31c0 9110 0bbc 0108 7dbb
00000230: de82 cc3f c127 ae3d e1f3 0a3d 22a0 c6bc
00000240: da07 b53e 7161 983f b0a0 20ba 479d 8e3d
00000250: 1d9e 3c3f ec5b 55bf 779d 45ba 8020 973d
00000260: 3065 733e a531 943f 3156 933c e825 92bb
00000270: 3541 d03d 4259 4ebf 80c2 b7bd e837 2bbb
00000280: 27cc 263e 9ac0 383f 1137 9d3c 24d2 d13e
00000290: f400 97bf f8f2 40bf 1333 e0bc f58e f23e
000002a0: 3c38 45be 2942 e2bf de54 283c 096a 063f
000002b0: eed4 3ebf 2e43 56bf c9a4 bebc c686 0a3f
000002c0: 296b 863e a5d2 03c0 cdf0 623d ac30 2b3e
000002d0: e462 97bd eb31 3bbf 61ce 403d 5c0e 1e3e
000002e0: bcd0 f0bd 3f51 1fc0 00a1 143e 8ee3 883d
000002f0: ab88 9c3f 226f 37bf a263 1c3e 62c5 e03d
00000300: 0384 8a3f 72e4 45bf 260f ba3c 9ff0 afbe
00000310: 231b a2bc a9e7 16c0 fdc6 88bd 3350 a7be
00000320: b69d 503f 90cf 35bf 301f a6bd af10 ba3e
00000330: 5b52 63bd 3295 06c0 505a 34bd 6d03 ba3e
00000340: 17af 663f e891 3cbe eae9 043e a7d4 833f
00000350: 261c a4bd 00ce e6bf 9d68 2d3e a9fb 753f
00000360: d7ee 16be 3c99 e73f c166 08be bf25 293e
00000370: fcd3 4dbc c025 14c0 f03c 0ebe 68b5 0b3e
00000380: c9f2 a0bd b507 ce3f 58cf 24be 182f 96be
00000390: 1bbd ee3c f5b4 06c0 00b7 3ebe 559e b1be
000003a0: 6839 713e 6df2 463f 431f 21bd 898e 46bf
000003b0: 348a a43d 06bc e4bf 836e cdbd a813 4dbf
000003c0: 927f 72be 5bac 363f 30ca c73c c5ed 963e
000003d0: d251 403e bb84 fcbe 1f4b 9a3a 9f1d ac3e
000003e0: 3acb 68bb ef94 4d3f 4a5c a63d 2bad eebd
000003f0: 202b 953d dc72 66bf 54ee a8bc 039e 9bbd

fcs1.bias f4 [256]
-2.19224 -0.4272057 -0.70154834 0.20690183 -0.6335078 -0.94657207 -1.664144 -0.24071643
-1.8225266 -0.85169154 -2.3601465 -1.3720039 -1.4395406 -0.39932132 -1.2735852 -1.8319126
0.008240743 -0.52144665 -1.3401935 -1.049182 -1.314364 -1.269107 -1.3233116 -0.4629783
-0.32556778 -1.9023483 -2.5212002 -1.4491645 -1.3662586 0.24703161 -0.61575544 -2.0605164
-1.3586032 -0.9658886 -0.65463924 -1.4581262 -1.7857807 -0.58191717 -0.8451667 -0.40839496
-0.24618186 -1.3574042 -0.86509824 1.2442175 -2.2370179 -1.3570355 -0.8004792 -1.335798
-0.9957899 -0.31561306 -0.85776436 -0.13320935 -0.7375007 -1.1582588 -1.0039972 -0.478893
-0.6946594 -0.02624531 -2.5459778 -1.1082796 -2.0158205 -1.902884 -0.89236516 -1.1976439
-1.1512427 -1.6490577 -1.5593987 -1.4430577 -1.5853357 -0.9604004 0.93224 0.5606129
-1.1816276 -2.6749609 -0.9894214 0.18049856 0.22681232 -2.214514 0.6821036 -0.49120834
-0.56846905 -0.39157322 -0.73704344 -0.9913789 -2.0691223 -1.1435534 -0.39276665 -2.507232
-1.2536544 -1.2499523 -0.73531663 -0.648309 -1.0949247 -0.8938877 -0.44274953 -2.5077903
-1.6868 -0.561711 -0.87830997 -1.3762411 -2.150254 0.14769568 -1.0773745 -1.2571615
-0.491547 -1.3428967 -0.53226084 -1.1254529 -1.6166637 -2.430077 -0.35391033 -1.7219661
1.4019818 -1.1121612 0.39075512 -0.32405525 -1.0847327 -1.1476371 -0.24517211 -0.37820435
0.39937466 0.56993246 -0.89080065 -0.9819394 -0.31832936 -0.5771898 -0.83096915 -0.31799257
-0.93520254 -1.8354427 -1.343884 -0.5051179 -2.1632493 -1.1100715 -1.4338349 -0.4960785
-0.22048964 -0.56381917 -1.1885067 -1.1517234 -1.3248419 0.4472915 -0.90273166 -0.8600353
-0.90702045 -0.33896822 -0.19774437 -0.70002174 -0.7297403 -2.996712 -1.433979 -1.870748
-0.6177309 -1.3202584 -1.8449211 -1.1858534 -1.2601535 -1.69302 -0.796635 -1.108337
0.1735953 -0.83454466 -1.2042366 -0.24385883 -0.054891348 -1.1508783 -1.8991295 -0.30237722
-1.0996608 0.27614605 -1.6702827 -0.63585335 -1.3948056 0.3891087 -1.2252557 -0.79255944
-2.0068314 -0.455059 -0.15060344 -1.0792458 -0.7472474 -0.85482407 -0.6693142 -1.1999824
-0.45266768 0.21484809 0.42178094 -1.5464214 -1.0937401 0.2736347 -1.4060771 -0.43049783
-1.460815 -0.30642337 -0.7302096 -0.23867325 0.21364504 -1.250244 -0.82849807 -0.48342994
-0.7170822 -1.3326659 -0.1530059 0.30422023 0.5411021 -0.7151721 0.4061274 -1.3338128
-0.70891935 -0.42748275 1.580356 -1.3538245 -1.4072279 -0.8811603 0.035453677 -0.23394409
-0.65396136 -2.2396646 -1.655836 -0.34945723 -0.15741254 -0.7688273 -1.0156186 -0.084410116
-0.084413685 -1.269827 -1.0998826 -0.8581106 -1.0886682 -0.8202462 -0.3996796 -1.3582848
-0.07856769 -0.8004544 0.36531147 -0.62841403 -0.08800974 0.37529975 -0.87097055 -1.0416653
-0.8342991 -0.708615 -1.5836527 -2.1029375 -1.3093618 -1.6836913 -1.6004776 -0.3837227
-0.90904164 -0.61488014 -0.89764136 -0.7560878 -3.1546009 0.41425022 1.6085424 -0.52737
00000000: a94d 0cc0 b5ba dabe ac98 33bf 13de 533e
00000010: 912d 22bf 8c52 72bf ac02 d5bf 5e7e 76be
00000020: 8d48 e9bf 7508 5abf a40c 17c0 d39d afbf
00000030: de42 b8bf d873 ccbe d704 a3bf 1d7c eabf
00000040: 2e04 073c 877d 05bf 768b abbf 994b 86bf
00000050: 143d a8bf 1972 a2bf 4662 a9bf 7e0b edbe
00000060: d2b0 a6be 2680 f3bf 585b 21c0 397e b9bf
00000070: 90e1 aebf dbf5 7c3e 26a2 1dbf 80df 03c0
00000080: b6e6 adbf 7a44 77bf 7096 27bf e1a3 babf
00000090: 7694 e4bf 86f8 14bf d85c 58bf 2519 d1be
000000a0: 1917 7cbe 6cbf adbf 1477 5dbf 8542 9f3f
000000b0: 4d2b 0fc0 57b3 adbf 34ec 4cbf 6efb aabf
000000c0: 16ec 7ebf 0998 a1be 7296 5bbf 0868 08be
000000d0: d9cc 3cbf d341 94bf fb82 80bf 7731 f5be
000000e0: 33d5 31bf 6800 d7bc 4df1 22c0 1bdc 8dbf
000000f0: 3403 01c0 b491 f3bf 0b72 64bf 654c 99bf
00000100: ec5b 93bf 5314 d3bf 609a c7bf 1db6 b8bf
00000110: 48ec cabf cddc 75bf 48a7 6e3f 5484 0f3f
00000120: 933f 97bf 8f32 2bc0 b94a 7dbf 9dd4 383e
00000130: 7d41 683e 99ba 0dc0 579e 2e3f a97f fbbe
00000140: 3087 11bf 497c c8be e1ae 3cbf 02cb 7dbf
00000150: 806c 04c0 f55f 92bf b618 c9be 7d76 20c0
00000160: bf77 a0bf 70fe 9fbf b63d 3cbf 94f7 25bf
00000170: 7e26 8cbf d3d5 64bf 11b0 e2be a37f 20c0
00000180: 10e9 d7bf 4bcc 0fbf ecd8 60bf ab28 b0bf
00000190: c39d 09c0 893d 173e 68e7 89bf abea a0bf
000001a0: 0cac fbbe 0ae4 abbf 3f42 08bf d70e 90bf
000001b0: d6ee cebf 6286 1bc0 bc33 b5be 6369 dcbf
000001c0: 2474 b33f 4c5b 8ebf 0e11 c83e 92ea a5be
000001d0: 85d8 8abf c6e5 92bf 660e 7bbe 00a4 c1be
000001e0: d67a cc3e 18e7 113f 830b 64bf 6160 7bbf
000001f0: 11fc a2be b6c2 13bf 65ba 54bf eccf a2be
00000200: 6f69 6fbf c9ef eabf 6404 acbf 684f 01bf
00000210: ad72 0ac0 d316 8ebf e787 b7bf 00fe fdbe
00000220: 09c8 61be 7456 10bf fd20 98bf ac6b 93bf
00000230: 6b94 a9bf 6403 e53e 6c19 67bf 462b 5cbf
00000240: 7e32 68bf 3e8d adbe 807d 4abe a034 33bf
00000250: 43d0 3abf 21ca 3fc0 a08c b7bf ac74 efbf
00000260: 9d23 1ebf 3afe a8bf 6026 ecbf 0bca 97bf
00000270: b64c a1bf e1b4 d8bf 45f0 4bbf fddd 8dbf
00000280: f7c2 313e b8a4 55bf 6d24 9abf 21b6 79be
00000290: c0d5 60bd fb4f 93bf ad16 f3bf 30d1 9abe
000002a0: afc1 8cbf 0463 8d3e d3cb d5bf 49c7 22bf
000002b0: fd88 b2bf 4139 c73e 2ed5 9cbf 2de5 4abf
000002c0: ed6f 00c0 7efd e8be ca37 1abe ba24 8abf
000002d0: 9b4b 3fbf c0d5 5abf 2d58 2bbf 0699 99bf
000002e0: 0fc4 e7be 2301 5c3e acf3 d73e 23f1 c5bf
000002f0: adff 8bbf d919 8c3e 56fa b3bf 366a dcbe
00000300: fcfb babf 86e3 9cbe 04ef 3abf c366 74be
00000310: c4c5 5a3e ff07 a0bf 7318 54bf 2184 f7be
00000320: b392 37bf cc94 aabf 94ad 1cbe c1c2 9b3e
00000330: ab85 0a3f 8515 37bf eeef cf3e 61ba aabf
00000340: bd7b 35bf 05df dabe 1b49 ca3f 1f4a adbf
00000350: 0b20 b4bf b993 61bf e037 113d 0a8f 6fbe
00000360: 036a 27bf aa56 0fc0 6ff2 d3bf 0fec b2be
00000370: c130 21be ded1 44bf caff 81bf 36df acbd
00000380: 15e1 acbd b189 a2bf f4c8 8cbf 23ad 5bbf
00000390: 7b59 8bbf a8fb 51bf cea2 ccbe 47dc adbf
000003a0: 19e8 a0bd 94ea 4cbf 1b0a bb3e bedf 20bf
000003b0: 733e b4bd 4a27 c03e edf7 5ebf 4a55 85bf
000003c0: a094 55bf cb67 35bf 22b5 cabf 8796 06c0
000003d0: 2b99 a7bf 3283 d7bf 73dc ccbf 4d77 c4be
000003e0: f4b6 68bf c968 1dbf d3cb 65bf f88e 41bf
000003f0: fbe4 49c0 9b18 d43e b8e4 cd3f b801 07bf

fc2.weight f4 [128, 260]
-0.062575646 -0.08047474 0.001528101 0.01111604 0.027261212 -0.05495832 -0.009933527 0.0052570417
-0.0018469428 -0.107117444 -0.01637476 0.053383928 -0.07735187 -0.107313044 -0.09716606 0.049056306
-0.036262184 0.0725975 -0.024719633 -0.094570085 -0.06581788 -0.07552318 -0.01314343 0.061000906
-0.1334381 -0.06305781 0.0075889914 -0.067699365 -0.0017959127 -0.15636785 -0.00983986 -0.1192078
0.0062089697 -0.028818555 -0.05333725 -0.011504911 -0.07487485 -0.05605301 -0.03537396 -0.025820445
-0.08045215 -0.12957634 -0.0007128037 -0.15790163 -0.06389834 -0.03580293 -0.06946741 -0.118994266
-0.08327097 -0.1269548 -0.0044692755 0.00029407116 -0.073708706 -0.004822004 0.0025157765 -0.018376758
0.07324575 -0.0071167615 -0.04763859 0.048729513 -0.060800184 -0.055356894 -0.039189775 -0.020781044
-0.091830835 -0.011470532 0.014488196 0.07805751 0.0026137065 -0.056843054 -0.054471556 -0.005856672
-0.1258778 0.016242253 -0.09294219 -0.003696214 0.014003995 -0.068520844 -0.0971602 -0.0690377
0.053037528 -0.13390394 -0.10670529 -0.12809376 0.010156627 0.0344122 0.008379731 -0.03990482
-0.07966992 -0.02650819 -0.04607272 -0.050738245 -0.0674756 -0.14755708 -0.03778236 -0.00788176
-0.08721945 -0.10795991 -0.048180293 -0.055544507 -0.004389754 -0.010393502 -0.06272394 -0.095579244
-0.1227404 -0.04439588 0.050069608 -0.0436434 -0.06412098 -0.032481156 -0.156492 -0.02297534
-0.059959047 0.0461778 -0.03790142 0.030193822 -0.008411517 -0.06693234 -0.017953578 0.017328825
0.010360991 -0.000112402275 -0.06406389 -0.08311601 0.07523882 -0.12395833 0.06737624 -0.09422475
-0.055313494 0.05323163 -0.04832883 -0.026503751 -0.0038058814 -0.035147052 -0.05330358 -0.10449556
-0.13555667 0.023519857 -0.048051734 -0.10469123 -0.01759846 -0.14938512 -0.05507136 0.017678654
-0.04177109 -0.036947932 -0.02143107 -0.05537109 -0.0713792 -0.021959705 0.009401786 0.022535106
-0.077709205 -0.0075957263 0.011409495 -0.03600643 -0.007549603 -0.120965414 -0.06963432 0.0713009
-0.07195803 -0.0649717 0.0032583473 0.011310641 0.033250403 -0.08944186 -0.09123598 -0.06923262
0.045044918 -0.026598012 -0.056108538 -0.007179756 0.018727757 0.04879859 -0.0033241075 -0.046257094
-0.039159324 -0.16644517 -0.09691507 0.04351298 -0.115081154 -0.020494362 0.031847533 0.0034327765
-0.0974853 -0.021088136 -0.06941904 0.06523704 0.038014363 -0.037603505 -0.029240893 -0.018467871
-0.023917135 -0.059155814 -0.07951765 -0.093173675 0.006121111 -0.08180057 0.039178416 -0.08549658
-0.09514879 -0.07905395 -0.0659515 0.011021146 -0.019205885 -0.08210656 -0.071187004 -0.026700426
0.0131174335 -0.04560275 -0.020665418 0.013727898 -0.010350944 -0.04575526 -0.040630728 -0.044873644
-0.03308726 -0.0054585827 -0.08936602 -0.054709706 -0.032777265 -0.16089283 -0.038893055 -0.084763214
-0.079212084 -0.07835743 -0.029500384 -0.078421794 -0.07271135 0.037597854 0.03849663 -0.037741087
-0.11549355 -0.09486917 -0.10897328 -0.020091556 -0.1136492 -0.16739346 0.06963426 0.02270986
-0.05813195 -0.019165862 -0.031010602 -0.04865179 -0.06790011 0.015398074 -0.08214355 0.031535607
-0.1255325 0.023905177 -0.031094637 0.05320822 0.02065901 -0.041389097 -0.112824894 -0.026879
00000000: a927 80bd f1cf a4bd 904a c83a 0d20 363c
00000010: e852 df3c fa1b 61bd 3bc0 22bc 4343 ac3b
00000020: 1e15 f2ba 6460 dbbd 5c24 86bc 1ba9 5a3d
00000030: a86a 9ebd f1c6 dbbd 00ff c6bd 44ef 483d
00000040: a887 14bd 00ae 943d d480 cabc f6ad c1bd
00000050: 86cb 86bd e6ab 9abd 8b57 57bc 16dc 793d
00000060: ffa3 08be 7424 81bd 13ad f83b f7a5 8abd
00000070: d564 ebba e51e 20be 5d37 21bc 3823 f4bd
00000080: 9d74 cb3b e414 ecbc 2978 5abd 187f 3cbc
00000090: fc57 99bd d797 65bd 49e4 10bd 6685 d3bc
000000a0: 19c4 a4bd a9af 04be 72db 3aba f7b0 21be
000000b0: 22dd 82bd 18a6 12bd ee44 8ebd 44b3 f3bd
000000c0: f889 aabd 7000 02be 0073 92bb 902d 9a39
000000d0: 97f4 96bd e701 9ebb badf 243b db8a 96bc
000000e0: de01 963d b933 e9bb af20 43bd 9998 473d
000000f0: 9d09 79bd e9bd 62bd 7585 20bd 023d aabc
00000100: ce11 bcbd e6ee 3bbc e65f 6d3c 9edc 9f3d
00000110: b84a 2b3b 43d4 68bd 911d 5fbd 53e9 bfbb
00000120: 1ce6 00be 790e 853c 7a58 bebd 2e3c 72bb
00000130: 0371 653c a854 8cbd edfb c6bd a363 8dbd
00000140: e13d 593d 1d1e 09be 4e88 dabd 032b 03be
00000150: fb67 263c cff3 0c3d 244b 093c 3d73 23bd
00000160: fc29 a3bd b427 d9bc c0b6 3cbd e8d2 4fbd
00000170: a630 8abd 3419 17be adc1 1abd 7f22 01bc
00000180: 1ca0 b2bd 161a ddbd b358 45bd a382 63bd
00000190: edd7 8fbb 8249 2abc 6975 80bd 0dbf c3bd
000001a0: 525f fbbd 74d8 35bd ca15 4d3d 6cc3 32bd
000001b0: dc51 83bd f60a 05bd 703f 20be c836 bcbc
000001c0: 9e97 75bd ef24 3d3d 853e 1bbd 0959 f73c
000001d0: 76d0 09bc d313 89bd 6213 93bc 2ef5 8d3c
000001e0: 25c1 293c 83b9 ebb8 ee33 83bd ba38 aabd
000001f0: cf16 9a3d dddd fdbd 8efc 893d e8f8 c0bd
00000200: 6790 62bd 6909 5a3d 74f4 45bd 651e d9bc
00000210: 186c 79bb 5bf6 0fbd db54 5abd c501 d6bd
00000220: 5ecf 0abe b7ac c03c e5d1 44bd 5b68 d6bd
00000230: a52a 90bc 6af8 18be 8292 61bd d3d2 903c
00000240: 2a18 2bbd b756 17bd 3690 afbc cccc 62bd
00000250: 422f 92bd d7e4 b3bc f309 1a3c 8b9b b83c
00000260: 0126 9fbd 92e5 f8bb e4ee 3a3c 7a7b 13bd
00000270: a962 f7bb b7bc f7bd 709c 8ebd 3506 923d
00000280: bb5e 93bd e20f 85bd ff89 553b 4450 393c
00000290: 9331 083d 4b2d b7bd eed9 babd d5c9 8dbd
000002a0: 0581 383d 13e4 d9bc 11d2 65bd 2944 ebbb
000002b0: f46a 993c 08e1 473d 45d9 59bb 1478 3dbd
000002c0: 8765 20bd 9a70 2abe 697b c6bd ab3a 323d
000002d0: abaf ebbd cbe3 a7bc 8f72 023d 6ff8 603b
000002e0: 5fa6 c7bd 07c1 acbc 922b 8ebd ff9a 853d
000002f0: f3b4 1b3d 2206 1abd 998a efbc ef49 97bc
00000300: deed c3bc 5e4d 72bd 26da a2bd d7d1 bebd
00000310: 9a93 c83b 0f87 a7bd 8c79 203d d518 afbd
00000320: 5edd c2bd 0ae7 a1bd 9411 87bd 0992 343c
00000330: a955 9dbc 7c27 a8bd 7eca 91bd daba dabc
00000340: 81ea 563c f3c9 3abd 864a a9bc faea 603c
00000350: 0197 29bc de69 3bbd 686c 26bd 6dcd 37bd
00000360: 8286 07bd e9dd b2bb 8805 b7bd 4917 60bd
00000370: 7441 06bd 17c1 24be 534e 1fbd 5698 adbd
00000380: f239 a2bd dc79 a0bd caaa f1bc 9b9b a0bd
00000390: b0e9 94bd 3500 1a3d a4ae 1d3d 6696 1abd
000003a0: e287 ecbd c44a c2bd 622d dfbd 0c97 a4bc
000003b0: e9c0 e8bd 3169 2bbe 689c 8e3d 070a ba3c
000003c0: c51b 6ebd ba01 9dbc f209 febc 1947 47bd
000003d0: 360f 8bbd 3448 7c3c e13a a8bd 7b2b 013d
000003e0: 978b 00be cad4 c33c 2eba febc ddf0 593d
000003f0: 163d a93c 9d87 29bd bd10 e7bd 5931 dcbc

fc2.bias f4 [128]
-0.22573371 -0.42931584 -0.22022901 -0.3110067 -0.60839665 -0.2662294 -0.2828202 -0.9051548
-0.38185686 -0.2849772 -0.20987506 -0.28812978 -0.5461772 -1.2754056 -0.3272212 -1.0283619
-1.2055677 -0.2264611 -0.23592989 -0.30212176 -1.1514813 -0.67527676 -0.36970595 -0.23569481
-0.32811192 -0.24634859 -0.13935836 -0.35602057 -0.87743723 -0.2515294 -1.3138056 -0.39292046
-0.2785979 -1.6484482 -1.9699068 -0.3261982 -0.7393207 -0.49684954 -0.44859913 -0.2315104
-1.5845249 -0.22875926 -0.24597687 -1.4623125 -0.39562827 -0.2062357 -0.59815925 -0.63468134
1.6946734 -0.30091816 -0.2941708 0.9192651 -0.31846532 -0.20857164 -0.2657745 -0.41669342
-0.20295838 -0.2523809 -0.51194197 -1.2669518 -0.4825555 -0.2934781 -0.4629621 -0.5185983
-0.2491695 -0.35566664 -1.0904937 -0.26638833 -0.1963353 -0.9604836 -0.437744 -0.2773407
-0.47283846 -1.3651826 -0.743771 -0.217234 -0.89089614 1.9764435 -0.38490397 -0.37883615
-0.8372974 -0.27463645 -0.20816232 -1.8877134 -0.89871454 -0.26672044 -0.28379992 -0.25093538
-0.41686603 -0.19350418 -0.32937568 -0.3368948 -0.028555088 -0.91402435 -0.4867518 -0.33580568
-0.33256567 -0.22663017 -0.4358015 -0.2901505 -0.4738046 -0.57802033 -0.25556642 -0.28626564
-0.26897037 -0.29106256 -0.2455858 -0.2073628 -0.2671576 -1.6546468 -0.66434 0.018666157
-0.46736193 -0.21967 -0.5953878 -0.21667802 -0.42871964 -0.24420658 -0.49136263 -0.13218316
-0.2186317 -0.7866857 -0.97559637 -0.32654735 -0.2660735 -0.7376281 -1.714379 0.046561766
00000000: bd26 67be 49cf dbbe b783 61be 453c 9fbe
00000010: e2bf 1bbf 384f 88be cfcd 90be 3ab8 67bf
00000020: be82 c3be 88e8 91be 7de9 56be bf85 93be
00000030: 45d2 0bbf 7e40 a3bf 8a89 a7be 5da1 83bf
00000040: 0b50 9abf 6be5 67be 9b97 71be b4af 9abe
00000050: bd63 93bf f0de 2cbf 194a bdbe fb59 71be
00000060: 49fe a7be ce42 7cbe f5b3 0ebe 5448 b6be
00000070: ba9f 60bf 76c8 80be c82a a8bf df2c c9be
00000080: 62a4 8ebe 5a00 d3bf e825 fcbf 7303 a7be
00000090: 1f44 3dbf 1063 febe c9ae e5be 1011 6dbe
000000a0: b6d1 cabf de3f 6abe 5ce1 7bbe 0e2d bbbf
000000b0: ca8f cabe 742f 53be f720 19bf 7a7a 22bf
000000c0: 0feb d83f f211 9abe 8e9d 96be f554 6b3f
000000d0: e30d a3be ce93 55be 9813 88be d758 d5be
000000e0: 52d4 4fbe 1238 81be a10e 03bf 7a2b a2bf
000000f0: 8411 f7be c342 96be 5e09 edbe dcc2 04bf
00000100: 4a26 7fbe f019 b6be 4c95 8bbf 0d64 88be
00000110: 1f0c 49be 41e2 75bf fb1f e0be 9aff 8dbe
00000120: e217 f2be 4ebe aebf c767 3ebf 9772 5ebe
00000130: c511 64bf 1afc fc3f 2212 c5be d0f6 c1be
00000140: 1f59 56bf 269d 8cbe 8128 55be 98a0 f1bf
00000150: 2812 66bf 958f 88be 394e 91be 9a7a 80be
00000160: 776f d5be f625 46be eea3 a8be 7a7d acbe
00000170: 5cec e9bc 80fd 69bf 8837 f9be b9ee abbe
00000180: 0c46 aabe bd11 68be 6021 dfbe 9b8e 94be
00000190: 8496 f2be 24f9 13bf 9ad9 82be 6991 92be
000001a0: 7cb6 89be 2706 95be d87a 7bbe ea56 54be
000001b0: e2c8 88be 77cb d3bf 3012 2abf c5e9 983c
000001c0: 104a efbe 2cf1 60be 566b 18bf d8e0 5dbe
000001d0: 2481 dbbe 4a11 7abe e293 fbbe 065b 07be
000001e0: fde0 5fbe 3c64 49bf afc0 79bf 3731 a7be
000001f0: c93a 88be 32d5 3cbf c570 dbbf 8db7 3e3d

fc3.weight f4 [1, 128]
0.0045066145 -0.01959233 0.006030065 -0.022209935 0.038519688 -0.011833799 -0.0134478295 0.0128563205
0.021524346 -0.01119996 -0.029988443 -0.0026179538 -0.013575646 -0.007822958 0.0002886288 -0.014487693
0.0038365663 0.025674155 -0.013596446 0.022877848 0.015661467 0.008282607 -0.015980095 -0.013172102
0.012154488 -0.014587681 0.0065305615 -0.030853508 0.012303443 0.0055651986 -0.0036637112 -0.0064642844
0.0020172962 -0.0003405351 0.007309726 -0.01057284 -0.011625987 -0.046472955 -0.01588514 -0.007060345
0.008515033 -0.019026838 0.010623151 -0.034080338 -0.013997174 -0.030025994 -0.0074373423 0.019343995
-0.006339099 0.01721088 0.004052209 -0.007889919 0.023647813 0.027763223 -0.0009663399 0.02585381
-0.010457134 0.0042880913 -0.015678495 0.01655902 0.0139219705 -0.022188244 0.026141645 -0.022609247
0.013265015 0.029598523 0.0017029191 -0.019382585 -0.007097917 0.0066215415 -0.012991306 -0.009311121
-0.0019180963 -0.006057612 0.008050703 -0.013244568 0.008072306 -0.0066499333 -0.049349193 0.020295046
0.009295592 -0.025091056 -0.014755566 0.01701115 -0.016037105 0.012171063 -0.0069692684 -0.00017354853
-0.0039934157 0.016236838 0.015620379 0.023231382 0.009153994 -0.005956637 -0.013669713 -0.012052501
0.02774585 -0.051192146 0.019987978 -0.020005584 -0.03348649 0.017597577 0.028123641 0.0076837125
-0.005488667 0.0065582413 -0.027059348 0.017743979 0.0051231137 -0.023345985 -0.004767904 0.010341444
0.013737087 -0.031433262 -0.010303074 0.0041261143 -0.0232604 -0.024493555 -0.039935544 -0.002912546
-0.007495746 0.024625406 -0.02539827 0.018896472 0.026631292 0.0296569 0.004291689 -0.0049975365
00000000: 39ac 933b 1880 a0bc da97 c53b 9cf1 b5bc
00000010: d2c6 1d3d 8de2 41bc 4954 5cbc 51a3 523c
00000020: d353 b03c 0980 37bc 53aa f5bc fa91 2bbb
00000030: 636c 5ebc dd2b 00bc 1a53 9739 ca5d 6dbc
00000040: e76e 7b3b 9b52 d23c a1c3 5ebc 536a bb3c
00000050: 7a4c 803c c6b3 073c b0e8 82bc cdcf 57bc
00000060: 9e23 473c 2b01 6fbc 52fe d53b 7fc0 fcbc
00000070: 6194 493c 455c b63b e01a 70bb 59d2 d3bb
00000080: 9d34 043b d989 b2b9 6d86 ef3b b539 2dbc
00000090: ec7a 3ebc 6d5a 3ebd 8e21 82bc 775a e7bb
000000a0: a382 0b3c 2cde 9bbc ba0c 2e3c d397 0bbd
000000b0: 6754 65bc 13f9 f5bc f3b4 f3bb 4c77 9e3c
000000c0: 37b8 cfbb d5fd 8c3c 65c8 843b b844 01bc
000000d0: 0fb9 c13c b36f e33c f951 7dba 5fcb d33c
000000e0: 6654 2bbc 1e83 8c3b 3070 80bc c8a6 873c
000000f0: fa18 643c 1fc4 b5bc 0127 d63c 0737 b9bc
00000100: 8155 593c 9a78 f23c 7c34 df3a 3ac8 9ebc
00000110: a595 e8bb 84f9 d83b 7dd9 54bc ac8d 18bc
00000120: a268 fbba ef7e c6bb 19e7 033c bfff 58bc
00000130: b541 043c afe7 d9bb 6122 4abd cc41 a63c
00000140: 8a4c 183c c28b cdbc 54c1 71bc f85a 8b3c
00000150: 3f60 83bc 2369 473c 765e e4bb 94fa 35b9
00000160: 33db 82bb 1e03 853c 9eec 7f3c bd4f be3c
00000170: a2fa 153c e52f c3bb eff6 5fbc da77 45bc
00000180: 444b e33c dbae 51bd d4bd a33c c0e2 a3bc
00000190: 2129 09bd cb28 903c 8d63 e63c a7c7 fb3b
000001a0: 47da b3bb 84e6 d63b 91ab ddbc d25b 913c
000001b0: cbdf a73b 1440 bfbc 143c 9cbb 296f 293c
000001c0: 8511 613c 2ac0 00bd 39ce 28bc 5b34 873b
000001d0: 988c bebc b5a6 c8bc 7493 23bd 6ae0 3ebb
000001e0: e09e f5bb 38bb c93c 0810 d0bc c6cc 9a3c
000001f0: de29 da3c 07f3 f23c 4ca1 8c3b 60c2 a3bb
