Collaboration and Competition/checkpoint_critic_0.pth (torch_old, 185386 bytes, 5 tensors)

fcs1.weight f4 [256, 48]
000000 95 5c a9 be 88 56 f3 be 17 a0 75 3d d7 d5 e8 3e
       -0.33078447 -0.47526956 0.059967127 0.45475647
000010 da 60 21 3f b2 97 72 3e 00 40 1a 3d 73 d0 e8 3e
       0.6303841 0.2369068 0.03765869 0.45471534
000020 65 3c 07 be f4 25 90 be de fd 2f bd 78 95 10 3d
       -0.13206632 -0.28153956 -0.042966716 0.035298795
000030 a3 70 79 3e f7 16 6d bf f8 d4 88 3b 64 9b 61 bc
       0.24359374 -0.92613167 0.0041757785 -0.013769958
000040 cd d9 3f 3d 53 76 c9 be 9d 88 94 bd fc 3a 36 be
       0.04683857 -0.39348087 -0.072526194 -0.17795938
000050 d1 3b ae 3e 98 e3 21 c0 5a b2 f2 3c 2c 06 88 bd
       0.3403001 -2.5295162 0.02962606 -0.06641802
000060 a1 57 fb 3e 5e 54 18 40 17 e3 f1 3b 33 92 5e 3c
       0.49090293 2.3801494 0.0073818075 0.013584661
000070 8d 97 37 bf cd fb 3b 3e a7 a5 ab 3c dd 4b 8f 3d
       -0.71715623 0.18357773 0.020953013 0.06996892
000080 69 42 74 3f 30 03 53 40 84 57 98 3d 93 b4 9e 3e
       0.95413834 3.2970695 0.07438567 0.30997142
000090 06 07 77 be 81 13 6f bf 15 04 92 3d 90 1f 85 3e
       -0.24123773 -0.93389136 0.07129685 0.26000643
0000a0 dd 11 85 3f b0 45 76 40 15 00 04 3e fb a6 18 3f
       1.0396076 3.8480034 0.12890656 0.5962979
0000b0 b6 1d a9 be c6 79 1d c0 dc 5b ac 3d 68 9f 2b 3f
       -0.3303048 -2.4605575 0.08415958 0.6704011
0000c0 b9 94 eb 3d e7 1f 2c 3f 0f 1f 2f 3d 37 65 06 3f
       0.11502976 0.6723618 0.04275423 0.5249819
0000d0 b3 ea 39 bf 4d e5 bd be b0 d7 85 3d 5c f2 f1 3e
       -0.7262375 -0.37089005 0.0653528 0.47255218
0000e0 19 62 c1 3f f2 5b 39 3e 22 08 c4 bd b7 b8 f5 be
       1.5108062 0.1810148 -0.09571864 -0.4799249
0000f0 d0 50 15 bf 0a 2d 8e be 37 a6 e1 bd 02 42 d4 be
       -0.58326435 -0.27768737 -0.11018031 -0.4145661
000100 26 8e f6 3f 0a 0a a1 3e b1 d9 13 be 00 77 35 3f
       1.926213 0.31452972 -0.14438511 0.70884705
000110 5e 58 b0 be 53 06 8c be 73 38 23 be a7 f0 46 3f
       -0.3444242 -0.27348575 -0.15939502 0.77710956
000120 24 71 68 3f dd 05 97 3f 74 32 95 ba c6 9c 38 3d
       0.9079764 1.1798664 -0.0011382834 0.045071386
000130 b3 78 2e 3f ec e5 8c be 3f ac ee bc 9b 6d c3 ba
       0.6815292 -0.27519166 -0.029134868 -0.0014909984
000140 8a ed 5c 3f 39 23 94 3f 55 2f 6d be 0d 0e b9 3e
       0.86299956 1.1573249 -0.23162587 0.36143532
000150 4f 10 00 3f 70 84 61 be 1d 7c 08 be d6 7d 8f 3e
       0.50024885 -0.22023177 -0.13328595 0.28025693
000160 1e d1 7b 3f d6 db a1 3f 11 0a f1 bc c8 46 07 3f
       0.9836596 1.2645214 -0.029423745 0.5284238
000170 87 73 b8 3e 8b 9d b3 be 76 a7 d7 bc 22 92 1e 3f
       0.3602564 -0.35081133 -0.026324969 0.6194173
000180 ec 7e 17 3f 57 f0 b3 3f 18 4f 62 be d6 1b 39 3f
       0.5917804 1.4057721 -0.22100484 0.723081
000190 b7 1d 97 be 1a d6 9e bf a2 66 6f be 6e 51 56 3f
       -0.29514858 -1.2409089 -0.23378995 0.83718
0001a0 ce 1e 8e 3f a8 63 fa 3f 91 c2 7e bd 05 05 69 3f
       1.1103151 1.9561663 -0.06219727 0.91023284
0001b0 33 af ea bd 47 c7 5e bf ae 23 71 bd f1 10 78 3f
       -0.11459198 -0.87022823 -0.058871917 0.9690085
0001c0 36 9c af 3f d0 c2 01 40 95 65 a6 3d d8 11 61 3e
       1.3719547 2.0275154 0.08124844 0.21979463
0001d0 2a 15 13 3d 39 84 a1 be b2 75 41 3d 60 7b df 3d
       0.035908855 -0.3154619 0.047231384 0.10912204
0001e0 77 b7 73 be 9a c6 94 be 78 db ce 3b f6 de 5b 3f
       -0.23800455 -0.2905777 0.006312784 0.85887086
0001f0 ac 17 9e 3e 7f cc a3 bf 43 06 8e bd dd 12 6d 3f
       0.30877435 -1.2796782 -0.06934788 0.9260691
000200 f2 ab 82 be ba ba 78 be 5f 4b b0 3d 26 ef c2 3e
       -0.2552181 -0.2428998 0.08608126 0.3807308
000210 86 a9 a8 3d 33 26 65 bf 24 b4 91 3b 21 5d db 3e
       0.08235459 -0.8951141 0.0044465233 0.4284449
000220 9b 96 cb 3e aa 12 41 3e 31 b8 13 ba 8e fb 23 3f
       0.3976334 0.18854776 -0.00056350516 0.64055717
000230 e5 9f 91 bd 7c b6 73 be e4 68 2b 3d 97 c3 1e 3f
       -0.071105756 -0.23800081 0.04184808 0.62017196
000240 11 be 35 3e fb 11 69 3f a9 e8 61 3b d1 87 95 3d
       0.17748286 0.9104306 0.0034470952 0.073012955
000250 f8 72 8f bf fb b2 20 3d 60 a8 58 3b 95 0b 9e 3d
       -1.1206961 0.03923319 0.0033059344 0.07717053
000260 eb 2d fb 3e 55 d6 88 3f 24 0a 8b 3d 44 e7 67 3d
       0.4905847 1.0690409 0.067890435 0.056617036
000270 59 15 ad be 8f 44 76 3e 4c 18 23 bd e9 79 6f 3d
       -0.3380535 0.2404959 -0.039818093 0.058465872
000280 b4 ad 1d 3f 13 28 5d 3f e1 cc 36 3d d0 f6 c9 3d
       0.61593175 0.86389273 0.04462898 0.09861529
000290 e2 a0 fc bd 84 42 4d bf 3d 4d fd ba 33 75 26 3e
       -0.123353735 -0.8017962 -0.0019325387 0.16255645
0002a0 db 29 d7 3f 20 db 9e bf 19 2f 5f bd 6b 6b 2c 3e
       1.6809648 -1.2410622 -0.054488275 0.16837852
0002b0 9a 57 8e 3f a6 3e 12 3d 1a 4c b4 bd 0a df 3c 3e
       1.1120484 0.035704277 -0.08803578 0.18444458
0002c0 53 a4 97 3f c2 f4 bd bf 02 f3 f0 bc 28 f6 09 3d
       1.1847023 -1.4840319 -0.02941275 0.03368202
0002d0 bf 4c bb 3e 98 6f a1 3e 71 9c 1a bd 1f d6 aa 3c
       0.3658199 0.31530452 -0.03774685 0.020854054
0002e0 ef 93 d5 3f da 1f 04 c0 cc c0 46 3d 8c 82 37 3e
       1.6685771 -2.064444 0.04852371 0.17920893
0002f0 bd 8e 2a 3e ba bf 43 bf 9e cc 65 3d 02 77 63 3e
       0.16656013 -0.76464427 0.05610334 0.22213367
000300 c6 1f 4b 3f 48 fc d8 3f d9 b4 85 be 08 8b 57 be
       0.7934536 1.695199 -0.26114538 -0.2104913
000310 47 cf 1b bf c0 f6 8e bf 23 87 b3 be 55 4a 46 be
       -0.60863155 -1.1169052 -0.3506404 -0.19364293
000320 e8 95 67 3f d7 05 f9 3f 3c 29 a9 bd fd e1 92 bd
       0.90463114 1.9454907 -0.08259818 -0.0717201
000330 61 7d 5c 3d 3b 55 15 bf e4 6c 3a bd fd 16 93 bd
       0.05383051 -0.58333176 -0.045514002 -0.07182119
000340 59 f4 d3 3f 1e 33 06 40 a4 94 56 bd c1 17 22 bd
       1.6558944 2.09687 -0.05238785 -0.039573435
000350 8b a9 ef 3e 4f ec 22 3e f0 6a 52 bc 4e 76 de bd
       0.4680904 0.15910457 -0.012842879 -0.108624086
000360 3a 61 38 3e 32 63 84 bf 97 e4 65 bd d1 f9 33 bf
       0.18005839 -1.0342772 -0.056126203 -0.70303065
000370 20 87 13 3f 05 73 89 bf 48 3d 7d bd 34 56 3b bf
       0.5762806 -1.0738226 -0.06182602 -0.7317841
000380 d7 7e f6 3e f3 86 ec be ea 8e ea 3d fe c3 ca be
       0.48143646 -0.46196708 0.1145304 -0.39602655
000390 a9 39 a4 bd 54 d4 15 bf 52 bf b6 3d 37 33 e6 be
       -0.0801881 -0.5852711 0.0892321 -0.4496095
0003a0 e3 3e a5 3f 6a 2a f1 3e bc 14 a2 bc de f5 86 3f
       1.2909817 0.47102672 -0.019785278 1.0543783
0003b0 04 8e ef be 43 7e 33 3e 69 65 a5 bd b7 b3 83 3f
       -0.46788037 0.17528634 -0.08075983 1.028922
0003c0 9c a9 d7 3d d7 7e a1 bf e1 77 ac 3c c6 a5 41 bd
       0.10530397 -1.2616833 0.021053256 -0.047277234
0003d0 77 e5 f8 3d 3a 36 45 bf 93 83 0d bb 02 42 c1 bb
       0.12153142 -0.7703587 -0.0021593317 -0.0058977613
0003e0 34 73 26 bd 29 04 81 bf 56 e0 d0 3d 9e 27 96 3f
       -0.04063721 -1.0079395 0.10199039 1.173084
0003f0 32 be 6d be 10 b4 4b bf cd 7b 11 39 a1 58 9b 3f
       -0.23217085 -0.7957163 0.00013874397 1.2136422

fcs1.bias f4 [256]
000000 49 95 36 3e 56 40 95 bf 01 41 0d c0 92 16 1f bf
       0.17830385 -1.1660259 -2.2070925 -0.62143815
000010 c9 ac f0 bf ec 59 be be c6 db 99 bf db 46 da bf
       -1.880273 -0.3717798 -1.2020195 -1.7052873
000020 71 df db bf 5c cf dd bf e0 c1 f9 3c bc 6c db bf
       -1.7177564 -1.7328906 0.030487955 -1.7142558
000030 58 b1 49 bf 95 3f 89 bf 4d 4d 4c 3f 83 60 51 be
       -0.7878623 -1.0722529 0.7980545 -0.20446973
000040 ee 29 d4 bf 4c 64 ec bf 86 f7 b8 bf 27 cd b9 be
       -1.6575296 -1.8468108 -1.4450538 -0.3628933
000050 cc ae 9a bf 18 6e a8 bf ff ad c0 bf 3c da b8 bd
       -1.2084594 -1.3158598 -1.5053099 -0.09026
000060 1e ae 99 bf 9e 7d a2 bf 59 1e c9 bf fa 54 9a bf
       -1.2006261 -1.2694585 -1.5712386 -1.2057183
000070 69 16 34 bf d7 9e 8f be ec 73 5c bf e9 d0 93 3e
       -0.70346695 -0.28050873 -0.8611438 0.28870323
000080 ec 11 4e bf 3f 72 3d bf 2d 97 b0 bf a6 25 ec bf
       -0.80496097 -0.7400245 -1.3796135 -1.8448989
000090 4a 10 31 3e 52 d3 55 bf 01 52 dc 3e cf d5 22 c0
       0.1729137 -0.83525574 0.43031314 -2.5442998
0000a0 05 34 66 bf 9b 15 13 be 6a 25 7f bf f6 ab 23 bf
       -0.89923126 -0.1436371 -0.99666464 -0.63934267
0000b0 a3 e4 ac bf 9b b6 b3 bf 8d 21 55 bf da 57 51 bf
       -1.3507274 -1.4040102 -0.8325432 -0.81774676
0000c0 46 0f 3a 3f 89 17 34 be 1c 6c 11 be ed e0 ac bf
       0.72679555 -0.17587103 -0.14201397 -1.3506142
0000d0 38 b0 6f bf da 62 94 bf 83 09 03 c0 80 89 ce bd
       -0.93628263 -1.1592667 -2.0474555 -0.1008482
0000e0 3b 4e cd bf 56 71 4f bf b7 26 48 3f 69 e4 81 bf
       -1.6039499 -0.8103231 0.78184074 -1.014783
0000f0 a5 f6 0d c0 0c 89 91 bf f8 b1 f8 be 89 f7 cb bf
       -2.218179 -1.1369948 -0.4857328 -1.5934917
000100 a4 8d bf bf d7 4c da bd d7 75 bd be be fe 2a bd
       -1.49651 -0.10659187 -0.37003967 -0.041746847
000110 65 b1 ac bf 54 fe cf bf d8 7d 23 be 6b 55 cd 3f
       -1.3491637 -1.624949 -0.15965974 1.6041692
000120 78 ba 08 bf cd 8e bc be c6 ca d8 3a 25 dc b7 bf
       -0.5340953 -0.36827698 0.0016539923 -1.4364058
000130 39 62 38 bf ab 28 f7 3f 7c f6 6e bf 43 aa 20 bf
       -0.72024876 1.9309286 -0.93344855 -0.627598
000140 ca 10 99 bf 3c f9 72 bf e4 62 af 3f e1 58 10 3f
       -1.1958249 -0.9491155 1.3702054 0.5638562
000150 ed ec 97 bf b1 a6 02 3e 1a e0 dd bf a9 bb 7e bf
       -1.1869179 0.127589 -1.7334015 -0.99505097
000160 4a e0 84 be e6 55 4a bf 4c 8d af bf 43 27 a4 3e
       -0.2595237 -0.7903732 -1.3714995 0.32061204
000170 ca 65 ad be a8 8c 98 bf 8f 28 91 bf 56 d1 85 bf
       -0.3386672 -1.1917925 -1.1340503 -1.0454509
000180 5e 45 b1 be 5f 2c d3 bf 77 1d 1c c0 8e 2a a0 bf
       -0.34623235 -1.6497916 -2.4392984 -1.2512987
000190 92 c8 80 bf 4d 2d 02 c0 d5 79 b1 bf f1 4f 79 3f
       -1.0061209 -2.034015 -1.3865305 0.97387606
0001a0 bb 22 8e bf 1d b4 13 c0 3d 74 d4 bd a1 66 8a 3e
       -1.1104349 -2.3078682 -0.10373733 0.27031425
0001b0 1a c8 e1 bf f0 03 0c c0 da c0 c4 bf c5 15 5b bf
       -1.7639191 -2.1877403 -1.5371354 -0.8558009
0001c0 99 2e 1d bf 5c e4 1a bf ab c5 03 3f 72 d4 af bf
       -0.6139923 -0.605047 0.5147349 -1.3736708
0001d0 93 f9 46 bf e2 e4 0a be c4 18 61 be 94 a4 db bf
       -0.7772457 -0.13563874 -0.21982104 -1.71596
0001e0 2d b4 b3 be 6a 1f c4 bf 1e 9f b0 bf 25 11 b7 bf
       -0.350984 -1.5322087 -1.3798559 -1.4302107
0001f0 7c e9 d2 bf 3e ec 22 bf 48 bd 92 bf 5b a5 c1 3f
       -1.6477504 -0.63641727 -1.1464014 1.5128587
000200 81 df 83 bf af 16 0d c0 93 09 28 c0 c5 d6 e3 bf
       -1.0302583 -2.2045095 -2.6255844 -1.7799917
000210 d0 48 6e bf f9 bd 17 be bd 2d 13 bf 58 a0 44 bf
       -0.93079853 -0.14818563 -0.57491666 -0.76807165
000220 6b 30 66 be b0 8c be bf 16 a5 de bf 76 d4 3d be
       -0.22479407 -1.4886684 -1.739413 -0.18538079
000230 81 ba 96 bf 6d f8 e4 bf bb a0 d4 bf 21 52 81 bf
       -1.1775666 -1.7888314 -1.6611551 -1.0103189
000240 13 1f a5 bf 5d 7f 2c 3f 7e f0 c5 bf 4d 14 b6 be
       -1.2900108 0.6738184 -1.5464017 -0.35562363
000250 23 bd 75 bf b4 4f b4 bf e1 0d f1 bf 51 8d 3a bf
       -0.95991725 -1.4086823 -1.883236 -0.7287188
000260 d0 fc c9 be b0 0c d2 bf 76 cb f1 3e 4d 9b c8 bf
       -0.39450693 -1.6410122 0.4722554 -1.5672394
000270 7a a7 3f 3e af fa 88 be 96 5e f9 bf 6f 7f ae bc
       0.18716231 -0.26753756 -1.948199 -0.021301
000280 0b dd 0a c0 3b e4 24 3f 4a 29 00 c0 5e 74 cd bf
       -2.1697414 0.6441075 -2.00252 -1.6051137
000290 d7 36 cc be 68 04 ff be 47 83 14 c0 05 c7 cd bf
       -0.3988559 -0.4980805 -2.3205125 -1.6076361
0002a0 99 37 6d 3e da b7 16 3e 3c 3d 7d bf 6f b6 7f bf
       0.2316574 0.14718571 -0.9892156 -0.99887747
0002b0 9e 60 9f bf d5 92 ed be 25 1c 8d bf 50 2f 16 c0
       -1.245136 -0.46401086 -1.1024214 -2.3466377
0002c0 35 8f bd bf 1c e6 91 3f 53 09 87 3e b8 fd 8a be
       -1.4809328 1.1398349 0.263743 -0.27146697
0002d0 da de e4 bf 99 fe f2 bf 3a f7 63 bf da c2 ea bf
       -1.7880509 -1.8983947 -0.8904911 -1.8340714
0002e0 92 45 07 c0 13 b0 9e bf 49 05 7e 3d 50 15 7c bf
       -2.1136212 -1.2397484 0.06201676 -0.9847002
0002f0 f1 f4 bb bf 47 b4 68 3f ee 24 69 be c8 df 3d 3e
       -1.4684125 0.9090008 -0.22767994 0.18542397
000300 f8 ab 54 3f 23 36 83 bf ea 61 9c bf 33 41 2b c0
       0.83074903 -1.0250896 -1.2217381 -2.6758544
000310 bb 26 84 bf a8 21 95 bf 80 de 02 c0 7b 6c 68 bf
       -1.032432 -1.1650896 -2.0448303 -0.9079053
000320 62 1e e8 bf 76 67 fb bf 6d f9 c2 bf c3 5c 98 bf
       -1.8134272 -1.9640949 -1.5232369 -1.1903309
000330 ee 9d ce bf 82 a9 96 bf 54 48 cc bf 24 dc 8a bf
       -1.6141946 -1.177048 -1.5959573 -1.0848432
000340 a5 fa 78 be fb 1a bf 3c a2 63 60 be 26 8a f6 bf
       -0.24314363 0.023328295 -0.21913007 -1.926091
000350 ec 8b a9 bf f6 07 fb bf ac 5e d6 bf 7b 5b 16 bf
       -1.3245826 -1.9611804 -1.6747642 -0.5873334
000360 d3 f4 06 c0 34 46 28 bf 28 48 cf bf bf c9 42 c0
       -2.108693 -0.6573212 -1.6193895 -3.0435636
000370 fe 53 13 bf 8e db c9 bf 2c ae 85 bf ab 32 90 bf
       -0.57550037 -1.5770128 -1.0443778 -1.1265463
000380 22 7c 76 bf 7b da 40 bf 94 35 12 3f d6 d9 22 bf
       -0.9628316 -0.75333375 0.57113004 -0.6361364
000390 a7 4e 9f be 70 04 08 c0 df 89 14 c0 9a c7 0a c0
       -0.31114694 -2.1252708 -2.320915 -2.1684327
0003a0 ec 25 c9 3e 12 9f 9a bf bb 16 e9 bd e9 e5 99 3f
       0.39286745 -1.2079794 -0.113812886 1.2023288
0003b0 b6 a4 dc 3e 39 b8 02 3f 54 4a 05 c0 08 52 13 bf
       0.43094414 0.5106235 -2.0826616 -0.57547045
0003c0 97 38 85 3c d4 15 04 bf bd d2 ed bf 2c f4 b8 bf
       0.016262336 -0.5159581 -1.8579937 -1.4449515
0003d0 97 6b 8a bf 95 3d 17 bf 4b 8c b7 bf 50 90 ee bd
       -1.0814084 -0.5907834 -1.4339689 -0.11648619
0003e0 23 1d 13 c0 82 12 2e bf f3 0e a3 bf 15 60 9b bc
       -2.2986534 -0.6799699 -1.2738937 -0.018966714
0003f0 2b f3 8e 3e d2 23 81 bd 06 0e 8c 3f 52 2d d7 be
       0.27919897 -0.0630566 1.094178 -0.42026764

fc2.weight f4 [128, 260]
000000 0d f2 b5 bd 7c 3f bb bd ee fe 3a 3d 8f 11 bb 3c
       -0.08884058 -0.09142968 0.045653276 0.022835521
000010 fa e0 7b 3c 9a 33 d5 bd ae 0b 6b bd ff f2 e7 bb
       0.015373463 -0.10410233 -0.057384185 -0.007078528
000020 ad 43 5b 3c f4 cf bb bd e1 9b 0f bc d5 75 2b 3d
       0.013382834 -0.09170523 -0.008765192 0.04186042
000030 c6 70 9b bd 9b 26 7a bd d3 a4 04 be 6b 75 12 bc
       -0.07589869 -0.061071973 -0.129535 -0.008939127
000040 e7 c6 cb bc 5b 66 a9 3b 33 0b 9b bd 64 2b 93 bd
       -0.024875117 0.0051696724 -0.075704955 -0.071860105
000050 81 df c9 bd ed 46 82 bd 78 5e f6 3b 0f 52 ae 3c
       -0.09857083 -0.06361184 0.007518586 0.021279363
000060 c5 0d ef bd 41 f5 8a bd 02 52 9b 3b 99 ed b5 bd
       -0.11672548 -0.0678506 0.0047400007 -0.08883209
000070 fe 8c 67 3d 7b 2d fc bd 03 c4 f9 bc ec 3b bb bc
       0.056530945 -0.12313362 -0.030488973 -0.022855721
000080 b4 bf f0 bc fa ab 94 bc b9 1b 2e bd 72 ed 84 3c
       -0.029388286 -0.018148411 -0.042506907 0.016226504
000090 21 f7 8f bd a7 72 2a bd 76 14 b2 bd cf e9 63 3d
       -0.07029558 -0.041613247 -0.08695309 0.0556429
0000a0 88 55 8a bd 39 cc 3e bd ad 0c 3f bc 52 42 e6 bd
       -0.06754595 -0.04658148 -0.011660737 -0.11243118
0000b0 4f 89 3d 3d 5b 9c 48 bd af 12 9e bd a8 4a 89 bd
       0.046273526 -0.048977237 -0.07718407 -0.06703693
0000c0 94 b8 54 bd c4 8f ca bd 39 c3 34 ba b2 57 04 bd
       -0.05193384 -0.09890702 -0.00068955455 -0.032310195
0000d0 15 37 cf bd 67 b6 41 bd ec cc 73 3b 22 36 1a bd
       -0.10117928 -0.047293093 0.0037201 -0.03764928
0000e0 3c 95 6b 3d ac d2 8f 3c ab be b7 bd 7f 0a 1c 3c
       0.057515368 0.01755651 -0.08971914 0.009523987
0000f0 96 3c e2 bc 40 d7 a6 bd e4 73 84 bc e2 b1 13 bc
       -0.02761678 -0.081465244 -0.016168542 -0.009014579
000100 e7 fe ff bd de 76 00 bd af c2 39 3c 53 8e 9e 3d
       -0.12499791 -0.03136336 0.01133792 0.0774199
000110 f6 dc fe bc 9f 03 97 bd 91 a2 e1 bd 9b 76 0d bd
       -0.031111222 -0.073737375 -0.11017335 -0.03453694
000120 72 24 09 be e1 34 0f 3d 5d 41 b5 bd d6 49 e7 3c
       -0.13392809 0.03496254 -0.08850358 0.02823345
000130 a7 8c 77 3c ab aa 0a be 2b 64 c4 bd d5 de ab bd
       0.015109218 -0.13541667 -0.09589418 -0.08392111
000140 a3 ee a1 3b 71 7a 03 be 3f eb 30 bd b4 b4 ad bd
       0.004941778 -0.12839676 -0.0431931 -0.08481732
000150 f9 0d 1a bc 97 2a a9 3c 2c ff f7 bc 59 78 d3 bc
       -0.009402745 0.020650191 -0.030273043 -0.025814222
000160 67 3e 99 bd 9b f7 20 bd d5 42 90 bc 04 2f 08 bd
       -0.074826054 -0.039298635 -0.017609993 -0.033247963
000170 ed af d2 bc 3c 44 d3 bd 31 af 36 bb 7a 7f b6 3b
       -0.025718654 -0.10315749 -0.0027875418 0.0055693956
000180 69 90 b5 bd 5e 84 ea bd 61 7a 3e bd 4c ae 04 bd
       -0.08865435 -0.11451028 -0.04650343 -0.032392785
000190 f2 73 36 3b 67 e3 bf 3c dc 7e b0 bc 9e cc 96 bd
       0.0027840105 0.023423864 -0.021544866 -0.073632464
0001a0 22 60 c0 bd 98 5b 20 bd a0 2b 83 bc f1 fa 00 be
       -0.09393336 -0.03914985 -0.016012013 -0.12595727
0001b0 64 e4 74 bd c0 67 19 bd c1 f9 b4 bd b7 eb 5c 3d
       -0.059788123 -0.03745246 -0.08836699 0.053935733
0001c0 62 83 67 bd 9a e6 93 3d 1d e7 3d bd 07 2f 88 bc
       -0.05652178 0.07221718 -0.046362985 -0.016623987
0001d0 92 61 93 bc 36 35 0f bd 8d df 92 bc a7 1e 47 3c
       -0.017990861 -0.034962855 -0.017928863 0.012153304
0001e0 f9 e8 d0 3c 6f 5e 01 bc 8e 0a 09 be 26 6b d2 bd
       0.025501715 -0.00789605 -0.13382933 -0.10274343
0001f0 fd 44 a4 3d 57 b4 01 be 0a ac 13 3d 39 e8 04 be
       0.08020971 -0.1266645 0.03605274 -0.12979211
000200 41 0e 7a bb ab 82 45 3d 4d eb 6c bc 82 72 73 bd
       -0.0038155469 0.048220318 -0.014460397 -0.059435375
000210 c1 67 30 bd 6e 07 0a 3d 52 f0 6a 3d b9 bd 05 be
       -0.043067697 0.03369849 0.057358094 -0.13060655
000220 d0 bf c0 bb bf f1 8c 3b a9 d2 55 bc f9 e9 e2 3c
       -0.005882241 0.0043012793 -0.013050714 0.027699457
000230 70 21 f9 3b 9f 0f a1 bd fe 99 60 bd 01 b2 c4 bb
       0.007602863 -0.078643076 -0.05483436 -0.006002665
000240 c0 d7 67 bd 49 6e 08 bd dc 84 b8 3b dc 6b 66 bd
       -0.05660224 -0.0333083 0.0056310724 -0.056255206
000250 f0 1c a7 3d c5 e9 c7 bc 88 e8 84 3d 51 e7 67 3d
       0.08159816 -0.024403462 0.06489664 0.056617085
000260 c2 dd 0f bd 74 61 1c 3d be 06 b6 bd 09 d7 77 3d
       -0.035123594 0.038178876 -0.08888005 0.060507808
000270 db 80 47 bd 9c 9f 3c bd cb 65 b1 bd 8e c7 8a bd
       -0.04870687 -0.046050653 -0.086619936 -0.06776343
000280 61 6e 4b bd 85 03 8c bd 6d a3 80 3c 78 2f 84 3d
       -0.049665812 -0.06836609 0.015702927 0.064543664
000290 c9 00 5f 3d e1 6c 03 be f8 20 95 bc 6b 53 c3 bd
       0.05444411 -0.12834503 -0.018204197 -0.09537395
0002a0 87 ae 4a 3d 07 91 05 3d 36 b7 e0 bc b9 1c a4 3d
       0.04948285 0.032609012 -0.027431112 0.08013291
0002b0 54 4e 81 bb 2d 7b 6d bc 24 a9 f2 bb 4c 50 8c bd
       -0.003946105 -0.014494699 -0.007405417 -0.06851253
0002c0 cd 38 78 bd 93 cd 8e bd 3b 2b 4a bd 84 99 a2 3d
       -0.060601044 -0.06972804 -0.049357634 0.07939437
0002d0 bb a7 cc bd 72 34 47 3b ea 1a 27 3c 38 81 07 3a
       -0.099929295 0.003039625 0.010199288 0.00051690964
0002e0 00 09 3a bd 33 1d 2f bd 2a fd 5a bd 71 59 40 3d
       -0.04541874 -0.042752456 -0.053464092 0.046960298
0002f0 d2 97 18 3d 41 aa ba bd f8 52 ff bc 18 97 73 bc
       0.037254162 -0.091145046 -0.031167492 -0.0148675665
000300 13 2f 44 3c 44 04 2d bd 2e 42 95 bd c6 5e 92 bd
       0.011974114 -0.042240396 -0.072880134 -0.07146983
000310 92 d8 04 3d 7b 44 81 bd d5 36 7a 3d 07 06 c4 bd
       0.0324331 -0.0631189 0.06108745 -0.09571462
000320 8b 60 ab bd d2 3c 8d bd 64 40 a0 bd 0d 0e b8 bb
       -0.083680235 -0.06896366 -0.078247815 -0.0056169094
000330 4d 43 3d 3b b1 0c bc bd e2 6b aa bc 92 67 92 bd
       0.0028879226 -0.09182108 -0.020803396 -0.07148661
000340 b5 49 a4 3c e4 f4 ad bd 7d ca 99 3d 78 49 87 3c
       0.020054678 -0.08493975 0.07509325 0.016514525
000350 51 5e 96 bd 1b 4e 71 bd ef 6a 15 bc 4d fd 4c 3d
       -0.07342208 -0.058912378 -0.009119733 0.050046254
000360 b6 27 75 bd 6a 50 59 3d 81 13 c3 bc d5 e6 89 3d
       -0.059852324 0.053055204 -0.023813011 0.06733481
000370 77 8b 2e bd 10 bf 58 3b c0 94 fe bd 21 7c 4f bd
       -0.042613473 0.0033072866 -0.124307156 -0.050655488
000380 77 ef 26 3b af b0 8f bd d7 6a 33 bc 41 ab 95 bd
       0.0025472322 -0.070161216 -0.010950766 -0.07308055
000390 54 47 90 bd 6d 4c a8 bc 08 74 18 3d 6f b1 2a 3c
       -0.07044855 -0.020544255 0.03722003 0.01041828
0003a0 11 76 ab bd 36 2a a4 bd b2 c2 ab bd 71 b6 16 bd
       -0.08372129 -0.080158636 -0.083867446 -0.036795083
0003b0 f5 84 d1 bd c5 ba d1 bd 62 fb 9a 3d ca e5 b4 bd
       -0.10230438 -0.102407016 0.07567479 -0.08832891
0003c0 ec 0b 51 bd 0f 4d 95 bc d4 74 c8 bc 94 f9 dc 3c
       -0.05103676 -0.018225221 -0.02446977 0.026974477
0003d0 f6 5b c3 bd 47 e9 fe 3b 0c b3 8a bd b6 18 65 3d
       -0.095390245 0.0077792737 -0.06772432 0.05593177
0003e0 82 7d 88 bc ae 70 53 3c 76 6f 9b bb 6d b7 9d 3d
       -0.01666141 0.012905283 -0.004743512 0.07701001
0003f0 2c cf d2 3b dc 63 d3 bc 37 2e 5d bd 6d c0 cd bc
       0.006433388 -0.025804453 -0.053999152 -0.02511617

fc2.bias f4 [128]
000000 d0 d6 27 be 75 d8 00 be 02 99 d8 bd 55 bc f6 bd
       -0.16390538 -0.12582572 -0.10576059 -0.1204764
000010 d9 48 6d bd a0 6e 30 be e5 99 1a be da 7c 34 be
       -0.0579308 -0.172297 -0.15097769 -0.17625752
000020 da d7 54 3e 3e 69 c1 bd 94 8e e8 bd ce 5d 53 be
       0.20785466 -0.094439015 -0.113553196 -0.20641252
000030 91 4c 71 bd af 3d 7f be 95 78 1a be 58 c7 f3 bd
       -0.05891091 -0.24925874 -0.15085061 -0.11903256
000040 58 57 fd bd 00 0e 0f be e4 b5 3f be 4d 6b fa bd
       -0.12370175 -0.13970184 -0.1872173 -0.12227497
000050 00 e5 1a be aa 03 02 be 6f 0d ea bd a0 7f 4d be
       -0.15126419 -0.1269671 -0.114283435 -0.20068216
000060 f4 de ea bd 0a d2 03 be 76 8b ec bc fe 4a 13 bf
       -0.11468306 -0.12873092 -0.028875094 -0.57536304
000070 8a b1 8a bd 6d e2 c5 bd 09 05 98 3f e3 a0 fb bd
       -0.06772144 -0.09662328 1.1876537 -0.12286546
000080 bf af 7e be e3 30 8d 3d 9f bd 83 be 49 eb 6e bd
       -0.2487173 0.0689409 -0.25730607 -0.058329854
000090 0b 47 ec bd 8c e5 ce bd 9c 60 7f bd 88 77 00 be
       -0.11536988 -0.10102376 -0.062347993 -0.12545598
0000a0 e1 10 47 be 43 ea 37 be 57 86 46 be 54 c8 6d be
       -0.19440033 -0.17960458 -0.19387184 -0.2322095
0000b0 87 1c 25 be 95 6e 21 be bf 7a 07 3e e3 1b 52 bd
       -0.16124164 -0.1576484 0.13230418 -0.051296126
0000c0 58 27 03 be 3b a5 e7 bd 24 ba 32 be 01 c4 06 be
       -0.12807977 -0.11310812 -0.1745382 -0.13160707
0000d0 c9 bf 18 be 61 3c 19 be 9f 42 1d be 10 19 96 be
       -0.1491691 -0.14964439 -0.15357445 -0.29315996
0000e0 ef be 4c be 8c 77 3e 40 15 3b b5 3f bf 96 29 be
       -0.1999471 2.9760466 1.4158655 -0.16561411
0000f0 a8 38 fc 3b 88 0e 00 be 36 ef af bd ef 04 14 bf
       0.0076971836 -0.12505543 -0.08590548 -0.5782003
000100 0e 9d 26 be 85 6b 01 be 7c af 37 be e1 b2 e1 bd
       -0.16270849 -0.12638672 -0.17938036 -0.110204466
000110 47 b6 22 be ee e8 b0 3e 54 e6 41 be db ce 1e be
       -0.15889846 0.3455271 -0.1893552 -0.15508597
000120 6f b9 c5 bd 9d 3c ca 3e 2a bd 00 be 6b c1 6b bd
       -0.09654509 0.3949937 -0.1257216 -0.057557505
000130 51 75 bb bd 25 73 68 be 17 86 4c bd 79 8d 28 be
       -0.09153236 -0.22700174 -0.049932566 -0.16460218
000140 2a ca 5b be 23 a4 28 be a1 46 41 be cf 66 e2 bd
       -0.21463838 -0.16468863 -0.18874599 -0.110547654
000150 ce e5 3c bd 31 33 7c bd e3 b5 f4 bd 22 b0 10 be
       -0.046117596 -0.061572257 -0.11948755 -0.1412969
000160 6d c2 39 bc aa 86 a5 bd 98 ca 66 be 37 56 05 be
       -0.011337859 -0.08082326 -0.22538221 -0.1302117
000170 14 e1 13 be 82 b8 25 be d2 a4 0c be 17 ca 48 be
       -0.14441329 -0.16183665 -0.13734749 -0.19608341
000180 49 be f1 be 8b 95 02 be 7e 30 07 be 04 ac 25 be
       -0.4721549 -0.12752359 -0.13202092 -0.161789
000190 74 1e 31 be cd da cb 3e d7 a2 f8 bd 1d af 82 be
       -0.17296773 0.3981537 -0.12140434 -0.25524226
0001a0 63 f0 54 be 0a 54 09 be 8d b4 35 be 7c 52 3a be
       -0.20794825 -0.13410965 -0.17744656 -0.18195528
0001b0 4f 0a 58 be bd f8 a2 bd e2 18 22 be 7a 1c 54 be
       -0.21097682 -0.07957599 -0.15829805 -0.20713988
0001c0 ce b7 b8 bd b6 4b e0 bd 23 32 00 be 6d a2 95 bc
       -0.09019433 -0.10951941 -0.12519126 -0.018265927
0001d0 50 cb d2 bd 68 7f 30 be b9 60 00 3e 62 45 fc bd
       -0.10292685 -0.17236102 0.12536897 -0.12317921
0001e0 73 1f 7b bd 58 af 22 be 87 a5 fd bd 80 b4 65 bd
       -0.06130929 -0.15887201 -0.123850875 -0.05608034
0001f0 d4 74 28 be 27 92 5c be 06 45 82 be 44 ba 3f bc
       -0.16450816 -0.21540128 -0.25443286 -0.011702124

fc3.weight f4 [1, 128]
000000 cf 44 96 3c f9 9d 46 3c 6b 8a c4 39 91 81 b7 bc
       0.018343357 0.012122625 0.00037487163 -0.02240065
000010 43 22 c7 3b 2f 33 82 bc 65 bd 94 bc 82 06 97 bc
       0.0060770824 -0.015893547 -0.018156717 -0.01843572
000020 43 4f c7 3c f2 2e e4 3c 32 fe b2 3c 66 60 c3 3b
       0.024329787 0.027854417 0.021849725 0.0059624193
000030 bf ea 9c bc 21 6d 9a bc 95 40 35 bc f6 e6 4c bc
       -0.019154904 -0.018850865 -0.011062761 -0.012506237
000040 b6 fe 5b bc 17 bd 88 bb cf 19 86 bc b8 99 cf ba
       -0.013427427 -0.004172932 -0.016369728 -0.0015838658
000050 fa 9f 2e bc f0 ac cd bc e9 f2 3b bb fe 39 ea bb
       -0.010658259 -0.025106877 -0.0028678721 -0.0071480265
000060 e7 24 c0 3c 8b 4b 7e 3c ec 4a cf bb de d8 de 3b
       0.023455096 0.015520941 -0.00632607 0.006800755
000070 2e 8d bc 3b 95 3b ab 3c 1f 59 9d 3c 68 1e 1e bc
       0.0057541346 0.020902434 0.019207535 -0.009650804
000080 be a3 f4 bc 62 b9 dd bc ba 63 ae 3b 22 2c 62 ba
       -0.029863235 -0.027065936 0.005321947 -0.0008627792
000090 bb 6e 5b bc 4e ad d2 bc b9 b9 3c bc bb 23 ac bb
       -0.013393099 -0.025717404 -0.011518889 -0.005253283
0000a0 c7 b2 b3 3c b2 e0 db 3b 5b 9f 9b 3c 2a 1e f0 3c
       0.021935834 0.0067101354 0.018996885 0.029311258
0000b0 16 b6 42 bc 61 9d 88 3c 8c 6d 0a bc 1f 62 2e bc
       -0.011884233 0.016676607 -0.00844897 -0.010643511
0000c0 d8 79 bb bc 50 de c0 bb 12 2a 7e 3c 00 7f 12 bc
       -0.022885248 -0.0058858767 0.01551296 -0.008941412
0000d0 31 fd 1c bc cb d0 6e bc 8f 55 27 b9 dd 3b 3e ba
       -0.00958185 -0.014576147 -0.00015958234 -0.0007256845
0000e0 04 34 12 bc c5 b4 20 bc 74 d3 b6 bb 7b 9a f1 bc
       -0.008923534 -0.009808724 -0.0055794064 -0.029492607
0000f0 79 04 a6 bb cd 0f 04 3c de f4 d6 3c 4f ca 9d bb
       -0.005066451 0.008060408 0.026239809 -0.004815377
000100 36 dc be bb 9c cc b2 3c 5a 6c 4e 3b 3c 84 df bb
       -0.005824591 0.021826081 0.0031497688 -0.0068211835
000110 e3 91 f5 3c a9 33 05 3c d8 5b 3a 3c 20 a9 04 bc
       0.02997679 0.0081299925 0.011374436 -0.008096963
000120 8f 5d bf 3b 64 59 e2 3c a9 9e 96 3c 05 59 c2 3a
       0.0058400105 0.027630515 0.018386202 0.0014827555
000130 a0 db a8 3b 36 fc 04 bc bb 4d 49 bb 1f 97 85 bb
       0.0051531345 -0.008116772 -0.0030716497 -0.004076853
000140 bd 9a 8f 3c b3 e1 a2 bc f4 4a bd ba 1b 90 c1 3c
       0.01752984 -0.019883012 -0.0014441893 0.023628285
000150 28 d8 d5 3c dc 1f d3 ba 63 e3 a0 bb e0 70 e3 3c
       0.026104048 -0.0016107517 -0.004909919 0.027763784
000160 61 92 a7 3c e4 a7 9d bc 7e 4c b6 3c 46 21 fa bc
       0.020455541 -0.019245096 0.022253271 -0.030533444
000170 9c 3c 2d bc bb ca 62 3c 3d 76 2d 3c 1e f3 4f 3b
       -0.010573532 0.01384228 0.010587272 0.0031730602
000180 94 4e a9 bc c2 7c 97 3c 07 a4 ff 3b 96 fd 3f 3c
       -0.020667352 0.018492106 0.007801536 0.011718174
000190 2a ee a1 bc a9 53 06 3c dd f2 8b 3c 7a 63 1d 3c
       -0.019766886 0.008198657 0.01708358 0.009606237
0001a0 66 3f 1d 3c 95 63 28 3b 43 56 bb bb ec 6f 7d 3a
       0.009597635 0.002569412 -0.0057170703 0.0009667862
0001b0 c7 99 a1 3c 22 bb 3d 3b 7b b0 09 bc 33 01 16 bc
       0.019726647 0.0028950651 -0.008403893 -0.009155559
0001c0 21 72 72 bb 39 fa a6 bb 3a 78 74 bc 81 a3 44 bc
       -0.0036994296 -0.005095747 -0.014921242 -0.012001873
0001d0 79 c0 cb bb b3 34 cc 3c d7 7d 24 bc 68 c1 da bb
       -0.006218013 0.024927473 -0.010039768 -0.006675888
0001e0 ce 30 db 3b 99 5b f2 3b b2 f1 08 bc 87 86 24 bc
       0.0066891676 0.007396173 -0.008358406 -0.010041839
0001f0 0e 08 f4 bc 4f 6b 71 3b a0 37 33 3c dc 07 a4 bb
       -0.029788997 0.0036837643 0.010938555 -0.0050058197
