Collaboration and Competition/checkpoint_actor_1.pth (torch_old, 183852 bytes, 6 tensors)

fc1.weight f4 [256, 48]
0	0x3e8b5d4d	0.2721962
1	0x3f8e3451	1.1109716
2	0xbd73073e	-0.05933308
3	0xbf5d4130	-0.86427593
4	0x3eefe14a	0.4685157
5	0xbfae91af	-1.3638209
6	0xbe0b9fd9	-0.13635196
7	0xbf5bc422	-0.8584615
8	0x3e8395d1	0.25700238
9	0x3f74f091	0.95679575
10	0xbd862fdc	-0.06552097
11	0xbfa6cbef	-1.3030986
12	0x3eaf65b2	0.34257275
13	0xc00f312b	-2.237376
14	0xbdb7a74d	-0.08967457
15	0xbf9f588f	-1.2448901
16	0xbd826567	-0.06366997
17	0x3f47503f	0.7785682
18	0x3d359203	0.0443287
19	0xbf4e855c	-0.8067224
20	0x3ec53234	0.38514864
21	0xc04b4cc9	-3.1765616
22	0x3d7c9bd4	0.061672047
23	0xbf4dfd38	-0.80464506
24	0x3f01c217	0.5068678
25	0xbf01e7f9	-0.5074459
26	0x3e220852	0.15823486
27	0xbd00aacb	-0.03141288
28	0xbecdae02	-0.4017182
29	0xbfa9885c	-1.3244739
30	0x3e8501f9	0.25978068
31	0xbcff4789	-0.03116204
32	0x3f1982d3	0.59965247
33	0xbe2f0fc2	-0.17095855
34	0xbd3444ad	-0.044010807
35	0x3e8a0e81	0.2696419
36	0xbecb35ab	-0.39689383
37	0xc00a1489	-2.1575034
38	0xbd214474	-0.039371923
39	0x3e81e4fc	0.25370014
40	0x3f19f8ce	0.6014527
41	0x3e4126f6	0.18862519
42	0x3ea0d723	0.31414136
43	0x3ed843e4	0.42239296
44	0xbe8e906e	-0.27844566
45	0xc0446a1e	-3.0689769
46	0x3eb10468	0.34573674
47	0x3ed5b9d2	0.41743332
48	0xbf826a70	-1.0188732
49	0xbed94f52	-0.4244333
50	0x3d9f7c27	0.07787352
51	0x3d98018b	0.07422169
52	0x3ee043f5	0.43801847
53	0xbfa4350d	-1.282869
54	0xbc61b525	-0.013776098
55	0x3d169e22	0.0367719
56	0xbf558779	-0.8340984
57	0xbeb8d278	-0.36098075
58	0x3e2bdad1	0.1678269
59	0xbe98c9a8	-0.29841352
60	0xbc2a8cc1	-0.010409535
61	0xc0020d85	-2.0320752
62	0x3e09e716	0.13467059
63	0xbea85d89	-0.32883862
64	0xbf2f17ef	-0.68395895
65	0xbeb1cbb0	-0.34725714
66	0x3e8aed4b	0.27134165
67	0xbe71943f	-0.23591708
68	0xbe9ba8c0	-0.30402184
69	0xc0624799	-3.53562
70	0x3e490183	0.19629483
71	0xbe80b56c	-0.25138414
72	0xbf39adaf	-0.72530645
73	0x3f1911a6	0.59792554
74	0xbde6bb42	-0.11266185
75	0x3edfa181	0.43677905
76	0xbf03ce87	-0.5148701
77	0xbfac1d6d	-1.344648
78	0xbc50bba6	-0.012740051
79	0x3ef99d9d	0.48753062
80	0xbf381788	-0.71910906
81	0x3f76ed88	0.96456194
82	0xbe9f3e0c	-0.31102026
83	0x3f347f70	0.70506954
84	0xbd4a9350	-0.049456894
85	0xc0014919	-2.0200865
86	0xbeac4bca	-0.33651572
87	0x3f218326	0.6309074
88	0xbf3a6969	-0.72817093
89	0x3f97ec6f	1.1869029
90	0x3e36bdd8	0.17845857
91	0x3ef29ab9	0.4738367
92	0x3eb05151	0.3443704
93	0xc0600175	-3.500089
94	0x3e96c01f	0.29443452
95	0x3ed19b26	0.4093868
96	0x3ed4cf71	0.41564515
97	0x3dca0f4f	0.09866201
98	0xbdfb50d4	-0.12271276
99	0xc0011cbe	-2.0173793
100	0x3efa8932	0.48932797
101	0xbeeb1d7b	-0.4592093
102	0xbe3abe04	-0.18236548
103	0xbff8ed9c	-1.9447513
104	0x3ee0775c	0.43841064
105	0xbe5cfd35	-0.21580966
106	0x3cf163d9	0.029466556
107	0xbfc49cde	-1.5360372
108	0x3f41f39c	0.75762343
109	0xbd9b99d6	-0.07597701
110	0xbc4fa652	-0.012673931
111	0xbfc8dc8a	-1.5692303
112	0x3f57ca17	0.8429274
113	0xbdab812c	-0.08374247
114	0xbd01f95a	-0.03173194
115	0xbfaa9b9f	-1.3328742
116	0x3f0691bc	0.52566123
117	0x3da47b83	0.080313705
118	0xbda9a795	-0.08283917
119	0xbfa85b43	-1.3152851
120	0x3f6f84df	0.9356212
121	0xc0419cbc	-3.0251913
122	0xbe2d39b5	-0.16916545
123	0xbea86bb6	-0.32894677
124	0xbf0907b6	-0.5352739
125	0xbedd2205	-0.43190017
126	0xbe161b23	-0.1465879
127	0xbecbd3d5	-0.39810053
128	0x3f5deeb3	0.8669235
129	0xc03729a8	-2.8619175
130	0xbee748e4	-0.451728
131	0x3f871de7	1.0556
132	0xbf4e1cbd	-0.805126
133	0xbcdd98e4	-0.027050443
134	0xbee6c6f8	-0.45073676
135	0x3f8929a3	1.0715832
136	0x3f8a59af	1.0808619
137	0xc003941d	-2.055915
138	0x3dc78d1d	0.09743712
139	0x3fb1fc6e	1.390516
140	0xbf1a2d91	-0.6022578
141	0x3cb6581a	0.022258807
142	0x3d58b933	0.052910995
143	0x3fbc11d9	1.4692947
144	0x3e69ddad	0.22838469
145	0x3fc4374d	1.5329376
146	0xbf1209ea	-0.5704638
147	0x3f97625e	1.1826894
148	0xbf071e14	-0.5278027
149	0x3e5a6fde	0.21331736
150	0xbeff8e20	-0.4991312
151	0x3f944751	1.1584264
152	0x3e9f11b6	0.310682
153	0x3fd7d771	1.6862622
154	0xbe13e839	-0.14444055
155	0x3e04388a	0.12912193
156	0xbd9c0f27	-0.076200776
157	0x3e5a28a5	0.21304567
158	0xbe5ed678	-0.21761501
159	0x3e088b81	0.13334467
160	0x3d91d772	0.07121171
161	0x3f45b4c4	0.7722895
162	0xbd3b1677	-0.04567572
163	0xbed7a652	-0.4211908
164	0x3f8576a0	1.0426826
165	0x3f86a59f	1.0519294
166	0xbdf9cffc	-0.12197873
167	0xbf01062a	-0.5040003
168	0x3f0474d2	0.51740754
169	0x3e4f8b3b	0.20267956
170	0x3eb6b505	0.35684982
171	0xbf525670	-0.82163143
172	0x3eef780a	0.4677127
173	0x3e764e2c	0.24053258
174	0x3eb20d6b	0.34775862
175	0xbf477c52	-0.7792407
176	0x3f0f6e08	0.5602727
177	0xbd191fcd	-0.037383843
178	0xbe4f4a67	-0.20243226
179	0xbeeb743d	-0.4598712
180	0x3df17f02	0.11791803
181	0x3e22e9ef	0.15909551
182	0xbe57ab50	-0.21061444
183	0xbedc363d	-0.4301013
184	0x3e7d3eaf	0.24730943
185	0xbf8eba2e	-1.1150568
186	0xbd110598	-0.035405725
187	0xbf95419d	-1.1660649
188	0xbf87be1c	-1.0604892
189	0x3f8522f2	1.040129
190	0xbd87c812	-0.06629957
191	0xbf9a2a96	-1.2044246
192	0xbe95ef5a	-0.29284173
193	0xbf9fd337	-1.2486333
194	0xbe2141a1	-0.15747692
195	0xbe9d4a67	-0.30720827
196	0xbfb2a808	-1.3957529
197	0xbfaf2f25	-1.3686262
198	0xbdae8c43	-0.085228465
199	0xbe70d9bd	-0.2352056
200	0xbd891687	-0.0669375
201	0xbf8fda48	-1.1238489
202	0xbe4e4074	-0.20141774
203	0x3ed3a79f	0.41338822
204	0xbf4da0a0	-0.8032322
205	0xbfe3cec4	-1.7797475
206	0xbe95bf62	-0.29247576
207	0x3edc7b0e	0.43062633
208	0xbdfb80bb	-0.12280413
209	0xbf734712	-0.9503032
210	0x3e39ba93	0.18137579
211	0x3eebd984	0.4606439
212	0xbe92119f	-0.2852907
213	0xbffb1a49	-1.9617397
214	0x3e3da6e9	0.18520702
215	0x3ed9441b	0.42434773
216	0x3f540c45	0.8283122
217	0xbefa975a	-0.48943597
218	0x3de5320f	0.111911885
219	0x3f432546	0.7622875
220	0x3fb332c1	1.3999864
221	0xbfb18d66	-1.3871276
222	0x3dc4fda6	0.09618692
223	0x3f2c44e2	0.67292607
224	0x3efa19d8	0.48847842
225	0xbeca78ff	-0.39545438
226	0xbeaa0aba	-0.3321131
227	0x3f7573f0	0.9588003
228	0x3f5ae09d	0.8549898
229	0xbfe0f27e	-1.7574003
230	0xbeba0602	-0.3633271
231	0x3f686a0d	0.9078682
232	0x3f05cdc5	0.52267104
233	0xbdb8829a	-0.09009285
234	0x3ebc0798	0.36724544
235	0x3f989753	1.192118
236	0x3eaea2d7	0.34108612
237	0xbffacbaa	-1.9593403
238	0x3ed8da0f	0.42353866
239	0x3f9130ae	1.1342981
240	0xbda45348	-0.08023697
241	0x3f91c0f7	1.1387013
242	0x3c861546	0.016367566
243	0x3fa76163	1.3076595
244	0x3ed59025	0.41711536
245	0xbf122cb3	-0.57099456
246	0x3d8e6160	0.069521666
247	0x3fa1a831	1.2629453
248	0xbd6e278c	-0.058143184
249	0x3fc9c98e	1.5764635
250	0x3cf7f064	0.030265994
251	0x3f98547b	1.1900781
252	0x3f392803	0.7232668
253	0xbf1c67ed	-0.6109608
254	0x3ceecc52	0.029150162
255	0x3f8da44d	1.1065766

fc1.bias f4 [256]
0	0xbebdbd03	-0.37058267
1	0x3f05c261	0.52249724
2	0xbf50c91a	-0.81556857
3	0xbc008f50	-0.007846668
4	0xbe8cf378	-0.27529502
5	0xbf0dc8d5	-0.5538457
6	0xbe31ff67	-0.17382585
7	0xbf6c3c7a	-0.9227978
8	0xbe8def5d	-0.27721682
9	0x3fada043	1.3564533
10	0xbf15d5b1	-0.5852919
11	0xbcc8ff4f	-0.024535803
12	0xbe63b730	-0.22237849
13	0xbf8a78f9	-1.0818168
14	0xbf295fc1	-0.66161734
15	0xbecc227a	-0.39870054
16	0xbf3d2281	-0.73880774
17	0xbf140a60	-0.5782833
18	0xbf333560	-0.7000332
19	0xbf08be1b	-0.5341508
20	0x3f3d48ec	0.73939395
21	0x3ecce812	0.40020806
22	0x3e8a9c44	0.27072346
23	0xbf9ae861	-1.2102166
24	0xbf7033dd	-0.9382914
25	0xbf4735e3	-0.778166
26	0xbf7a1675	-0.97690517
27	0xbf418f35	-0.7560914
28	0xbf33da13	-0.7025463
29	0x3ee2f3cd	0.4432663
30	0xbf0e7421	-0.5564595
31	0xbf450c2c	-0.769717
32	0x3e437a6d	0.1908967
33	0xbf5b59b5	-0.8568376
34	0xbece140f	-0.40249678
35	0xbea781bc	-0.32716167
36	0xbf14e0ef	-0.5815572
37	0x3e26a137	0.16272436
38	0xbf39e21a	-0.7261063
39	0xbf8e8701	-1.113495
40	0xbf1e6201	-0.6186829
41	0x3f1f0e07	0.6213078
42	0xbf0cb2eb	-0.5496051
43	0xbecd0449	-0.40042332
44	0xbefd727c	-0.49501407
45	0xbf35971c	-0.709337
46	0xbf7c0969	-0.9845186
47	0xbf3c9188	-0.73659563
48	0xbf0438ed	-0.5164936
49	0xbdc8a142	-0.097963825
50	0xbe497521	-0.19673587
51	0xbef26ee5	-0.4735023
52	0xbf3dc89d	-0.74134237
53	0xbfaa7464	-1.331677
54	0xbf553fa9	-0.8330026
55	0xbf00ed19	-0.5036178
56	0xbefb0100	-0.490242
57	0xbf0291a7	-0.510035
58	0xbf230243	-0.63675326
59	0xbec0fefa	-0.37694532
60	0xbebcb4d9	-0.36856726
61	0xbf8e28c2	-1.1106188
62	0xbef50c1c	-0.478608
63	0xbd167ff4	-0.03674312
64	0xbe87db66	-0.26534575
65	0xbf081470	-0.53156185
66	0xbf3462fe	-0.7046355
67	0xbf2d2a7f	-0.6764297
68	0xbf580708	-0.8438573
69	0xbf7e6932	-0.99379265
70	0xbf2feb6b	-0.68718594
71	0xbf212f3c	-0.629627
72	0xbf43222d	-0.76224023
73	0x3bdf9c72	0.0068240697
74	0xbe909b4b	-0.2824348
75	0xbebffb57	-0.37496445
76	0x3eb5d703	0.35515603
77	0xbf161881	-0.5863114
78	0xbf080cb0	-0.5314436
79	0xbf2e9bc3	-0.68206424
80	0xbf4138a9	-0.7547708
81	0x3ebb0f50	0.3653512
82	0xbf8a7702	-1.0817568
83	0xbef98080	-0.4873085
84	0x3e344ad6	0.17606673
85	0x4005b0c4	2.088914
86	0x3e47cbc5	0.19511326
87	0xbf0d1a7b	-0.5511853
88	0xbf5653ad	-0.8372143
89	0xbf69a74f	-0.9127092
90	0xbf66d76f	-0.90172476
91	0xbf06eef0	-0.5270834
92	0xbf3f16f8	-0.7464442
93	0xbf1268de	-0.57191265
94	0xbf56fade	-0.8397654
95	0xbeeeadd0	-0.46616983
96	0xbed145d5	-0.4087359
97	0xbf02ff05	-0.5117038
98	0xbf449a25	-0.76797706
99	0xbf1c19d6	-0.6097692
100	0xbf67027b	-0.9023816
101	0xbf31b4bf	-0.6941642
102	0xbde27b64	-0.11058691
103	0xbf115499	-0.5676971
104	0xbf45637a	-0.77104914
105	0x40214b81	2.5202334
106	0xbf4595a9	-0.7718149
107	0xbe9edf37	-0.31029674
108	0xbf11305d	-0.5671442
109	0xbf257281	-0.64627844
110	0xbeb99463	-0.36246023
111	0xbe5d417e	-0.21607015
112	0xbeb14e30	-0.34629965
113	0xbf8b3e23	-1.0878338
114	0xbe911e74	-0.28343546
115	0xbf82341c	-1.0172153
116	0xbec6206f	-0.3869662
117	0xbf15ba92	-0.5848781
118	0xbee36610	-0.44413805
119	0xbee70464	-0.45120537
120	0xbf7002ad	-0.9375408
121	0xbf32a6ae	-0.69785583
122	0xbeb3daa7	-0.35127756
123	0x3d3222eb	0.04349033
124	0xbf438ed6	-0.76389825
125	0xbf749a65	-0.9554809
126	0x3de61e71	0.11236275
127	0xbf21eb22	-0.6324941
128	0xbed47d8d	-0.41502038
129	0xbf7322f5	-0.94975215
130	0xbf4af0ea	-0.79273856
131	0xbf2336bc	-0.63755393
132	0xbf885ff2	-1.065428
133	0x3dc294f8	0.0950107
134	0xbf41e0f4	-0.75733876
135	0xbf1a33cd	-0.6023529
136	0x3ec89f8b	0.39184222
137	0xbf27adaf	-0.65499395
138	0xbea1827f	-0.31544873
139	0xbf239db7	-0.6391253
140	0xbebcc830	-0.3687148
141	0xbf315af4	-0.6927941
142	0xbf2b5654	-0.669286
143	0x3f15490e	0.583146
144	0xbf3f3cd1	-0.74702173
145	0xbf234aa7	-0.63785785
146	0xbf68eb4a	-0.9098402
147	0xbecb9c8b	-0.3976787
148	0xbf017748	-0.50572634
149	0xbf2dc154	-0.6787312
150	0xbf3e3ca2	-0.7431127
151	0x3ddbc90b	0.10731705
152	0xbef09a8e	-0.46992916
153	0xbe58cb04	-0.21171194
154	0x3db12510	0.08649647
155	0xbf914aac	-1.1350913
156	0xbd8b56ff	-0.068037026
157	0xbeef212c	-0.46704996
158	0xbee7173b	-0.4513491
159	0xbee2ebed	-0.44320622
160	0xbf2117d8	-0.6292701
161	0xbee19de3	-0.4406577
162	0xbd73d1be	-0.059526198
163	0xbf526424	-0.8218405
164	0xbf98ba0c	-1.1931777
165	0xbf67a30a	-0.9048315
166	0xbf1c61dc	-0.6108682
167	0xbf61dbf0	-0.88226223
168	0xbf0f03e4	-0.5586531
169	0xbf053eee	-0.5204915
170	0xbf660e41	-0.898655
171	0xbef7b376	-0.48379105
172	0xbe755f93	-0.2396224
173	0xbf7d8524	-0.9903128
174	0xbf41f701	-0.75767523
175	0xbed0313d	-0.40662566
176	0x3dc6ec06	0.09712987
177	0xbed628da	-0.41828042
178	0x3e679907	0.22616969
179	0xbf8d3cff	-1.103424
180	0x3e5d400b	0.21606462
181	0xbf20248c	-0.62555766
182	0xbeecfc99	-0.46286467
183	0xbeaf4bfa	-0.34237653
184	0xbee71451	-0.45132688
185	0xbf48d7f3	-0.7845451
186	0xbe09a975	-0.13443549
187	0xbf25b345	-0.6472667
188	0x3e1d0740	0.15334797
189	0xbf374300	-0.7158661
190	0xbf408954	-0.75209546
191	0xbdf79fc6	-0.12091021
192	0xbf4e28bf	-0.80530924
193	0xbea5df81	-0.32397082
194	0xbf14a117	-0.58058304
195	0xbf6c63b1	-0.92339617
196	0xbf2bab94	-0.6705868
197	0xbf264e35	-0.64963084
198	0xbf4d2ac9	-0.8014341
199	0xbf4d8b22	-0.80290425
200	0xbf6d49b2	-0.92690575
201	0xbea48cb4	-0.32138598
202	0xbefcd887	-0.49383947
203	0xbf256518	-0.6460738
204	0xbf1eb013	-0.6198742
205	0xbed397f2	-0.41326863
206	0xbe08adbe	-0.13347527
207	0xbf18daa1	-0.597086
208	0xbf3ac039	-0.7294956
209	0xbf4459ba	-0.7669941
210	0xbf6c8abb	-0.92399186
211	0xbe4ffa63	-0.20310359
212	0xbf1d8a46	-0.61539114
213	0xbe8997e2	-0.2687369
214	0xbf06f27a	-0.5271374
215	0xbdf1d06a	-0.1180733
216	0xbf199947	-0.5999951
217	0xbe17de8b	-0.14830987
218	0xbf67abb6	-0.90496385
219	0xbe989ef0	-0.2980876
220	0xbf03d791	-0.51500803
221	0xbf57d330	-0.8430662
222	0xbea51cc7	-0.32248518
223	0xbf4db14e	-0.8034867
224	0xbf249d0a	-0.6430212
225	0x3e52b8f1	0.20578362
226	0xbf507c41	-0.81439596
227	0xbeb38e94	-0.35069716
228	0xbf3df519	-0.74202114
229	0x3faf9984	1.3718724
230	0xbf87dda9	-1.061452
231	0xbcf3135a	-0.029672313
232	0xbf45a4f5	-0.7720483
233	0xbf435e70	-0.76315975
234	0xbf39944f	-0.72491926
235	0xbf0b08e5	-0.54310447
236	0xbf1f4a39	-0.6222263
237	0xbdface39	-0.12246365
238	0xbee0455c	-0.43802917
239	0xbf7215c2	-0.9456445
240	0xbf85c5a1	-1.0450937
241	0xbf279a85	-0.65470153
242	0xbeeb5d94	-0.45969832
243	0xbf4b1a57	-0.79337066
244	0xbc0dd2af	-0.008656188
245	0x3d88de52	0.06683029
246	0xbe8768ad	-0.2644705
247	0xbeae3175	-0.34022108
248	0xbf51fbeb	-0.8202502
249	0xbe8f2621	-0.27958778
250	0xbf30c798	-0.69054556
251	0xbf50cbd7	-0.81561035
252	0xbf4d2190	-0.8012934
253	0xbf891d4c	-1.0712066
254	0x3e814494	0.25247633
255	0xbf496720	-0.7867298

fc2.weight f4 [128, 256]
0	0x3e2895de	0.1646342
1	0xbb9ad870	-0.0047255084
2	0x3ed5c7c0	0.4175396
3	0x3dbcc313	0.09216895
4	0xbb908604	-0.004410507
5	0x3eec28be	0.46124834
6	0x3e24cc3f	0.16093539
7	0xbf0e5b4f	-0.55608076
8	0xbe0c9e16	-0.1373218
9	0x3e733f1f	0.23754548
10	0xbede686a	-0.43439037
11	0x3d6b7591	0.057485167
12	0xbe3aa9b2	-0.18228796
13	0x3e2d9ae8	0.16953623
14	0xbf560d9e	-0.8361453
15	0xbdb2c9fa	-0.0872993
16	0x3e2c8957	0.16849266
17	0xbf2a6d45	-0.6657298
18	0x3f201741	0.6253548
19	0x3f3c012e	0.734393
20	0xbe6d90e1	-0.23199798
21	0x3f072ad0	0.527997
22	0xbeccebfa	-0.40023786
23	0xbe423325	-0.18964823
24	0x3f245a38	0.6420016
25	0x3ecce663	0.4001952
26	0xbe88e22b	-0.26735052
27	0xbf2ae302	-0.66752636
28	0xbf387844	-0.7205851
29	0x3ea2c7ab	0.3179296
30	0x3eeb79de	0.45991415
31	0x3ee0932c	0.43862283
32	0xbeea74de	-0.45792288
33	0xbe294638	-0.16530693
34	0x3ce0137f	0.027353046
35	0xbe941ad0	-0.28926706
36	0x3d4ec3ec	0.050479814
37	0xbe370479	-0.178728
38	0xbf88e294	-1.0694146
39	0x3e406882	0.18789867
40	0xbcb9e1ad	-0.022690618
41	0x3ef14131	0.4712005
42	0xbe953ea7	-0.29149362
43	0xbf49671b	-0.7867295
44	0xbea33a80	-0.3188057
45	0x3f405e91	0.75144297
46	0xbcf4f0c3	-0.02989996
47	0x3e2d69b8	0.1693486
48	0xbe82afce	-0.25524753
49	0xbeba0d8c	-0.3633846
50	0xbdee1006	-0.1162415
51	0x3f8db0c3	1.1069568
52	0xbda75faa	-0.08172543
53	0xbf056344	-0.5210459
54	0x3e466fe9	0.19378628
55	0xbec448f0	-0.38336897
56	0xbed8c775	-0.42339674
57	0xbe3ef265	-0.18647154
58	0xbf4695a1	-0.77572066
59	0xbef5c3db	-0.48000988
60	0x3f20f8ff	0.6287994
61	0x3e92bb59	0.2865856
62	0xbf957671	-1.167677
63	0x3e85a40c	0.2610172
64	0xbdf1cbb0	-0.118064284
65	0xbf79fda2	-0.9765264
66	0xbdc7e535	-0.09760515
67	0x3e574bff	0.21025084
68	0x3e8e7474	0.27823222
69	0xbefbafcd	-0.49157563
70	0xbed93756	-0.4242503
71	0xbed1380f	-0.40863082
72	0xbe15ca7e	-0.14628026
73	0xbee0e2e8	-0.43923116
74	0xbe611f6d	-0.21984644
75	0x3f8102f1	1.0079023
76	0xbdedfcd6	-0.1162049
77	0x3f3a7c83	0.7284624
78	0xbe16b08a	-0.14715782
79	0x3ebd887a	0.37018186
80	0x3ee080e4	0.43848336
81	0xbe6888e3	-0.22708468
82	0xbeb9847f	-0.362339
83	0xbe61279e	-0.21987769
84	0x3e818e47	0.25303861
85	0xbe72709b	-0.23675768
86	0x3f1c705d	0.6110895
87	0xbf823eaa	-1.0175374
88	0x3caf1c11	0.021375688
89	0x3e36e4cd	0.17860718
90	0x3d694273	0.056948137
91	0xbe260ac3	-0.16215043
92	0x3e48d70c	0.19613284
93	0xbef0f2fa	-0.47060376
94	0x3d87b9f1	0.066272624
95	0x3ea4c228	0.3217938
96	0x3e870409	0.26370266
97	0xbe8c373f	-0.273859
98	0xbecd70fe	-0.4012527
99	0xbd55fe8c	-0.052244708
100	0xbe42e659	-0.19033183
101	0x3dd4909c	0.103791445
102	0xbe825369	-0.25454262
103	0xbeb147e0	-0.3462515
104	0xbeaf02e7	-0.34181902
105	0xbe8178b8	-0.25287414
106	0x3de626e8	0.112378895
107	0xbf1c5fb5	-0.6108354
108	0x3de85837	0.11344951
109	0x3f316606	0.692963
110	0xbf1b2218	-0.605989
111	0xbdf06212	-0.117374554
112	0x3e4d92c1	0.20075513
113	0x3e201431	0.15632702
114	0xbe23e45a	-0.16005078
115	0xbe7704ae	-0.24122879
116	0xbe21c8ee	-0.15799305
117	0xbea1b11c	-0.31580436
118	0xbebe450c	-0.37162054
119	0x3f3295e9	0.69759995
120	0x3e754e4f	0.23955654
121	0x3f01f084	0.5075762
122	0xbdde7a6a	-0.108631924
123	0x3f16ad66	0.58858335
124	0x3da7e114	0.08197227
125	0x3b6f816d	0.003654565
126	0xbf18d3d6	-0.59698236
127	0xbe3bbacc	-0.18332976
128	0xbead2131	-0.33814386
129	0xbe80beac	-0.2514547
130	0xbedb506f	-0.42834803
131	0x3e6e1b13	0.23252515
132	0x3e3e7176	0.1859797
133	0xbf0ae3af	-0.5425367
134	0x3ebae7f6	0.36505097
135	0x3e508198	0.20361936
136	0x3eabcd42	0.33555037
137	0x3e7bb9bb	0.2458257
138	0xbf14ad16	-0.5807661
139	0x3e0cf057	0.13763557
140	0x3dc8d200	0.09805679
141	0x3e3b91b0	0.18317294
142	0xbf2bed06	-0.67158544
143	0xbf16faf0	-0.5897665
144	0xbe1abf15	-0.15111955
145	0x3ec141ca	0.37745506
146	0xbd2a3393	-0.04155309
147	0x3d34a778	0.044105023
148	0xbef178a3	-0.4716235
149	0xbec89dd7	-0.39182922
150	0x3ef6d40c	0.48208654
151	0x3e1c290f	0.15250038
152	0xbe74c427	-0.23902951
153	0xbf1c77ff	-0.611206
154	0xbe85c848	-0.26129365
155	0xbebb373c	-0.36565578
156	0xbe67435b	-0.22584288
157	0x3df22f95	0.11825482
158	0x3f8041bd	1.0020062
159	0x3ddabb87	0.10680299
160	0xbda52c48	-0.080650866
161	0x3cc926af	0.024554579
162	0x3d17d323	0.03706659
163	0xbeef8df3	-0.46787986
164	0xbe7dd347	-0.24787627
165	0xbe9933d3	-0.2992235
166	0x3e4f1f64	0.20226818
167	0xbea06624	-0.31327927
168	0x3e7a5d31	0.24449612
169	0xbc95e3b5	-0.018297056
170	0x3d252edd	0.040327895
171	0xbc9bf515	-0.019037763
172	0x3d5cdd9f	0.05392229
173	0x3f05c13f	0.52247995
174	0x3d4d9551	0.050191227
175	0x3d944d57	0.07241314
176	0x3f302909	0.68812615
177	0x3da49665	0.08036498
178	0x3e85bdcf	0.26121375
179	0xbea897f7	-0.3292844
180	0xbe8e291f	-0.27765748
181	0x3f0f91a3	0.560816
182	0xbee440d6	-0.44580716
183	0x3f2cbfd4	0.67480206
184	0xbe9b889c	-0.30377662
185	0x3df45c4b	0.11931666
186	0xbce645dc	-0.028109483
187	0x3e5cf8a3	0.21579222
188	0x3e23a94a	0.15982547
189	0xbd39eb70	-0.045390546
190	0xbdfd9c3c	-0.12383315
191	0xbf8b011b	-1.0859712
192	0xbee9be45	-0.45652977
193	0x3e8baf3c	0.2728213
194	0xbdafd302	-0.085851684
195	0x3f86b032	1.052252
196	0x3ecd5439	0.4010332
197	0xbd385178	-0.04499957
198	0xbed8eb47	-0.42367002
199	0x3d90e63f	0.07075166
200	0xbe7fedec	-0.24993104
201	0x3eed02f6	0.46291322
202	0xbebe30c0	-0.37146568
203	0xbe47df9f	-0.19518898
204	0xbe866c6e	-0.262546
205	0x3ee08677	0.4385259
206	0xbf613cf1	-0.87983614
207	0xbf166b55	-0.58757526
208	0x3dc9e73e	0.09858559
209	0x3f3a85d6	0.7286047
210	0x3eb0ab1e	0.34505552
211	0xbf567c4c	-0.8378341
212	0x3ea5c9b9	0.32380465
213	0x3e057e98	0.13036573
214	0xbeb37612	-0.35051018
215	0x3f414974	0.75502706
216	0x3ed4f987	0.41596624
217	0x3ec76936	0.38947457
218	0xbd4d8150	-0.05017215
219	0xbd7b7cba	-0.061398245
220	0x3e234124	0.15942818
221	0x3e98ff3d	0.2988223
222	0xbeb95d76	-0.36204118
223	0x3ea0fde1	0.31443694
224	0x3f26f92d	0.6522396
225	0xbec2492c	-0.3794645
226	0xbf130354	-0.57426953
227	0x3eb6ca32	0.35701138
228	0xbe89ddc8	-0.26927018
229	0xbed3599c	-0.41279304
230	0xbeaaf794	-0.33392012
231	0xbddc71f6	-0.10763924
232	0x3dc845a9	0.097789116
233	0xbeb2a1b4	-0.34888995
234	0x3eea88fd	0.4580764
235	0xbe48c009	-0.19604506
236	0xbe869ed6	-0.26293057
237	0x3e35b014	0.1774295
238	0xbe80bc67	-0.2514374
239	0x3ea0e05e	0.3142118
240	0xbcc1f1bb	-0.023674836
241	0x3e0a4ca2	0.13505796
242	0xbf4bc8aa	-0.79603064
243	0x3efc31c4	0.49256718
244	0xbe16489b	-0.14676134
245	0x3d7a8bda	0.06116853
246	0x3ec3641c	0.38162315
247	0xbe865d88	-0.26243234
248	0xbe97c853	-0.29645023
249	0x3ea46300	0.3210678
250	0x3f01ad08	0.5065465
251	0xbeadf517	-0.3397605
252	0xbf027dfd	-0.5097349
253	0x3e69e76f	0.22842191
254	0xbf04310a	-0.5163733
255	0x3de0f083	0.10983374

fc2.bias f4 [128]
0	0xbe31d177	-0.17365061
1	0xbd5d0340	-0.053958178
2	0xbe323df1	-0.17406441
3	0xbf2f0f99	-0.68383175
4	0xbc48eb47	-0.012263126
5	0xbcd48f71	-0.025947304
6	0xbe473223	-0.1945272
7	0xbeb45db4	-0.3522774
8	0xbd9408f5	-0.07228271
9	0xbeb474b4	-0.35245287
10	0xbe83d5bf	-0.25749013
11	0xbf287076	-0.657966
12	0xbf6823ba	-0.90679514
13	0x3b786660	0.0037902817
14	0xbeb8c3de	-0.36086935
15	0xbe5957fd	-0.21224971
16	0xbc2b0909	-0.010439166
17	0xbf65eb80	-0.8981247
18	0xbf32f073	-0.69898146
19	0xbde65df7	-0.11248391
20	0xbe36a3e8	-0.17835963
21	0xbf29f4c4	-0.6638911
22	0xbe7ba193	-0.24573354
23	0xbed24f76	-0.4107625
24	0xbf0f74bb	-0.5603749
25	0xbf089e59	-0.5336662
26	0xbeb0f02b	-0.34558234
27	0xbe4a9c3b	-0.1978616
28	0xbf519fa1	-0.818842
29	0xbf1764e0	-0.591383
30	0xbec30abf	-0.38094136
31	0xbea2ff5b	-0.31835446
32	0xbf0a3bff	-0.53997797
33	0xbdb579a8	-0.08861095
34	0xbf128c37	-0.572452
35	0xbe6ffde4	-0.23436695
36	0xbba2ae4e	-0.0049646264
37	0xbe804276	-0.25050706
38	0xbdfc1908	-0.12309462
39	0xbebf0759	-0.37310293
40	0x3d2aae7f	0.04167032
41	0xbd17e124	-0.037079945
42	0xbf8fd8b1	-1.1238004
43	0xbd791952	-0.060815163
44	0xbed5ab30	-0.41732168
45	0xbd1b3de9	-0.03790084
46	0xbe571fae	-0.21008179
47	0xbf40cd29	-0.7531305
48	0xbf29f722	-0.6639272
49	0xbe98b4b8	-0.29825377
50	0xbe7b7850	-0.24557614
51	0xbda0e66b	-0.07856449
52	0x3ece0337	0.40236828
53	0xbe8d0837	-0.2754533
54	0xbd2a2ece	-0.041548543
55	0xbdace9bc	-0.08443019
56	0xbf54d4aa	-0.83137
57	0xbe051b3d	-0.12998672
58	0xbd9e7b4e	-0.07738362
59	0xbeceed0c	-0.40415227
60	0xbe8571c2	-0.26063353
61	0xbe2e10fd	-0.16998668
62	0xbf697a5c	-0.9120233
63	0xbee65244	-0.4498464
64	0x3db9dc91	0.09075273
65	0xbf572914	-0.84047055
66	0xbe938885	-0.28815094
67	0xb94ec502	-0.00019719082
68	0xbcb5f6f0	-0.022212476
69	0xbd16e601	-0.036840443
70	0xbec8adf3	-0.39195213
71	0xbf0b6eed	-0.54466134
72	0xbd9d5679	-0.07682509
73	0xbeb5e644	-0.3552724
74	0xbdb70030	-0.08935583
75	0xbd8b80c7	-0.06811672
76	0xbdcc46ed	-0.099744655
77	0x3d2eded1	0.042692963
78	0x3d154362	0.036441214
79	0x3f2de368	0.6792512
80	0xbe93f924	-0.28901017
81	0xbf04e2dd	-0.51908666
82	0xbeb01858	-0.34393573
83	0xbf963ee1	-1.1737939
84	0xbe0e8e45	-0.13921459
85	0xbee31a31	-0.4435592
86	0xbf8bb8b0	-1.0915737
87	0xbe0817da	-0.13290349
88	0xbcb9a6f4	-0.022662617
89	0xbf185784	-0.5950854
90	0x3ebd4d2b	0.36972937
91	0xbeca1a1f	-0.39473054
92	0xbd802c58	-0.06258458
93	0xbe917d92	-0.28416115
94	0xbea98509	-0.3310931
95	0xbd0a5952	-0.03377659
96	0xbf481332	-0.7815429
97	0xbdcc1785	-0.099654235
98	0xbf021ff3	-0.5083
99	0xbf2ced16	-0.67549264
100	0xbf0f24ff	-0.55915827
101	0xbc1d7e79	-0.009612673
102	0xbdb4cd64	-0.08828238
103	0xbda83088	-0.082123816
104	0xbf70ab2d	-0.94011194
105	0xbe839925	-0.25702778
106	0xbefcb87c	-0.493595
107	0xbf52eed4	-0.8239567
108	0xbedc0846	-0.42975062
109	0xbe30f9b6	-0.17282757
110	0x3f3a5c78	0.72797346
111	0xbeba0611	-0.36332753
112	0xbdfbb949	-0.122912
113	0xbeec28b3	-0.461248
114	0xbf2d05d0	-0.67586994
115	0xbe8b1097	-0.27161095
116	0xbe8268fc	-0.25470722
117	0xbdeef36d	-0.116675235
118	0xbe916860	-0.28399944
119	0xbf72ca41	-0.94839865
120	0xbf16b5f0	-0.58871365
121	0xbf13d91c	-0.5775316
122	0xbe0fe934	-0.14053804
123	0xbe7e2bcf	-0.24821399
124	0xbd36d495	-0.044636328
125	0x3c449824	0.011999164
126	0xbfce1011	-1.6098653
127	0xbc4f6c92	-0.0126601625

fc3.weight f4 [2, 128]
0	0x3ef91a52	0.48652893
1	0xbcf66a17	-0.030079884
2	0x3daf5de8	0.08562833
3	0xbf51c50b	-0.8194129
4	0x3b133f0a	0.0022467994
5	0x3b2eee30	0.0026692264
6	0x3d7bd454	0.06148179
7	0xbdcb1dcf	-0.09917795
8	0x3c801726	0.015636038
9	0xbe2f23e8	-0.17103541
10	0x3e2b1452	0.1670697
11	0xbebfec13	-0.37484798
12	0xbf03c02e	-0.5146512
13	0xbadf297d	-0.0017025914
14	0xbeeddf0e	-0.4645924
15	0xbedd1450	-0.4317956
16	0xbee3bcb9	-0.4447992
17	0xbe1b5666	-0.15169677
18	0x3e885b07	0.26631948
19	0xbaf032be	-0.0018325669
20	0xbea91228	-0.33021665
21	0x3ec885a1	0.3916445
22	0x3eaaf3d4	0.3338915
23	0xbe824327	-0.25441858
24	0x3eb315ce	0.34977573
25	0xbe3e1b66	-0.18565139
26	0x3f090edd	0.53538305
27	0x3df885ae	0.121348724
28	0xbf8d77aa	-1.1052144
29	0xbf4c506c	-0.79810214
30	0xbf5bfc3c	-0.85931754
31	0xbf2ead47	-0.6823315
32	0xbeb6cac3	-0.3570157
33	0xba503283	-0.0007942097
34	0xbf1b29e6	-0.60610807
35	0xbefb3820	-0.49066257
36	0x3c82781f	0.015926419
37	0xbd332ad8	-0.04374203
38	0x3c621418	0.013798736
39	0xbe91ec39	-0.28500536
40	0x3e1918dd	0.14950891
41	0xbc596d7a	-0.01327073
42	0xbead8b1a	-0.3389519
43	0x3ccb2aab	0.02480062
44	0xbee74197	-0.4516723
45	0xbb8cb450	-0.004293956
46	0xbc1d3dce	-0.009597255
47	0x3e60cae2	0.21952394
48	0xbefe48bd	-0.4966487
49	0x3f53cdb9	0.8273578
50	0x3e100745	0.14065273
51	0xbeb71b4a	-0.35763007
52	0x3eee9714	0.46599638
53	0xbf7fc93e	-0.99916446
54	0x3c29ca03	0.010363105
55	0x3c5866b2	0.013208078
56	0xbee903e0	-0.4551077
57	0x3e00c921	0.12576725
58	0xbb9e6aff	-0.0048345323
59	0xbc6de909	-0.014520892
60	0x3da68250	0.08130324
61	0xbe998bfb	-0.2998961
62	0xbec7351d	-0.3890771
63	0x3d5f0c20	0.054454923
64	0xbcbf07b7	-0.023319108
65	0x3e94856b	0.2900804
66	0x3e8c8b11	0.2744985
67	0x3a3988fa	0.0007077601
68	0xbc8c9623	-0.017161435
69	0x3c71c419	0.014756226
70	0x3ed1c33f	0.40969273
71	0xbf27d45b	-0.65558404
72	0x3c9a306f	0.018821923
73	0xbef72de2	-0.48277193
74	0xbd160a82	-0.036631115
75	0x3bb5a551	0.005543389
76	0x3f17a1bf	0.5923118
77	0xbe815a76	-0.2526433
78	0x3df0a3d1	0.117499955
79	0x3ff02ad5	1.8763071
80	0xbe414587	-0.18874179
81	0xbea36aae	-0.31917328
82	0x3c951b11	0.018201383
83	0xbc85ce96	-0.01633386
84	0xbd0735cc	-0.03301029
85	0x3fac6af5	1.3470141
86	0xbf64a7f0	-0.8931875
87	0x3cd61908	0.026134983
88	0xbcc581e7	-0.024109794
89	0xbf877a71	-1.0584241
90	0xbe455caa	-0.1927363
91	0xbf839907	-1.0281075
92	0x3a234bb9	0.000622924
93	0xbf064111	-0.52443033
94	0xbda2578e	-0.07926856
95	0x3b00fd8f	0.0019682383
96	0x3e357ad7	0.17722641
97	0xbc8d89a3	-0.017277544
98	0x3f3e9dc1	0.74459463
99	0x3ec50646	0.3848135
100	0xbe92cb35	-0.2867066
101	0x3c200dcf	0.009768917
102	0x3c0747d1	0.008256868
103	0xbca0225e	-0.019547638
104	0x3f0db9bd	0.5536154
105	0x3ddc62a4	0.10761002
106	0x3cc892ac	0.024484001
107	0xbf1775d4	-0.59164166
108	0xbeea495a	-0.45759088
109	0xbe98a596	-0.29813832
110	0xbd79048d	-0.060795356
111	0x3e9089c1	0.28230098
112	0x3ca17c45	0.019712577
113	0xbf00fbbf	-0.50384134
114	0x3f93cb04	1.154633
115	0x3dd054f5	0.10172454
116	0xbe391e30	-0.18077922
117	0x3c40fe31	0.011779354
118	0xbe99d8b1	-0.30048135
119	0xbf7d1273	-0.98856276
120	0xbe64e83c	-0.22354215
121	0xbf1a4e8d	-0.6027611
122	0x3d214093	0.039368223
123	0xbeb22a05	-0.34797683
124	0xbc96191c	-0.01832252
125	0x3ce632b0	0.028100342
126	0x3e0f0666	0.13967285
127	0xb990918c	-0.0002757426
128	0xbece9ad5	-0.40352502
129	0x3d349cd5	0.04409488
130	0xbd1b8a62	-0.03797377
131	0x3ec8ed08	0.3924334
132	0xbca30835	-0.019901374
133	0x3c939b54	0.018018402
134	0xbd6fb25e	-0.058519714
135	0x3f540724	0.82823396
136	0x3e5d8503	0.21632771
137	0x3db0acf2	0.08626737
138	0x3ea5c47f	0.32376477
139	0xbf30c9ef	-0.69058126
140	0x3d00903d	0.031387556
141	0xbadf40b7	-0.0017032836
142	0x3f611cfe	0.87934864
143	0xbdd4560c	-0.10367975
144	0x3d745dae	0.059659652
145	0xbf89fcf2	-1.0780318
146	0x3f5dd7ae	0.86657226
147	0xbc048b3f	-0.0080898395
148	0x3f00947d	0.50226575
149	0x3ec52681	0.3850594
150	0xbddc1f44	-0.10748151
151	0x3f21e9fe	0.6324767
152	0x3f67f87c	0.9061353
153	0x3d7777cb	0.060416978
154	0xbd6cd288	-0.057817966
155	0x3f9320a4	1.1494336
156	0xbdf8f190	-0.121554494
157	0x3f70a0a9	0.9399515
158	0x3f17380d	0.590699
159	0x3de9a5eb	0.114085995
160	0xbd3c1415	-0.04591759
161	0x3d2d31bf	0.04228377
162	0xbe10df81	-0.1414776
163	0x3f4d8dd0	0.80294514
164	0x3d4d7795	0.05016287
165	0x3f59b808	0.85046434
166	0x3cf05454	0.029337086
167	0x3da64092	0.081177846
168	0x3d961cf0	0.07329738
169	0xbb91a3fe	-0.004444598
170	0xbe1c32de	-0.1525378
171	0x3c9e666b	0.019335946
172	0x3f44f492	0.76935685
173	0x3d1c3f5e	0.03814637
174	0xbd38f6eb	-0.045157354
175	0xbf3623e6	-0.71148527
176	0x3fa41bed	1.2821022
177	0xbf81425b	-1.0098375
178	0x3e879914	0.26483977
179	0x3f2e6373	0.681205
180	0x3e86c1df	0.26319787
181	0x3f0cd135	0.55006725
182	0xbc66afa2	-0.01407996
183	0x3c94b347	0.018151892
184	0xbede0d1d	-0.4336938
185	0x3de8eccf	0.11373293
186	0x3cd1a4d8	0.025591299
187	0xbee6df88	-0.45092416
188	0x3f29f6b8	0.6639209
189	0x3f089374	0.53349996
190	0xbdf3dd16	-0.11907403
191	0xbf519c91	-0.81879526
192	0x3f45a93d	0.7721136
193	0xbde88f2e	-0.11355434
194	0x3eab2a42	0.33430678
195	0x3d005d11	0.031338755
196	0xbbe545bb	-0.006996838
197	0xbca3c969	-0.0199935
198	0x3eaf42e6	0.34230727
199	0xbdfe4887	-0.12416177
200	0x3c43ca5c	0.011950102
201	0x3e8de7c0	0.27715874
202	0xbbe38305	-0.006943109
203	0xbb69fed1	-0.003570486
204	0x3f818b20	1.0120583
205	0xbdb2929f	-0.08719372
206	0xbe3dfaf7	-0.18552767
207	0xbf85a6c1	-1.0441514
208	0x3ebdd191	0.3707395
209	0xbe9f9ea4	-0.3117572
210	0x3d284917	0.04108533
211	0x3f8a950a	1.0826733
212	0xbd327b6c	-0.043574736
213	0xbeff0b4d	-0.4981331
214	0xbf4fc04e	-0.8115281
215	0x3c72cf4f	0.014819934
216	0xbc3cc5f1	-0.011521802
217	0xbf1ac31a	-0.6045395
218	0x3f294b5a	0.661306
219	0x3d7c764f	0.061636265
220	0x3a7c4b83	0.0009624289
221	0x3ef04d44	0.4693395
222	0x3f850dc8	1.0394831
223	0x3c8c5595	0.017130652
224	0x3eace2e5	0.33766857
225	0xbcb91d4b	-0.022596976
226	0x3dd4eafd	0.10396383
227	0x3f47e247	0.78079647
228	0xbec25dbb	-0.37962136
229	0xbbd484db	-0.006485564
230	0x3c8e917b	0.017403355
231	0xbc70dbdd	-0.014700857
232	0xbede4665	-0.43413082
233	0x3f4cb0b4	0.7995713
234	0xbf9c3218	-1.2202787
235	0xbed2dd23	-0.4118434
236	0xbe84d973	-0.2594715
237	0x3f724bb1	0.94646746
238	0x3e998146	0.2998144
239	0xbdc36775	-0.09541217
240	0x3ae9b5e6	0.0017830699
241	0x3f561540	0.83626175
242	0x3ef4bf8e	0.47802395
243	0x3e7a239f	0.24427651
244	0xbe6090aa	-0.21930185
245	0x3a29aa7e	0.00064722437
246	0x3f030af4	0.5118859
247	0xbf5fe0ae	-0.8745221
248	0xbf416943	-0.7555124
249	0x3e324a28	0.17411101
250	0xbd4263ee	-0.04745858
251	0x3f3cb402	0.7371217
252	0xbc981a51	-0.018567236
253	0x3c8a7794	0.016902722
254	0x3b9c8f0a	0.004777794
255	0xbcaf9aac	-0.021436058

fc3.bias f4 [2]
0	0xbd8c18fe	-0.068407044
1	0xc0266921	-2.6001666
