Collaboration and Competition/checkpoint_actor_0.pth (torch_old, 183852 bytes, 6 tensors)

fc1.weight f4 [256, 48]
000000 4e e2 99 3f 00 da 58 bf 64 cb 05 be 77 df 7c bf
       1.2022188 -0.8470764 -0.13065869 -0.9877848
000010 ed 34 2d 3f fa a0 34 3d ac a9 54 be 53 62 7b bf
       0.67658883 0.04409883 -0.2076785 -0.98196906
000020 04 4b 9d 3f 0b bf 0b bf 55 f8 72 be fb 65 4b 3f
       1.2288518 -0.54588383 -0.23727544 0.79452485
000030 12 58 8b 3e 57 d3 03 be fe d9 85 be f1 4c 5a 3f
       0.2721563 -0.12873589 -0.26142877 0.85273653
000040 ea ab 9f 3f 6a 84 94 be c0 16 d2 bd 92 c6 4a 3f
       1.2474339 -0.29007274 -0.102582455 0.79209244
000050 ef d4 38 bd 17 8c 16 3e cc 90 ae bd a8 4e 4b 3f
       -0.045124944 0.14701878 -0.085237116 0.79416895
000060 17 2b 04 3e 2b 01 6c bf 9b 97 07 be f6 8c 01 c0
       0.12907062 -0.9218928 -0.13241427 -2.0242286
000070 0d 1b 1c bf 8c e8 aa 3d f0 df fc bc db 88 01 c0
       -0.60978776 0.08345136 -0.0308685 -2.023978
000080 75 68 29 3f 96 00 86 bf a4 9c 52 be ad 4f e2 bf
       0.66175014 -1.0468929 -0.20567566 -1.7680565
000090 af 28 a7 be 7e 23 48 bd e9 dc 4d be 20 5a e4 bf
       -0.32648227 -0.048861973 -0.20103802 -1.7840004
0000a0 57 01 57 3f c2 9a a6 bf 32 28 e8 be 35 51 84 bf
       0.8398642 -1.3015978 -0.45343167 -1.0337282
0000b0 68 78 1b 3e 0e 5d 82 3e a2 fa d7 be c9 f3 84 bf
       0.1518265 0.2546162 -0.42183405 -1.0386897
0000c0 37 42 4e bd 48 f4 7a 3e 95 c8 0f 3e 84 ec a1 3e
       -0.050356116 0.24507248 0.1404136 0.3162576
0000d0 4c e4 2b 40 25 40 a9 be 2e ba 47 3d f6 bf 8e 3e
       2.6858091 -0.3305675 0.04876154 0.2788083
0000e0 c6 c1 6a 3e 4d 86 0e 3f d2 10 03 3d dd 66 87 be
       0.22925481 0.55673677 0.031998463 -0.26445666
0000f0 71 f4 8a 3f a4 c5 df be 84 74 97 ba 6d fb 96 be
       1.0855848 -0.43705475 -0.001155511 -0.29488698
000100 7f 78 b4 3e ba 65 26 3f d6 3e 54 3e 1c c5 15 bf
       0.3524818 0.6499897 0.20727095 -0.5850389
000110 bc 7f e6 be 02 4d 06 bf cf 65 07 3e be ba 19 bf
       -0.4501933 -0.52461255 0.1322243 -0.6005057
000120 2b c8 97 be 2c df 4a bf 53 1c 41 3e 94 f4 96 bb
       -0.29644904 -0.79246783 0.18858461 -0.0046067927
000130 8f cf 30 c0 55 e1 c8 be 5e b7 93 3e e1 02 3d 3d
       -2.7626684 -0.39234415 0.28850836 0.046145324
000140 c6 74 56 3e 24 0c 92 be 94 24 6a bc 0f bf 8f 3f
       0.20942983 -0.28524888 -0.0142909475 1.1230181
000150 99 9d 92 bf 1b a3 d9 be 00 f9 22 bd ec 40 86 3f
       -1.1454345 -0.42507252 -0.039788246 1.0488563
000160 01 cc bf 3e 5a e7 5b bd 1f 24 dc be f3 f0 48 3f
       0.3746033 -0.05368743 -0.42996308 0.7849266
000170 7e 28 fb 3e 04 6b fa be 8c c2 a0 be c6 70 38 3f
       0.4905433 -0.4890977 -0.31398427 0.7204708
000180 da f4 e1 3e 49 b7 24 bf f4 cb 9c be ba 63 c8 be
       0.4413212 -0.6434217 -0.30624354 -0.39138585
000190 78 70 9c 3f 1d 1a 40 bf ee 56 bb be 14 33 a3 be
       1.2221823 -0.75039846 -0.3658976 -0.31874907
0001a0 37 2f 0b 3f 5a 2f 43 bf 49 11 f4 bd 80 7a 0b 3f
       0.5436892 -0.7624413 -0.119173594 0.54483795
0001b0 50 aa 9e 3f d8 da 48 bf a1 2f 25 be 15 fb 02 3f
       1.2395725 -0.7845893 -0.1613145 0.5116437
0001c0 00 55 0f 3f 97 b4 20 bf 28 d1 d5 ba 36 00 76 3f
       0.55989075 -0.6277556 -0.0016312944 0.9609407
0001d0 fa 0b 5d 3f 11 39 54 bf 98 07 58 bd 93 80 7a 3f
       0.863464 -0.82899576 -0.052741617 0.9785244
0001e0 bc f4 40 3f e4 f5 93 3e e8 e5 3e 3d 40 87 09 3f
       0.75373435 0.28898537 0.046605974 0.53722
0001f0 e6 51 a2 bf 67 1c 39 bf 84 ae 8d 3d 04 a7 ef 3e
       -1.2681243 -0.72308964 0.06918052 0.4680711
000200 d6 c4 46 3f 9c e6 9e 3e 70 f1 01 be dd 0d ab 3e
       0.776441 0.31035316 -0.12689757 0.33409014
000210 39 bf a4 bf 53 54 3c bf da ed 00 be 07 3d b3 3e
       -1.2870857 -0.7356617 -0.12590733 0.35007498
000220 63 c7 4f 3f 62 28 a3 3e 12 f3 41 3d c5 5f 38 be
       0.81163615 0.31866747 0.04735095 -0.18005283
000230 cd a7 70 bf 20 16 63 bf 81 1b 39 3b 9f 64 cf bd
       -0.94006044 -0.88705635 0.0028245153 -0.10126614
000240 52 c6 48 3f cf 7e 4d 3f d9 13 1b bf 9e 29 ac 3e
       0.7842761 0.8027162 -0.6057716 0.336255
000250 5e 6b 3d 3f 12 1a 07 be db d1 08 bf 1c be 9f 3e
       0.73991954 -0.13193539 -0.53445214 0.3119973
000260 08 66 a0 3f 52 25 63 3f 47 96 bf 3e 6b 87 7a 3e
       1.2531137 0.8872882 0.3741934 0.2446572
000270 99 1e ca 3e 25 a2 bc be 1c 1e 9a 3e f3 da 7e 3e
       0.3947647 -0.36842456 0.30101097 0.2488821
000280 1a f7 db 3f 3c 02 82 3f 70 16 3d 3e e1 cb ea 3e
       1.7184784 1.0156932 0.1846559 0.45858672
000290 b7 7b 72 3e cb 55 ea be 51 e8 dd 3d d5 64 c0 3e
       0.23680006 -0.4576858 0.108353265 0.3757693
0002a0 30 3b f0 3d c8 c9 4f 3f e7 4f 77 be 1e ae 81 3e
       0.11730039 0.8116727 -0.24151574 0.25328153
0002b0 3c cd 4c bf 8d 73 d6 bd 69 4f 80 be 6c 62 97 3e
       -0.8000066 -0.10471258 -0.25060585 0.29567277
0002c0 92 78 72 3e b9 ab 91 3f d0 e1 80 be 33 a5 fc bd
       0.23678806 1.138053 -0.2517228 -0.12336197
0002d0 94 c2 b4 be 05 42 d8 be ef 11 85 be 6a ae bf bd
       -0.353047 -0.4223787 -0.25990245 -0.09359439
0002e0 b2 92 87 3e 1d 28 85 3f 02 99 27 be 4f 71 23 be
       0.26479107 1.0402867 -0.16366962 -0.15961193
0002f0 8f 5b 82 be 20 60 f0 be 61 3c 47 be 4f b8 4a be
       -0.2546048 -0.46948338 -0.19456626 -0.1979687
000300 81 4a 1d 3f e8 70 b9 3d f1 41 0b bd d5 22 54 3f
       0.6144181 0.09054738 -0.033998434 0.8286565
000310 29 4a 71 3f 2e 46 38 bf 64 a9 1c 3d fe 91 66 3f
       0.94253784 -0.71982086 0.03824748 0.90066516
000320 26 76 10 3f f5 d0 a8 3e fa 92 ad be 03 f8 3c 3f
       0.5643028 0.32971922 -0.33901197 0.73815936
000330 60 1a 84 3f bb 57 80 bf f7 33 dc be be 61 41 3f
       1.0320549 -1.0026773 -0.43008396 0.7553977
000340 0e 25 36 3f 63 6a f6 3e 63 70 08 3d bb 35 f5 3c
       0.7115029 0.48128042 0.033310305 0.029932847
000350 32 70 88 3f bf 25 89 bf a4 20 18 3d 98 83 d0 bb
       1.0659239 -1.0714644 0.037140504 -0.0063633434
000360 7a 37 65 3f a9 fd 09 3f 1f 62 03 3a 22 36 46 3f
       0.89537776 0.5390268 0.00050118746 0.7742635
000370 bb 34 70 bf 80 03 3d bf cc 79 79 bc 37 56 2f 3f
       -0.9383046 -0.73833466 -0.015226793 0.6849093
000380 63 1a 9b 3f 3d 7e 2d 3f 43 a0 a3 3d e0 c7 10 3e
       1.2117428 0.6777075 0.07989552 0.14138746
000390 8d f5 7a bf 3c f7 7a bf 21 68 47 3d 81 41 b9 3d
       -0.9803093 -0.980335 0.04868329 0.09045697
0003a0 8d d2 86 3f a7 2c f7 3e 10 8b 75 3d df cb ca be
       1.0533005 0.48276255 0.059947073 -0.39608666
0003b0 23 4c 81 bf 26 d7 88 bf 50 10 ee 3d 07 67 e8 be
       -1.010136 -1.0690658 0.11624205 -0.45391104
0003c0 d0 9c 50 3f 98 16 cb 3f 7b bc 50 bd 1d 44 50 be
       0.81489277 1.586627 -0.050961 -0.20338483
0003d0 f1 9d db bc a2 be 89 bf 57 8d 0f 3b 63 0c 7e be
       -0.02680871 -1.0761302 0.0021904313 -0.24809413
0003e0 63 17 59 3f d7 46 c3 3f 48 5c af 3e 9f 87 14 bf
       0.8480131 1.5255994 0.34250093 -0.5801944
0003f0 56 44 be be 9f ab 84 bf 09 ca ae 3e b3 e7 29 bf
       -0.3716151 -1.0364875 0.34138516 -0.6636917

fc1.bias f4 [256]
000000 c1 b3 5b bf 8d e5 26 bf 38 d8 42 bf 99 e9 61 bf
       -0.8582116 -0.65194017 -0.76111174 -0.88247067
000010 9c 52 5f bf e5 34 81 bf f2 51 78 3f d4 c8 2a bf
       -0.87235427 -1.0094267 0.9700004 -0.6671269
000020 45 d1 36 bf 52 9f 74 be 0b fb 0f bf 12 78 48 bf
       -0.7141307 -0.23888901 -0.56242436 -0.7830821
000030 43 4d 54 bf f3 fe 20 bf 8e 7c 1e bf c3 22 61 bf
       -0.8293039 -0.6288902 -0.61908805 -0.8794367
000040 05 3d 6f bf 10 9a 0b be 6c b2 bc 3c 2f a8 44 bf
       -0.93452483 -0.13632989 0.023034297 -0.7681913
000050 6d b3 da be 31 86 7f bf 4f f4 96 bf 52 0d 8a bf
       -0.42715016 -0.99814135 -1.1793307 -1.0785315
000060 29 6f ae bf 80 79 b3 bf 56 02 5f be 04 af 26 bf
       -1.3627673 -1.4021454 -0.21778235 -0.651108
000070 c2 39 aa bf 9d c2 95 be 1f ff ab bf 47 a3 0e bf
       -1.3298876 -0.2925004 -1.3437232 -0.5571789
000080 28 0a 60 bf 3a a1 6e bf 12 f9 93 be 7f 87 ab bf
       -0.875155 -0.9321476 -0.28900963 -1.3400725
000090 ee eb 02 be 2d 7e 83 bf 18 bd 52 bf 39 30 45 3f
       -0.12785313 -1.0272881 -0.82319784 0.77026707
0000a0 27 47 8f bf 6f b5 1c 3f 61 73 5c bf 21 ec 7a bf
       -1.1193589 0.61214346 -0.86113554 -0.98016554
0000b0 ca 52 c6 be 4b c4 9f bf f5 12 b4 be 35 b7 ca bd
       -0.38735038 -1.2481779 -0.35170713 -0.09898225
0000c0 db 4b 56 bf 6c 0a b1 bf e0 5f 36 bf f1 63 83 be
       -0.83709496 -1.3831306 -0.71240044 -0.25662187
0000d0 45 5f 8f bf af 0f 05 bf 71 78 08 bf 0c c0 3f bf
       -1.1200949 -0.51977056 -0.5330878 -0.74902415
0000e0 0b 1b f4 be 8a 3f a4 bf 01 51 9d be fd 5a 36 3e
       -0.47676882 -1.283189 -0.30725864 0.17808147
0000f0 5b 50 d6 be 2e 15 4a bf 3a 53 75 be 03 e4 39 bf
       -0.4185818 -0.7893857 -0.2395753 -0.72613543
000100 eb e7 9a bf 2b 69 38 bf 82 e9 27 bf 4e 19 8b bf
       -1.2102026 -0.72035474 -0.6559068 -1.0867097
000110 95 4b ed be 4f 17 18 bf 11 97 63 bf 48 55 a9 bf
       -0.46346727 -0.59410566 -0.88902384 -1.3229151
000120 b3 86 ca bf 35 c7 d2 bd be 48 38 bc 1a f5 88 be
       -1.5822357 -0.10291902 -0.011247812 -0.26749498
000130 be f1 d2 be 55 fd 06 bf 4d 45 ee 3e 1e 5e 0b bf
       -0.4120006 -0.52730304 0.46537247 -0.54440486
000140 45 61 94 bf 70 cf 72 bf 92 1f 23 3f 22 b8 b1 bf
       -1.1592184 -0.94847775 0.6372005 -1.3884318
000150 86 64 43 bf b9 61 46 bf 0c 04 77 bd d6 c0 8b bf
       -0.7632526 -0.7749286 -0.060306594 -1.0918224
000160 2f 31 7e 3e 7f 02 0b bf 3e 0b bb bf 7b ab 82 bf
       0.2482345 -0.54300684 -1.4612806 -1.0208582
000170 4e 0e fc be 50 b6 f9 3d 93 6f 0d bf 38 b0 b2 bf
       -0.49229664 0.121929765 -0.55248374 -1.3960028
000180 58 fb 09 bf 46 91 ac bd 8c 63 5f bf f6 ba 31 bf
       -0.53899145 -0.08426146 -0.8726127 -0.69425905
000190 2d e4 f9 be 15 af 31 bf 10 08 59 3f 06 81 6a bf
       -0.48806897 -0.6940778 0.8477793 -0.91603124
0001a0 ee 28 81 be cf fd 96 bf e4 0c 62 bf 34 53 12 bf
       -0.2522654 -1.1796206 -0.8830092 -0.5715821
0001b0 2a ec d0 bc 5e 4f 4e bf 05 aa 55 be d8 40 83 bf
       -0.025503237 -0.80589855 -0.20865639 -1.0254164
0001c0 4b f8 7d be 68 f3 70 bf 25 a5 17 bf b9 13 28 bf
       -0.24801748 -0.9412141 -0.59236366 -0.65655094
0001d0 25 fe 7b bf 15 23 43 be 7b 47 d8 3e 08 a7 53 bf
       -0.9843467 -0.19056351 0.42242035 -0.82676744
0001e0 82 db 90 bf 1c b1 25 bf 83 bc c9 be aa aa 0d bf
       -1.1316988 -0.6472337 -0.39401636 -0.5533854
0001f0 ce 28 e0 be b0 58 81 bf 8a 85 6c bf 96 bf b5 be
       -0.43781132 -1.010519 -0.92391264 -0.3549773
000200 c1 1b 93 bf 93 66 91 bf b7 5b f9 3f 01 bd d6 bd
       -1.1492845 -1.1359428 1.9481114 -0.104852684
000210 63 30 3d bf 4b 56 a1 bf de b2 a6 bf 8a e6 e0 be
       -0.7390196 -1.260446 -1.3023336 -0.43925887
000220 ed 0f 62 3e bd 36 45 bf 28 86 ea 3e 64 33 71 bf
       0.22076388 -0.7703665 0.45805478 -0.9421904
000230 35 61 91 bf 20 b1 80 bf 5b 19 35 bf 88 f3 e5 be
       -1.135779 -1.0054054 -0.70741814 -0.44912362
000240 1a e1 91 bf 99 5f 64 bf e6 01 5f bf 50 62 7c bf
       -1.139682 -0.8920837 -0.8711227 -0.9858751
000250 46 a4 32 bf f1 61 a5 bf c2 34 8a bf 23 fb 83 bf
       -0.6978191 -1.2920514 -1.079735 -1.0311016
000260 53 50 45 bf 94 d9 f6 be 53 fc 69 bf b7 d0 a4 bf
       -0.7707569 -0.48212874 -0.9140064 -1.2876195
000270 88 c6 9d bf 1d 12 45 bf 37 c7 bd bf 99 1e 72 bf
       -1.2326212 -0.76980764 -1.482642 -0.9457794
000280 f3 a4 5e bf ce 95 84 bf 28 4d 06 3f e1 bd 5c bf
       -0.8697044 -1.0358217 0.5246148 -0.8622723
000290 80 0a 08 3e 8a 12 2c bf bd 04 6d bf a9 f4 2b bf
       0.13285255 -0.6721579 -0.92585355 -0.67170197
0002a0 c5 d5 06 bf 14 85 3b bf 60 a6 a6 bf 22 df 1b bf
       -0.52669936 -0.73249936 -1.3019524 -0.6088735
0002b0 55 0c 3a bf 0f 45 bc be 8e 50 22 bf 41 34 18 3e
       -0.7267507 -0.36771438 -0.63404167 0.14863683
0002c0 9c 0b 68 bf d1 c5 a5 bc 5e 19 0b bf 6c f4 8a bf
       -0.90642715 -0.020235928 -0.5433558 -1.0855842
0002d0 55 95 1e bf 7e 54 59 bf b0 4a 4f bf 38 a5 99 be
       -0.6194661 -0.8489455 -0.8097334 -0.30008864
0002e0 90 27 5b 3a d5 1a 8f bf 3e 26 06 bf 68 7c 3f bf
       0.0008360082 -1.1180063 -0.524021 -0.74799204
0002f0 01 cf 67 bf cb 0a 6d be 09 26 a9 bf 85 42 9f bf
       -0.9055024 -0.23148648 -1.3214732 -1.2442175
000300 16 88 ed be b8 5b 33 bf 83 1b 8d bf 16 67 5d bf
       -0.46392888 -0.70061827 -1.1024021 -0.8648542
000310 18 27 42 be 42 e9 7c bf 74 65 12 bf ee bd 0e 3f
       -0.18960226 -0.98793423 -0.57186055 0.5575856
000320 00 e6 4c bf 09 fd 2c bf be 5f 6c bf 11 ab 39 bf
       -0.8003845 -0.675736 -0.9233359 -0.7252665
000330 6c d9 1c bf 01 25 92 bf 3c 33 7a bd 49 91 ae bf
       -0.6126926 -1.1417543 -0.061084017 -1.3638088
000340 46 59 66 bf 38 33 07 bf 38 8f 70 bf ca c8 c8 be
       -0.8997997 -0.5281253 -0.93968534 -0.3921569
000350 b0 05 74 bd 24 c3 6d bf 70 e5 3f be 15 27 6c 3f
       -0.059575737 -0.92875886 -0.18739867 0.92247134
000360 3e 1d b5 bf 31 21 55 bf 12 f3 81 bf c6 6d 6a bf
       -1.4149549 -0.8325377 -1.0152304 -0.9157375
000370 27 9d 0b bf c1 46 62 bf c5 fe 5b bf 21 2b 17 bf
       -0.5453667 -0.8838921 -0.8593562 -0.59050184
000380 13 75 2f bf ea 4c 30 bf 4e 3d 6c bf cb ef f1 3c
       -0.68538016 -0.6886736 -0.92281044 0.029533288
000390 6d 2d 3c bf 21 c2 7c bf 85 59 57 bf 71 ce 4f bf
       -0.73506814 -0.9873372 -0.8412097 -0.8117438
0003a0 62 4a 34 bf c8 6a 63 bf 56 e5 07 bf a9 84 91 bf
       -0.70426 -0.8883481 -0.53084314 -1.136861
0003b0 fd a9 7c bf 60 7b ff be 7e 64 c3 be 39 65 32 bf
       -0.9869688 -0.49898815 -0.38162607 -0.69685704
0003c0 ef e4 69 bf 9e f5 82 bf 5d 1e 93 bf 17 e1 1b bf
       -0.9136495 -1.0231206 -1.1493641 -0.60890335
0003d0 53 80 08 bf 98 e4 66 bf f6 3b 4f bf 7b 05 74 bf
       -0.5332081 -0.90192556 -0.8095087 -0.9532086
0003e0 08 26 22 3f 7c 1d 17 bf d1 26 9e be 78 32 39 bf
       0.6333928 -0.59029365 -0.3088899 -0.72342634
0003f0 69 ed 92 bf 7c 15 ad bf 62 c6 9c bf ea 9a 98 bf
       -1.1478702 -1.3522182 -1.2248042 -1.1922276

fc2.weight f4 [128, 256]
000000 d7 bf a1 3f 98 ae b6 bc 96 be 52 3f ce 70 5f 3e
       1.263667 -0.02230005 0.8232206 0.21820375
000010 78 56 bb 3e c9 86 8b 3e e4 86 17 3f d8 2b 28 be
       0.36589408 0.2725127 0.591902 -0.16422975
000020 46 80 1c be 59 8a 8a 3f 05 a9 61 be 93 36 03 3f
       -0.15283307 1.082347 -0.22037132 0.5125515
000030 01 f5 b5 3f 75 b8 b9 be 1c 58 20 3f e3 9d 81 3f
       1.4215394 -0.36273542 0.62634444 1.0126308
000040 16 f5 26 3f df 37 e3 bd 85 7d ab 3e 95 0b 99 3e
       0.6521772 -0.11094641 0.334942 0.2989165
000050 9d 81 61 3e b6 3c 26 3f f8 6d 56 3f 1e e9 5c 3f
       0.220221 0.6493639 0.8376155 0.8629321
000060 24 98 09 3e 5d c9 7e 3f bf ee b8 3f e9 e9 a5 3f
       0.13436943 0.99526006 1.444786 1.2962009
000070 93 70 f8 3e 1a c2 53 3f 1e f4 bb 3e 6d 00 8d 3f
       0.48523387 0.8271805 0.36709684 1.1015755
000080 3b 32 8d bd 5d c4 21 3f 1d a0 74 3e 5c 47 e0 3e
       -0.06894346 0.6319025 0.23889203 0.43804443
000090 2e 8a d3 3d db 4c 67 3f 43 90 44 3f 2e 2e 2e bf
       0.1032909 0.9035165 0.76782626 -0.68039215
0000a0 9e b2 00 3f 32 c1 c8 bd 6d 69 bf 3e be 10 96 3e
       0.5027255 -0.09802474 0.3738512 0.29309648
0000b0 c5 9c 93 3f 4c db 5d 3e ce 82 73 3e 61 94 be 3f
       1.1532217 0.21665686 0.23780367 1.4889032
0000c0 3e b3 82 bd 25 69 ab 3d c8 43 36 3f 40 d3 b6 be
       -0.06381844 0.08369664 0.71197176 -0.35708046
0000d0 88 68 9a 3e 1a 09 04 bf 55 bf 0b 3e 2a 02 9a bc
       0.30157876 -0.5157639 0.13647206 -0.01879986
0000e0 42 72 24 3f 6b a3 29 3e a0 b2 4a 3f ba 55 2e 3f
       0.64236844 0.16566245 0.7917881 0.6809956
0000f0 aa c6 07 3f 8c 4f b7 3e d4 3f 27 3c db 55 f8 3e
       0.5303751 0.35802877 0.010208089 0.48503003
000100 7f 4b a5 3c e7 d9 07 3e 4f fa 41 3f 7e fe d5 3f
       0.0201776 0.13266717 0.75772566 1.671829
000110 be 38 ad 3e ad 23 53 3f a0 0f 10 3f 90 44 ed 3e
       0.33832353 0.8247631 0.5627384 0.46341372
000120 58 6c 71 3d d5 70 ef 3f 72 90 16 3f 75 22 e2 3f
       0.058941215 1.8706309 0.58814156 1.7666765
000130 25 3b cc 3e 2a d4 e1 3c 12 b1 71 3e 5a da 03 3f
       0.39888874 0.027566988 0.23602703 0.51505053
000140 a4 4c a0 3f e4 54 ab 3e 46 ae 87 3f 0c 18 cf 3e
       1.2523389 0.33463204 1.0600059 0.40448034
000150 91 00 11 3f b4 55 38 3f 6d 4d 86 be 16 b6 8c be
       0.5664149 0.7200577 -0.26230946 -0.2748267
000160 b6 18 66 be a0 70 3e be 05 c5 97 3f f0 7b 11 3f
       -0.22470364 -0.1859765 1.1857 0.5682974
000170 e0 87 74 bf 7d 1e 18 3f 87 55 cb 3f 9b 66 2c 3f
       -0.9551983 0.5942152 1.5885476 0.67344064
000180 ad 49 62 be ab 78 95 be b3 4e 92 3f 08 f6 53 3f
       -0.22098418 -0.29193625 1.1430267 0.8279729
000190 c9 c2 d3 3e 1d 63 02 3f 42 3e 85 3f b1 05 64 3e
       0.41359547 0.50932485 1.0409625 0.22267796
0001a0 26 55 22 bf 4b f7 24 3f 77 37 10 3d d7 c1 ac bc
       -0.63411176 0.6443984 0.035209145 -0.021088524
0001b0 df 4d 02 bf e0 c1 74 be 37 bd 33 3f 12 dd 75 3f
       -0.5090007 -0.23902082 0.70210594 0.9604045
0001c0 29 e7 13 3f 8f fc 51 3e 2a e4 b8 bd af 94 37 3f
       0.577746 0.205065 -0.09027894 0.7171125
0001d0 67 b8 3c 3f 2e ff 12 3f 35 76 78 bf f4 76 cd be
       0.73718876 0.57420623 -0.9705537 -0.40129817
0001e0 36 d7 cf 3d 9f 94 af be 18 9e 25 3f 42 47 58 3f
       0.1014847 -0.34293076 0.64694357 0.8448373
0001f0 d0 86 c8 3f 25 3b f3 3e 14 59 be bd 12 f3 59 bf
       1.5666142 0.4750606 -0.09294334 -0.8513652
000200 26 f5 24 3f 81 7c 16 3f 67 52 e1 bf 99 19 2c 3e
       0.64436567 0.5878373 -1.7603272 0.1680664
000210 ff 82 03 3f 45 ea 04 3f 0e 26 93 3f 54 b3 04 3f
       0.5137176 0.51919967 1.1495988 0.51836133
000220 6b 7f 25 be df a0 20 3f b8 36 f4 be ea f4 74 3e
       -0.16161887 0.6274547 -0.47697997 0.23921552
000230 c0 94 0f bd 23 af f4 3d 86 e3 89 3e ef cd 7a 3f
       -0.03505397 0.11947467 0.269314 0.9797048
000240 a4 3a e9 3d 50 e5 26 3e 52 18 9f 3e 43 d5 8a 3d
       0.11388138 0.16298413 0.31073242 0.06778958
000250 3d 07 1a bf 2d 28 eb bd e6 1d 4d 3f ae df 72 3f
       -0.60167295 -0.11482272 0.80123746 0.9487256
000260 8c 04 be 3f ec 01 0e be 1b 6c 7d 3f 81 cc 4d 3f
       1.4845138 -0.1386792 0.9899308 0.80390173
000270 a6 5d 7b 3e db 51 88 3e d9 a8 c6 3e 61 48 32 be
       0.24547443 0.2662495 0.38800696 -0.17410423
000280 30 df a0 3e ee 9d 69 3f 0a 81 bb be 41 19 61 3e
       0.3142028 0.91256607 -0.36621886 0.2198229
000290 28 90 38 3e af fe 28 3f 3b a0 a0 bc f9 8e 89 3f
       0.18023741 0.66013616 -0.019607654 1.0746757
0002a0 05 26 47 bf 01 a8 f9 3f 0c be 77 3e 9b 7d 0f 3e
       -0.7779239 1.9504396 0.24193591 0.14012758
0002b0 25 b2 49 3f 80 82 4f 3e 7b e6 57 3f c4 67 d4 be
       0.7878745 0.20264626 0.8433606 -0.41485417
0002c0 f3 9d 2e be 54 8c 50 bf ca 82 a0 bd 36 8b 6e 3f
       -0.1705244 -0.81464124 -0.07837446 0.9318117
0002d0 62 f9 d0 3e ff 57 83 3e 30 ff cd 3e dc ad 55 3f
       0.40815264 0.25653073 0.40233755 0.83468413
0002e0 a7 9a bd 3e 2d 81 ba 3e f7 fb a6 3e 28 5c a3 be
       0.37032053 0.36426678 0.3261411 -0.31906247
0002f0 2a 68 4d 3e 99 9e b7 3e 8c 17 66 3f c3 cf 31 3f
       0.20059267 0.35863188 0.8987968 0.69457644
000300 04 4d 28 3d 05 86 72 3e f8 b5 08 3e 91 a8 97 3f
       0.041089073 0.23683937 0.13350666 1.1848317
000310 e9 94 69 3e 60 22 58 be 8c 2b a4 3e e6 79 14 3d
       0.22810711 -0.21106863 0.32064474 0.036249064
000320 32 fb 9a 3f dd 46 85 3f d7 fd f4 3e ae 04 40 3c
       1.2107909 1.0412251 0.47849914 0.011719866
000330 6d 35 3d 3f e5 a5 59 3f 16 27 08 3d 02 d2 2e 3f
       0.73909646 0.8501876 0.0332404 0.68289196
000340 ea 54 ae bd ba a1 69 3f 04 17 e3 3e 63 2c 61 bd
       -0.0851229 0.912624 0.44353497 -0.05497397
000350 af ab f5 bd 4c 03 e8 be ad 97 5b 3e f0 10 e0 3f
       -0.11995637 -0.45315015 0.21444578 1.7505169
000360 13 fb 53 3f b3 b3 d4 3e b0 62 ed 3e b8 b8 a3 3d
       0.82804984 0.4154335 0.46364355 0.07994217
000370 9e ac b6 be 5d 71 ab 3e 49 f7 60 3e 70 c8 9b 3f
       -0.3567857 0.33484927 0.21969332 1.2170544
000380 f9 7a 73 3f 3d 7c 88 3e dc 82 35 bf ab 4b 3c bf
       0.95109516 0.26657286 -0.709028 -0.7355296
000390 0e 47 20 3f 08 d7 94 3e 34 f8 1d 3f 8b 2e dd be
       0.6260842 0.29070306 0.6170685 -0.43199572
0003a0 a0 84 5a 3f 19 15 95 be 41 fb cd 3e e5 9f 6c 3e
       0.8535862 -0.2911766 0.40230754 0.2310787
0003b0 25 9a 49 3f e3 f8 be 3d d9 d9 4f 3f e5 d2 28 3e
       0.7875083 0.09324815 0.81191784 0.164867
0003c0 6a 74 32 3e 73 d4 89 3e 74 02 56 be ed 3d e2 3e
       0.17427221 0.26919898 -0.20899373 0.4418787
0003d0 cb 2f 81 3f bc 30 25 3f b1 44 88 3e 61 34 cc 3e
       1.009271 0.6452749 0.26614907 0.39883712
0003e0 d2 25 43 be a4 86 aa 3f 24 89 8a 3f 0a e1 db 3e
       -0.19057396 1.3322339 1.0823102 0.4294513
0003f0 a7 16 a2 3f 5c d8 16 3f 88 12 21 3a 73 ed c6 3e
       1.2663163 0.5892389 0.0006144424 0.38853034

fc2.bias f4 [128]
000000 0f be e3 bf 03 f0 50 bf a0 b0 cf be 4b 2a 04 be
       -1.7792376 -0.8161623 -0.40564442 -0.12906758
000010 8b 9f 85 bf 0a 45 ae be 07 f7 af be 1a f2 3d bf
       -1.0439314 -0.34037048 -0.34368154 -0.7419754
000020 55 ac 2f be fc da c6 be 1d 22 a6 bf e0 8c 62 be
       -0.17155583 -0.38838947 -1.297916 -0.22124052
000030 23 81 79 be 85 19 33 bf 3b 92 57 bf fd 92 81 3d
       -0.24365668 -0.69960815 -0.84207505 0.06326864
000040 08 ef f6 be f0 00 46 bf 69 23 bd bc da f3 75 bf
       -0.4822924 -0.7734518 -0.023088174 -0.9607521
000050 78 2c 02 bf 4f 01 1c bf 7b ea 38 bf b9 6f 0a bf
       -0.50849104 -0.60939497 -0.7223279 -0.54076725
000060 d3 2b 03 bf 27 6e 1c 3e 43 dc 94 bf 82 71 36 be
       -0.51238745 0.15276395 -1.1629719 -0.17816737
000070 3e db 97 bd 2d 89 7d bf 5b 19 87 bd 60 83 54 bd
       -0.07414864 -0.9903744 -0.06596633 -0.0518831
000080 17 44 80 bd 2e 63 f7 bf 0f c7 a3 be aa 90 a8 be
       -0.06262987 -1.9327142 -0.31987807 -0.3292287
000090 f2 41 49 bf 7d 10 ef be d7 10 72 be 2c 48 8d bd
       -0.7861625 -0.46692267 -0.23639236 -0.06898531
0000a0 4e 41 a0 be 95 df d7 be e3 cc 29 be b4 78 3f 3e
       -0.31299824 -0.42162767 -0.16582064 0.18698388
0000b0 6b ae b6 be 7a 50 86 be 37 fb 55 be 9e 9a 0f be
       -0.35679945 -0.26233274 -0.20896612 -0.14023826
0000c0 7e ac 72 3e 1b 1c 7d be 3f 7b 20 be da 1b 2e 3e
       0.23698613 -0.24717753 -0.15672015 0.17002812
0000d0 ee fb 83 bf e8 86 b9 bd cf 5f 13 be f0 ae c8 bd
       -1.0311258 -0.090589345 -0.14392017 -0.09798992
0000e0 77 63 40 bf ff d3 35 bd 71 98 12 bf f7 5f 6d be
       -0.7515177 -0.04439163 -0.5726386 -0.23181139
0000f0 a9 ae ea be f4 96 5d bf da 4b 9d bf 88 cb 6a be
       -0.4583638 -0.8655846 -1.2288773 -0.22929204
000100 41 1d 36 be 64 ad 0c bf 6f 68 9b be 57 81 07 bf
       -0.17784597 -0.54952073 -0.30353114 -0.5293173
000110 48 8a c9 be a5 af 58 bc 57 58 11 3e d8 52 03 bf
       -0.39363313 -0.013225471 0.14193855 -0.51298285
000120 c9 26 8f be af 5e 23 be 4d 28 0b bf e5 93 06 bf
       -0.27959278 -0.15954088 -0.5435837 -0.5256942
000130 69 72 9a be cc ee ec be 25 c2 e4 bd 71 1b ea be
       -0.30165413 -0.46275938 -0.11169843 -0.4572406
000140 a6 39 1b be c5 36 97 be 26 4e 08 be 71 8b 8e be
       -0.1515871 -0.29533973 -0.13311061 -0.2784076
000150 8c 59 26 be ed cc be be 5e 25 a9 bf 58 9d b6 bf
       -0.16245097 -0.3726572 -1.3214529 -1.4266768
000160 67 94 f1 be 38 9c 44 bf a2 79 7c be 74 00 82 bf
       -0.47183535 -0.7680087 -0.24655774 -1.0156388
000170 18 d0 8e be 54 a4 8c bf d8 2d 70 be ec c3 25 bf
       -0.27893138 -1.0987649 -0.23454988 -0.6475208
000180 1b 81 02 bf 0a bf 1b be 33 da dd bf 53 53 85 bf
       -0.5097825 -0.15209594 -1.7332214 -1.0416054
000190 35 4d 39 bf 03 a1 04 bf df ce 4f be 6d 34 01 be
       -0.72383434 -0.51808184 -0.20293759 -0.12617655
0001a0 0e fb 52 be d3 d0 10 be e8 14 11 bf 78 bf f7 be
       -0.20603582 -0.1414216 -0.56672525 -0.48388267
0001b0 21 58 e0 bf 6d e3 6b bd 87 81 2b bf 63 60 66 3e
       -1.7526895 -0.057589937 -0.6699452 0.22497706
0001c0 72 0c a9 be 89 9d 99 bf ad c4 76 be d4 65 e9 be
       -0.33017308 -1.2001201 -0.24098463 -0.455855
0001d0 28 5c 6f bf 9c 53 12 bf 37 f0 fc 3c 0a 79 ab bf
       -0.93499994 -0.5715883 0.030876262 -1.3396313
0001e0 56 0e 5e be 93 f7 70 be e2 bf a1 bf e9 46 38 bf
       -0.21685156 -0.23531942 -1.2636683 -0.719832
0001f0 4d a3 f3 be e9 2f 16 be e1 75 e0 3d 32 e7 99 bc
       -0.47585526 -0.14666714 0.109599836 -0.018787

fc3.weight f4 [2, 128]
000000 fb e3 c2 3e 74 df 83 bd d6 39 01 3e ec 8c 24 3d
       0.3806456 -0.06439105 0.12619719 0.040173456
000010 db 53 51 be fa da d8 be eb f5 a5 3e 3c 82 49 3e
       -0.20442145 -0.42354566 0.32414183 0.19678587
000020 4a f0 fd 3d 22 92 ca 3e a4 47 9c 3d 6f 25 80 3e
       0.12399347 0.39564615 0.07630852 0.2502856
000030 a4 35 91 3e 4c d9 da 3c ea 46 29 bd f7 65 f7 3e
       0.28361237 0.026714943 -0.041327395 0.4831998
000040 2d 2a 59 3d 87 b1 04 be 83 a3 04 3f 1d c3 8a 3e
       0.053018738 -0.12958346 0.51812 0.27101985
000050 95 21 49 3e 5a 1a fe bc 29 13 23 bf a9 6b 7d 3e
       0.19641717 -0.031018425 -0.6370111 0.247481
000060 34 d7 bb 3e 6c b1 68 3e 3b f9 32 be 76 66 02 3e
       0.36687624 0.22723931 -0.17477886 0.12734398
000070 57 bb 2e 3b 2a a8 b2 3b d8 0c 9a 3c 83 c3 cb bc
       0.0026661956 0.0054521756 0.018804953 -0.0248735
000080 df c8 87 3e 4e 88 83 3e 62 5e e4 be b6 a3 c3 3e
       0.2652044 0.2568993 -0.44603258 0.3821084
000090 0c fb c8 3e 29 d7 01 3e a7 ef d3 3c bb f1 d8 bb
       0.39254034 0.12679733 0.025871111 -0.0066206134
0000a0 ce c1 77 bb 75 95 b6 3e 7b 5e bd 3e 0c 1e 92 3e
       -0.0037804726 0.35660902 0.36986145 0.2853855
0000b0 cf 84 3f bd 44 14 06 bd c3 f4 ad 3c 3c d5 97 3e
       -0.046757516 -0.03273417 0.021234876 0.29654872
0000c0 ad 96 56 3e 33 03 99 3e cc 94 84 3e 5b 43 1e 3d
       0.20955916 0.29885253 0.25894773 0.038638454
0000d0 60 46 2e 3e e7 ff c3 3e 1a 1d 82 bb bf 05 ba 3c
       0.17019033 0.38281175 -0.0039707543 0.022707818
0000e0 70 5f 77 3d 6f ff cf 3c 97 02 ea 3e 46 aa 5f 3e
       0.06039375 0.025390355 0.457051 0.21842298
0000f0 5f 2c de bd 27 8a bd be 8e c9 9e bd 52 48 48 3e
       -0.10848307 -0.37019464 -0.07753287 0.19558838
000100 56 87 72 3d 8c 45 73 3e f9 f0 e5 3c a5 fe 07 bf
       0.059211098 0.23756999 0.028069006 -0.5312293
000110 12 00 e2 3e 76 90 3a bb 21 07 9a 3d 41 76 c8 be
       0.4414068 -0.0028467453 0.07520891 -0.3915272
000120 22 1a 57 3d 0c 04 89 3e 74 28 9e be 0f de b9 bd
       0.052515157 0.267609 -0.30890238 -0.090755574
000130 de 7f af 3e 1a 1a c1 bd 8f 0d 90 bd 48 5f 5c 3b
       0.34277242 -0.094288066 -0.07033836 0.0033626128
000140 2f 5a 45 b9 33 0e 09 bf e9 a4 eb 3d 9c 87 e4 3e
       -0.0001882098 -0.5353729 0.115060635 0.44634712
000150 44 f8 00 3d bc b5 af 3e 41 de ee bd 4e 87 4c 3e
       0.031486765 0.3431834 -0.11663485 0.1997349
000160 7b 29 85 3d 58 14 b4 bb 12 03 8d 3d a0 ea 5b bd
       0.065020524 -0.005495589 0.06885351 -0.053690553
000170 a4 74 92 3c 9d 7d b7 bd 4f 34 e9 3e e0 1d 1f be
       0.017877884 -0.08959506 0.4554772 -0.1553874
000180 8d a0 a5 3e 38 a3 0c 3f 0c 90 43 3e 2e b8 03 be
       0.32349053 0.5493655 0.19097918 -0.12863228
000190 d6 32 b4 be 09 86 f0 3e 51 c0 77 3e da 96 b5 3c
       -0.35195035 0.4697726 0.24194457 0.022166658
0001a0 94 a7 69 3e fa e4 6d 3e 85 7a 1c 3e b4 29 0e 3f
       0.22817832 0.23231879 0.15281112 0.55532384
0001b0 ec d1 e4 3d ed 53 6f 3d dd ba cc 3b a6 cb 38 3e
       0.11172852 0.058429647 0.006247862 0.18046436
0001c0 3e ba 68 3e e2 1a ff 3d 3f bf fa 3d 44 53 fa 3e
       0.22727296 0.12456299 0.122435085 0.48891652
0001d0 e4 4a 02 3f ab 88 a2 bd ab e7 38 3d 86 28 08 3f
       0.50895524 -0.079362236 0.04514281 0.53186834
0001e0 84 99 4c 3c 72 bb 23 3d 29 42 17 be 39 39 e7 bd
       0.012487773 0.039973684 -0.14771332 -0.11290211
0001f0 e6 23 f5 bd 09 78 c4 3e a2 67 12 3e 08 c1 34 bc
       -0.11969738 0.3837283 0.14297345 -0.01103235
000200 de f2 a8 be 98 b4 8a bd 4e ba c3 bf 94 9e bf bc
       -0.32997793 -0.06772727 -1.5291231 -0.023391046
000210 c7 ce 49 3d 7d 91 64 3e d9 14 7b bb 9b 81 ed 3c
       0.049269464 0.22321124 -0.0038311987 0.028992465
000220 22 f5 ff bc 39 a3 a7 3e a6 3f 2c bf 97 2e 0f bf
       -0.031244818 0.32741717 -0.6728462 -0.55930465
000230 cd fb ca be d3 18 dd bd 1b b0 fd be 0c 86 72 3e
       -0.39645234 -0.107957505 -0.4954842 0.23683947
000240 79 7e 30 bf 34 78 78 bc 45 04 9a bf 6f fe 26 bf
       -0.6894298 -0.015165377 -1.2032553 -0.65231985
000250 b0 c8 1e bf 64 1e 24 3f b7 14 e2 3d 81 8d b3 3e
       -0.62024975 0.6410887 0.11039107 0.35068896
000260 1e 90 dc bf 16 ea e8 be 21 43 ab be 87 28 85 3e
       -1.7231481 -0.45491093 -0.33449653 0.26007482
000270 9c ac ba bd 8b 81 40 be 2b 95 33 3d ce ce 65 39
       -0.09114954 -0.18799417 0.04384343 0.00021916183
000280 c0 40 a6 3e 98 90 5a be 62 d2 2c 3f 82 b0 08 bd
       0.32471275 -0.2134422 0.6750852 -0.033371456
000290 fb b8 fc be e5 c0 01 bf 1c 5d e1 3d 83 fa e2 3b
       -0.4935988 -0.5068496 0.11004087 0.006926836
0002a0 e9 98 10 3e 76 e9 d5 3e 7c 81 87 bf 46 22 8e 3e
       0.1412083 0.4177968 -1.058639 0.27760524
0002b0 79 33 98 bf 85 7c 9d bd 09 8b 8e be 51 7f 1f bf
       -1.1890708 -0.07689766 -0.2784045 -0.62303644
0002c0 00 42 e2 3e d4 c3 1c bf ca fa 48 3e 04 ed 9e 3f
       0.4419098 -0.6123631 0.19626918 1.2416081
0002d0 14 6a 96 3d 0e 50 51 bf 67 a8 0b 3c 09 59 5c bf
       0.073444515 -0.8176278 0.008524037 -0.86073357
0002e0 1c dd 7b bf ee 66 bf bc 47 0f 16 be 9f 7b 19 3c
       -0.9838426 -0.02336451 -0.14654265 0.0093678525
0002f0 5a 27 19 3f 25 05 df 3d ce 8c de 3d 95 9a e5 be
       0.5982567 0.10889653 0.108667 -0.448445
000300 ae 27 c6 bd 19 3c c9 be d9 fa db be 2d de 4a 3f
       -0.09675537 -0.39303663 -0.4296482 0.79245263
000310 b7 24 4a 3e 12 db 90 bd 30 bb 98 be 50 cc 29 bf
       0.19740568 -0.07073034 -0.29830313 -0.6632738
000320 58 0a 75 bf 0c 45 fd 3d 75 97 0e bf 9a cb da bf
       -0.9571891 0.12366685 -0.55699855 -1.7093384
000330 f8 32 46 bf b7 97 da bd 8d c0 a4 3c 38 da ab 3e
       -0.7742152 -0.106734686 0.020111347 0.33564925
000340 ed ac d2 bb be b0 5e bd d3 93 f3 3c 61 a8 b4 3d
       -0.0064293058 -0.054367773 0.029733574 0.08821178
000350 12 27 d2 bc 29 6e 23 bf 47 c1 8f 3e 0a e0 e0 be
       -0.025653396 -0.63839966 0.28077146 -0.43920928
000360 91 65 b8 3d d6 3f 86 3f f5 64 4d bf 49 b7 0f be
       0.09003747 1.0488231 -0.80232173 -0.14034761
000370 12 cd 80 3e 46 f6 7b bf e7 1b 6c bf 76 54 a8 bd
       0.25156456 -0.9842266 -0.92230076 -0.08219235
000380 d0 bf 49 3c 71 87 9a bd 6f 6d 16 3f cd 4c 06 be
       0.012313798 -0.07545365 0.5876073 -0.13115235
000390 87 4f 32 3e 4a 6c 11 3d 18 64 96 bf 3e 0e 39 bd
       0.1741315 0.035503663 -1.1749296 -0.045179598
0003a0 40 fb 47 be 65 6c 4d 3d f3 af 4f 3e 0a da 02 3e
       -0.19529438 0.0501522 0.20281963 0.12778488
0003b0 f4 69 09 bf f2 25 2b bc bd 89 49 3e 29 59 08 bf
       -0.53677297 -0.010446059 0.19681449 -0.5326105
0003c0 88 3d 41 3d d1 7f 62 bf 61 a1 26 3c c7 a3 9c be
       0.04717782 -0.8847628 0.010170312 -0.30593702
0003d0 01 a4 16 bf 98 9b 8f bf f6 39 a3 bf 36 50 38 bf
       -0.58844 -1.1219358 -1.2752063 -0.7199739
0003e0 a6 69 77 3f 83 35 2a bc 9c 84 f4 3e ee da 18 bf
       0.9664558 -0.010388735 0.47757423 -0.5970906
0003f0 2d 60 12 bf 8d cb c0 3d 9c f0 06 3e 9b b6 d9 3c
       -0.57178 0.09413824 0.13177723 0.02657633

fc3.bias f4 [2]
000000 9b 88 3a 3f 23 d0 26 c0
       0.72864693 -2.6064537
