Continuous Control/checkpoint_critic.pth (torch_old, 237512 bytes, 11 tensors)

hidden_layers.0.weight f4 [256, 33]
0	0xbecb5f55	-0.3972117
1	0xbec95ab2	-0.39327008
2	0x3f142ed2	0.5788394
3	0xbe0e0db4	-0.13872415
4	0xbf15e930	-0.5855894
5	0x3df1e1f6	0.11810677
6	0x3ef46a7a	0.47737485
7	0x3d337525	0.04381289
8	0x3f5737d7	0.8406958
9	0xbed17760	-0.40911388
10	0xbd2d2dd0	-0.04228002
11	0x3a735602	0.00092825305
12	0xbc55a293	-0.013039249
13	0x3f3bbce5	0.73335105
14	0x3f81a6a5	1.0128981
15	0xbe8e1dbb	-0.27757058
16	0xbe0faacc	-0.14029998
17	0x3e1eed79	0.15520276
18	0xbe37e122	-0.17956975
19	0xbc2459a1	-0.010031135
20	0x3e08ef04	0.13372427
21	0xbdcfd05e	-0.10147165
22	0xbdf27470	-0.11838615
23	0x3f1a8a38	0.60367155
24	0x3f07556a	0.52864707
25	0xbe8426da	-0.2581089
26	0xbf38cdf2	-0.7218925
27	0xbcf4e2b6	-0.02989326
28	0x3ecc5269	0.39906624
29	0xbce27199	-0.027642058
30	0x3c99eef6	0.018790703
31	0xbd808513	-0.06275382
32	0xbed01dba	-0.4064768
33	0xbf06f4b7	-0.52717155
34	0xbf2934c3	-0.66096133
35	0xbe409eea	-0.18810621
36	0x3e009c74	0.12559682
37	0x3e789018	0.24273717
38	0x3ebd5e84	0.36986172
39	0x3dfbb128	0.12289649
40	0xbdc1e63f	-0.09467744
41	0xbed1da8f	-0.4098706
42	0x3df98ac7	0.12184673
43	0xbf88b6f4	-1.0680833
44	0xbf68b408	-0.90899706
45	0x3f2991a6	0.66237867
46	0x3f071fcd	0.527829
47	0x3ee4f3d6	0.44717282
48	0x3cc6815a	0.024231602
49	0xbdff1d7e	-0.12456797
50	0xbe60058c	-0.21877116
51	0xbded9321	-0.11600328
52	0x3da0103e	0.07815598
53	0xbe50fbb2	-0.20408514
54	0x3e8985c3	0.26859865
55	0xbe703af4	-0.23459989
56	0x3eb827e7	0.35967943
57	0x3f037d64	0.51363206
58	0x3d58298b	0.052773993
59	0xbe375bfc	-0.17906183
60	0x3d04d4bf	0.032429453
61	0x3d4a7f88	0.04943803
62	0xbd1d2867	-0.03836861
63	0xbc560361	-0.013062329
64	0x3be62b6d	0.0070242197
65	0x3d84fb77	0.064932756
66	0x3e3decc7	0.18547355
67	0x3eddfd72	0.43357426
68	0x3df38baa	0.11891873
69	0xbedd588c	-0.43231618
70	0xbe7f283f	-0.24917696
71	0x3ecdd090	0.40198183
72	0x3ecab3b5	0.3959023
73	0x3ebb0572	0.36527592
74	0xbde3eeaa	-0.11129506
75	0xbed80d18	-0.4219749
76	0x3f442ff1	0.7663565
77	0x3f5d1870	0.86365414
78	0xbe69712b	-0.22797076
79	0x3ec39f3f	0.38207433
80	0xbea7d6cf	-0.32781073
81	0xbe269aeb	-0.16270034
82	0xbdf9ea2f	-0.1220287
83	0xbef68070	-0.48144865
84	0x3eb4fab3	0.35347518
85	0xbd9f7531	-0.07786024
86	0x3ecf6e94	0.40514052
87	0x3f73ca9c	0.9523103
88	0x3d821fe9	0.06353743
89	0xbde1c41b	-0.11023732
90	0x3e2c0deb	0.16802184
91	0x3e8742a3	0.26418027
92	0xbe998f85	-0.2999231
93	0x3d72993d	0.05922817
94	0xbf0d0641	-0.5508767
95	0xbbbee8ed	-0.0058261068
96	0x3c0cd2e9	0.008595207
97	0xbde244e6	-0.110482976
98	0xbe5f854a	-0.2182819
99	0x3f777056	0.96655786
100	0x3ed25df2	0.410873
101	0xbea12c57	-0.3147914
102	0x3d4a4f0e	0.0493918
103	0x3eb41347	0.35170957
104	0x3e35a6d0	0.17739415
105	0x3d9e1a36	0.07719843
106	0xbf492934	-0.78578496
107	0x3f18129a	0.59403384
108	0xbe93b669	-0.28850105
109	0x3f958ca2	1.1683543
110	0x3e96e80d	0.29473916
111	0xbe71679b	-0.23574679
112	0xbf3bac9e	-0.7331027
113	0xbde6ecdf	-0.11275648
114	0x3da538ca	0.08067472
115	0x3da37e44	0.07983068
116	0xbd92c650	-0.07166731
117	0x3e801c82	0.2502175
118	0xbdcea282	-0.1008959
119	0x3e4d0613	0.20021848
120	0xbc923b2f	-0.017850487
121	0xbe753a26	-0.23947963
122	0xbf46ebfb	-0.7770383
123	0xbcdcdd01	-0.026960852
124	0xbdbf1f7a	-0.093321756
125	0x3f108e9f	0.5646762
126	0xba8ac7ff	-0.0010588168
127	0xbdc0ced0	-0.09414446
128	0x3e32afe3	0.17449908
129	0xbc22e930	-0.009943292
130	0xbd8e46e1	-0.06947113
131	0x3d52fc24	0.05150999
132	0xbd022fbe	-0.03178381
133	0x3e55b50d	0.20869847
134	0xbe8e11d9	-0.27747992
135	0x3ea3ebf9	0.3201597
136	0xbe83a0eb	-0.25708708
137	0xbe3f3748	-0.18673432
138	0x3eb21e39	0.34788683
139	0xbe89ab4c	-0.26888502
140	0x3f10c562	0.5655118
141	0x3f886693	1.0656303
142	0x3f645507	0.8919224
143	0xbe34d3da	-0.1765894
144	0x3f8a5988	1.0808573
145	0x3e2cb2a8	0.16865027
146	0x3f027fd1	0.5097628
147	0x3cb5eb06	0.022206794
148	0x3c1579e0	0.009123296
149	0xbe45dbae	-0.19322082
150	0xbea44d4e	-0.3209023
151	0x3db89bd6	0.09014098
152	0x3eb8a3fa	0.36062604
153	0xbce095cb	-0.027415177
154	0x3dc43639	0.09580655
155	0x3f7e16c0	0.99253464
156	0x3cf50168	0.029907897
157	0x3dc344e3	0.095346235
158	0xbde159eb	-0.110034786
159	0xbc523e3e	-0.0128322225
160	0x3f4b9d69	0.79537064
161	0x3ddb651f	0.10712647
162	0x3dba5a3b	0.09099241
163	0xbdbc3d37	-0.09191363
164	0xbe915d90	-0.28391695
165	0xbd62b6ad	-0.055349994
166	0x3dd7685f	0.10517954
167	0xbe896eff	-0.26842496
168	0x3ddb51d4	0.10708967
169	0xbec41287	-0.38295385
170	0x3e7faefe	0.24969098
171	0xbe845e45	-0.25853172
172	0xbec24cd2	-0.37949234
173	0xbe188798	-0.14895475
174	0xbd040abc	-0.0322368
175	0xbe483d58	-0.19554651
176	0xbeb97277	-0.36220142
177	0xbd57e8e1	-0.052712325
178	0x3e9c328c	0.30507314
179	0xbeb49864	-0.35272515
180	0x3c129e42	0.008948864
181	0xbc094c06	-0.008379942
182	0x3ebc09ad	0.36726132
183	0xbed48522	-0.41507822
184	0xbeca7681	-0.39543536
185	0x3e7ca021	0.2467046
186	0x3d7784f3	0.060429525
187	0x3e8203d2	0.2539354
188	0xbdb9fb7c	-0.0908117
189	0xbe04b854	-0.1296094
190	0xbe815a15	-0.2526404
191	0xbef9d056	-0.4879176
192	0xbc0578f4	-0.008146513
193	0xbf51e39a	-0.8198792
194	0x3d4b4f34	0.04963608
195	0x3d392e8d	0.04521041
196	0xbdff73ba	-0.12473245
197	0x3f61908d	0.8811119
198	0xbd305804	-0.04305269
199	0x3ef6967b	0.48161682
200	0xbe74d2fb	-0.23908608
201	0xbe437ae1	-0.19089843
202	0xbe6f06e1	-0.23342468
203	0x3c505520	0.012715608
204	0x3db2c8a8	0.087296784
205	0x3daa8dcd	0.083278276
206	0x3e211d28	0.15733778
207	0x3d7efc3a	0.06225226
208	0x3eb309f5	0.34968534
209	0x3c952b2a	0.018209059
210	0xbe9ba648	-0.304003
211	0x3f1813e2	0.5940534
212	0xbf997d4d	-1.1991364
213	0x3d76aba5	0.060222287
214	0xbd571046	-0.052505754
215	0xbd6cc96e	-0.057809286
216	0x3e94cbe0	0.29061794
217	0x3d8f7fde	0.070068106
218	0x3e685651	0.22689177
219	0xbe1e7e75	-0.15477927
220	0xbf270f8f	-0.65258116
221	0x3fa82772	1.3137038
222	0xbf46db65	-0.7767852
223	0x3e307612	0.1723254
224	0xbe7f8140	-0.24951649
225	0xbcc3d544	-0.023905404
226	0xbf19ee50	-0.6012926
227	0x3dd9cecb	0.10635146
228	0x3c39914d	0.011326146
229	0x3d2c2674	0.04202886
230	0x3e21f544	0.15816218
231	0xbd0febf1	-0.03513712
232	0xbec48817	-0.38385078
233	0xbe4de604	-0.20107275
234	0x3d332be9	0.043743048
235	0x3e3b7e4d	0.18309899
236	0xbddf753a	-0.10911031
237	0xbd51746c	-0.05113642
238	0x3ddc7185	0.1076384
239	0x3e74f5f3	0.23921947
240	0x3e9475d7	0.28996155
241	0x3dc532c1	0.09628821
242	0xbcbd8777	-0.023135884
243	0xbdf9cf36	-0.121977255
244	0x3ea49249	0.32142857
245	0x3cab81b8	0.020935878
246	0xbe82b68d	-0.255299
247	0x3e1c13ba	0.152419
248	0x3dd35737	0.10319369
249	0xbe4a8779	-0.19778241
250	0x3e1c634d	0.15272255
251	0xbd944372	-0.07239427
252	0x3d9f1517	0.077676944
253	0x3bb19d04	0.005420329
254	0x3ec210a5	0.37903324
255	0x3da046a9	0.07825977

hidden_layers.0.bias f4 [256]
0	0xbeb15619	-0.34636
1	0x3a0339ea	0.0005005883
2	0xbf187a47	-0.5956158
3	0x3d59b614	0.05315216
4	0xbedf5094	-0.43616164
5	0xbea90c0e	-0.3301701
6	0xbde5625a	-0.112004
7	0xbe8c1703	-0.27361307
8	0xbd8717b2	-0.065963164
9	0xbebdd7c2	-0.37078673
10	0xbe8ac605	-0.27104202
11	0xbe5d8123	-0.21631293
12	0xbed161f0	-0.40895033
13	0xbe9a9dad	-0.30198422
14	0xbd1a840c	-0.037723586
15	0xbe4824a6	-0.1954523
16	0xbebe9ed8	-0.37230563
17	0xbcaf81df	-0.021424232
18	0xbe6a1ca5	-0.2286249
19	0xbe019c7d	-0.12657352
20	0xbef2e082	-0.4743691
21	0xbe64fd2b	-0.22362201
22	0xbf1d6517	-0.61482376
23	0xbeadde3a	-0.33958608
24	0xbf0fcc10	-0.5617075
25	0xbf17c90d	-0.59291154
26	0xbf1559aa	-0.5833994
27	0xbf203c11	-0.62591654
28	0xbe93c660	-0.28862286
29	0xbece07be	-0.40240282
30	0x3da204a6	0.07911043
31	0xbc62d594	-0.013844866
32	0xbe1edb0a	-0.15513244
33	0xbe046550	-0.12929273
34	0xbec9cad0	-0.39412546
35	0xbe69f8a3	-0.22848754
36	0xbedf430c	-0.4360584
37	0xbea865fc	-0.32890308
38	0xbf4575cd	-0.77132875
39	0xbf01fe73	-0.50778884
40	0xbf121196	-0.57058084
41	0xbd02a647	-0.031896856
42	0x3cd8cf53	0.026466047
43	0xbf134269	-0.5752321
44	0xbf341549	-0.7034498
45	0xbe7b6711	-0.24551035
46	0xbda38122	-0.079836145
47	0xbf112684	-0.56699395
48	0x3e0562c3	0.13025956
49	0xbe40fcfb	-0.18846504
50	0xbeb847a4	-0.35992157
51	0xbe1b2d43	-0.15153985
52	0xbebcb288	-0.3685496
53	0xbf0e6e96	-0.5563749
54	0xbe629786	-0.22128114
55	0xbe1a49ff	-0.1506729
56	0x3eb76224	0.35817063
57	0xbe1a57b0	-0.15072513
58	0xbe012483	-0.12611584
59	0xbe4de0dd	-0.2010531
60	0xbf2c74f7	-0.67365974
61	0xbd43a1c4	-0.047761694
62	0xbeae2faa	-0.3402074
63	0xbe9419b8	-0.28925872
64	0xbed97378	-0.42470908
65	0xbef607d0	-0.48052835
66	0xbec97a1a	-0.3935097
67	0xbde3d46e	-0.11124502
68	0xbd2ccd29	-0.042187843
69	0xbe7c452a	-0.24635759
70	0xbe1def72	-0.15423372
71	0xbeaa4362	-0.33254534
72	0xbeb95981	-0.362011
73	0xbf0166c6	-0.50547445
74	0xbf0f2079	-0.55908924
75	0xbe1d47fc	-0.15359491
76	0x3d0cfe31	0.034422103
77	0xbe536b80	-0.20646477
78	0xbf0b6fd0	-0.5446749
79	0xbf28e71c	-0.65977645
80	0xbe48c8cf	-0.19607852
81	0xbf08f1f8	-0.53494215
82	0xbf193541	-0.59846884
83	0xbdf8612e	-0.121279106
84	0xbe842ca0	-0.25815296
85	0xbf0c2ca2	-0.54755604
86	0xbef5a1d5	-0.4797503
87	0xbda1680a	-0.07881172
88	0xbec09e94	-0.37620986
89	0xbcabbba9	-0.020963507
90	0xbe33ffa8	-0.17577994
91	0xbf0458d4	-0.5169804
92	0xbe5de1d9	-0.21668185
93	0xbefc84a2	-0.4931994
94	0xbe6dc911	-0.23221232
95	0xbe8622a8	-0.26198316
96	0xbd94a076	-0.07257168
97	0xbf07f594	-0.531091
98	0xba965cb3	-0.0011471718
99	0xbf39012e	-0.72267425
100	0xbf0c7cb0	-0.5487776
101	0xbeabaa5e	-0.33528417
102	0xbf460077	-0.7734446
103	0xbef76540	-0.48319435
104	0xbe854559	-0.2602947
105	0xbe45d0fa	-0.19318
106	0xbf217f00	-0.6308441
107	0xbe68b437	-0.22724997
108	0xbe843d98	-0.25828242
109	0xbe615ae6	-0.22007331
110	0xbd029b48	-0.03188637
111	0xbe2abfc3	-0.16674714
112	0xbe73b9f3	-0.23801403
113	0xbe9f2008	-0.31079125
114	0xbec224e0	-0.37918758
115	0xbe2a4f61	-0.16631843
116	0xbe8d1b01	-0.27559665
117	0xbf111a38	-0.5668063
118	0xbe84db17	-0.25948402
119	0xbea71fcb	-0.32641444
120	0xbebc17d0	-0.36736917
121	0xbed19432	-0.40933377
122	0xbf1bf160	-0.60915184
123	0xbdd2e6e1	-0.10297943
124	0xbe4f2331	-0.20228268
125	0xbf036cc5	-0.51337844
126	0xbe8b2017	-0.2717292
127	0xbdd7d9cc	-0.10539588
128	0xbf07726c	-0.5290897
129	0xbe52082b	-0.20510928
130	0xbeed03c8	-0.46291947
131	0xbd991f3d	-0.07476661
132	0xbeef4329	-0.46730927
133	0xbedc3e90	-0.4301648
134	0xbf0e4729	-0.5557733
135	0xbf0e16bd	-0.55503446
136	0xbc96d826	-0.018413614
137	0xbe861e57	-0.26195022
138	0x3d147f3e	0.03625416
139	0xbe91cac6	-0.28475016
140	0xbe4236ab	-0.18966167
141	0xbe48f684	-0.19625288
142	0xbee7151f	-0.45133302
143	0xbeaba231	-0.3352218
144	0xbeec80aa	-0.46191913
145	0xbe6f7e3f	-0.23388003
146	0xbe9ad22f	-0.30238482
147	0xbd60c172	-0.054871984
148	0xbe8af464	-0.2713958
149	0xbdd4acf6	-0.10384552
150	0xbe55946a	-0.20857397
151	0xbe5876cb	-0.21139066
152	0xbe867d71	-0.2626758
153	0xbe6e3ecf	-0.23266147
154	0xbe093d3c	-0.13402265
155	0xbe00a0ad	-0.12561293
156	0xbe528d5b	-0.20561735
157	0xbe41bd2b	-0.18919818
158	0xbec55b8d	-0.3854641
159	0xbe984f08	-0.29747796
160	0xbdb405dd	-0.08790181
161	0xbc3e9679	-0.011632555
162	0xbef7be5e	-0.48387426
163	0xbe79dceb	-0.2440068
164	0xbe691c0b	-0.22764604
165	0xbed22813	-0.410462
166	0xbd89cec4	-0.067288905
167	0xbed68a1f	-0.41902253
168	0xbf4c8941	-0.7989693
169	0xbeb72330	-0.35769033
170	0xbe8e4c79	-0.2779272
171	0xbf48238a	-0.7817923
172	0xbf272144	-0.65285134
173	0xbea6725b	-0.3250912
174	0xbe765605	-0.24056251
175	0xbec20c01	-0.37899783
176	0xbf04d266	-0.5188354
177	0xbd4158bc	-0.047203764
178	0xbea84204	-0.32862866
179	0x3d1b715b	0.0379499
180	0xbe518c7a	-0.20463744
181	0xbe741add	-0.23838373
182	0xbd63b1af	-0.055589374
183	0xbe33d958	-0.17563379
184	0xbea7dae2	-0.32784182
185	0xbe13104b	-0.14361684
186	0x3d4531c4	0.048143163
187	0xbd98c099	-0.0745861
188	0xbe0fc9ae	-0.14041778
189	0xbe8d1796	-0.27557057
190	0xbda122af	-0.078679435
191	0xbe6e67c9	-0.23281778
192	0xbf08dd24	-0.53462434
193	0xbeb1f42e	-0.34756607
194	0xbefa695c	-0.48908508
195	0xbf13b4e6	-0.57697904
196	0x3decc322	0.11560656
197	0xbe885b0e	-0.2663197
198	0xbe8f75a3	-0.28019437
199	0x3d9acc33	0.07558479
200	0xbed2e7b3	-0.41192397
201	0xbefe1b88	-0.4963038
202	0xbef4028f	-0.47658202
203	0xbebe75b1	-0.37199166
204	0xbe3a7b9b	-0.18211214
205	0xbefcd15b	-0.49378476
206	0xbe75fcf0	-0.24022269
207	0xbee946cc	-0.45561826
208	0xbf0c3a34	-0.5477631
209	0xbf09ae11	-0.5378123
210	0xbebc8a73	-0.36824378
211	0xbe89cf22	-0.26915842
212	0xbe0d6c09	-0.13810743
213	0xbf379c22	-0.71722615
214	0xbeb16600	-0.34648132
215	0xbda03e83	-0.07824423
216	0xbede2c96	-0.4339339
217	0xbdb041b1	-0.0860628
218	0xbddd6045	-0.108093776
219	0xbe8b5419	-0.272126
220	0xbef9195c	-0.4865216
221	0x3e187fe4	0.14892536
222	0x3e095253	0.1341031
223	0xbef11bca	-0.47091514
224	0xbe08d312	-0.13361767
225	0xbedc046c	-0.42972124
226	0xbf1337b8	-0.57506895
227	0xbf059e39	-0.52194554
228	0xbe104cfa	-0.14091864
229	0xbdefbf0d	-0.11706362
230	0xbcde2e2d	-0.027121628
231	0xbd54678e	-0.05185657
232	0xbe5feb8c	-0.21867198
233	0xbebe4d31	-0.37168267
234	0xbed380b9	-0.41309145
235	0xbf006c8f	-0.5016565
236	0x3c8bcb8c	0.017064832
237	0xbe71191c	-0.23544735
238	0xbda47b19	-0.080312915
239	0xbf78e99a	-0.9723145
240	0xbeb3ba61	-0.35103133
241	0xbe0d58f8	-0.1380347
242	0xbec5fbb0	-0.38668585
243	0xbeacd02d	-0.33752576
244	0xbd426cb2	-0.04746694
245	0xbe85ed08	-0.26157403
246	0xbbcfad83	-0.006337823
247	0xbed2d367	-0.41176912
248	0xbe8debd4	-0.27718985
249	0xbeecf39f	-0.46279618
250	0xbe957ef0	-0.29198408
251	0xbdf41386	-0.11917786
252	0xbe7d0934	-0.24710542
253	0xbf0e1895	-0.5550626
254	0xbe33bcde	-0.17552516
255	0xbebcedc8	-0.36900163

hidden_layers.1.weight f4 [128, 260]
0	0x3d240038	0.04003927
1	0x3ae50102	0.0017471614
2	0xbe025fc7	-0.12731849
3	0xbeb85b21	-0.36007026
4	0xbf127397	-0.57207626
5	0xbe2c6853	-0.16836672
6	0x3ea9d3db	0.33169445
7	0x3e19e3f5	0.15028365
8	0xbf2944fa	-0.66120875
9	0x3eba1027	0.36340448
10	0x3effb2dc	0.49941146
11	0xbf95d89f	-1.1706733
12	0x3e1d979e	0.15389869
13	0x3f8276fb	1.019256
14	0xbeb23a00	-0.34809875
15	0x3de957e1	0.11393715
16	0xbeb2bee8	-0.34911275
17	0x3dbee25f	0.093205206
18	0x3e9f2cfd	0.3108901
19	0x3de46c36	0.11153452
20	0xbdb7bad7	-0.08971184
21	0xbeb5a168	-0.35474706
22	0xbe89ddba	-0.26926976
23	0x3f7d35d8	0.98910284
24	0xbe80a478	-0.2512548
25	0xbe8c4b63	-0.27401266
26	0x3f0237f0	0.50866604
27	0x3ccb00f9	0.024780737
28	0xbd95370e	-0.072858915
29	0x3eaf4ba4	0.34237397
30	0xbd1cff87	-0.038329627
31	0x400a7139	2.1631606
32	0x3e4ae5e8	0.19814265
33	0xbe0776a5	-0.13228853
34	0x3eba6599	0.36405638
35	0x3fc9b62a	1.5758717
36	0x3f911e3e	1.1337354
37	0xbd185199	-0.037187193
38	0xbca59f55	-0.020217577
39	0xbea95e41	-0.33079723
40	0xbe3fdf27	-0.1873747
41	0x3ee14145	0.4399511
42	0x3f10c48d	0.5654991
43	0xbf1966e1	-0.59922606
44	0xbe7588f3	-0.23978023
45	0x3e346ed0	0.17620397
46	0xbf3345a5	-0.70028144
47	0x3e6d5818	0.23178136
48	0x3e668352	0.22511032
49	0xbe9f44a9	-0.3110707
50	0xbd93de85	-0.072201766
51	0xbe7afc49	-0.24510302
52	0xbf72f1b6	-0.9490007
53	0x3f02569d	0.5091341
54	0xbe64ea37	-0.22354971
55	0xbf65d58f	-0.8977899
56	0x3e4643ee	0.1936185
57	0xbe8e5bb5	-0.27804342
58	0xbea14b60	-0.3150282
59	0x3e8494d2	0.2589479
60	0xbe81bf73	-0.25341377
61	0x3ed28a12	0.41120964
62	0xbdbf9f47	-0.093565516
63	0xbe31002a	-0.17285219
64	0xbe0b812e	-0.13623497
65	0x3ec4dc5c	0.3844937
66	0x3e9e1063	0.30871877
67	0xbea6d740	-0.32586098
68	0x3f59db60	0.85100365
69	0xbe866f54	-0.26256812
70	0xbd98120f	-0.074253194
71	0x3f2400cc	0.64063716
72	0x3e17ff88	0.14843571
73	0x3ecf8c84	0.40536892
74	0xbf3cf0ee	-0.7380513
75	0xbe95eee3	-0.2928382
76	0x3ec0f1f9	0.3768461
77	0xbe78afba	-0.24285784
78	0xbf1933b6	-0.5984453
79	0x3ef242b7	0.47316524
80	0x3e3aa3eb	0.18226592
81	0x3c6eb938	0.014570527
82	0x3db4c952	0.08827461
83	0x3ce402ee	0.027833428
84	0x3e46601c	0.193726
85	0xbf310864	-0.6915343
86	0xbf161324	-0.58622956
87	0x3f0000b0	0.5000105
88	0xbeb71555	-0.35758463
89	0x3e743b1b	0.23850672
90	0xbdad082f	-0.084488265
91	0xbef5360d	-0.478928
92	0x3ed3be5f	0.4135618
93	0xbe2bd52a	-0.16780534
94	0x3cc1567e	0.023600813
95	0xbee99e72	-0.45628697
96	0xbedf1cce	-0.43576664
97	0x3f23692a	0.6383234
98	0xbf06a052	-0.5258838
99	0xbe0895b2	-0.13338354
100	0x3e82be36	0.25535744
101	0x3e8090f2	0.25110584
102	0xbde530c3	-0.11190941
103	0xbdfae235	-0.12250177
104	0x3f816cea	1.0111363
105	0xbdb4054e	-0.08790074
106	0xbeaa61c2	-0.33277708
107	0xbea60301	-0.32424167
108	0x3ca233da	0.019800115
109	0xbebfcdf9	-0.37461832
110	0xbf2b8924	-0.67006135
111	0xbda9e050	-0.08294737
112	0xbf0b915d	-0.5451868
113	0x3f0226e6	0.50840604
114	0x3ed10701	0.40825656
115	0x3db954b2	0.090493575
116	0x3e679701	0.22616197
117	0xbe7827d4	-0.24233943
118	0xbe202364	-0.156385
119	0xbf11f527	-0.570147
120	0xbeeecc99	-0.4664047
121	0x3ed76397	0.4206817
122	0x3f1e49d5	0.6183141
123	0xbf896edc	-1.0736957
124	0xbf1a9dba	-0.6039692
125	0xbb04128d	-0.0020152659
126	0x3ddf55fd	0.10905073
127	0xbe7ae5f7	-0.24501787
128	0x3f37f916	0.7186445
129	0xbf302f65	-0.6882232
130	0x3d4a4f36	0.049391948
131	0x3f1e279e	0.617792
132	0xbdad0fc9	-0.084502764
133	0xbe426996	-0.1898559
134	0xbfb9f898	-1.452899
135	0xbf5be02e	-0.85888946
136	0x3e8c15f7	0.27360508
137	0xbe1e4c3a	-0.15458766
138	0x3eb510cb	0.35364375
139	0x3eaa122b	0.33216986
140	0xbe3c91e1	-0.18415023
141	0xbe1b4982	-0.1516476
142	0xbee22a45	-0.44172874
143	0xbee2fb50	-0.4433236
144	0x3ddadcb8	0.1068663
145	0xbe5b05c5	-0.2138892
146	0x3eeaa5d2	0.45829636
147	0x3eef5e0e	0.46751446
148	0xbe8150a9	-0.2525685
149	0xbf3ca293	-0.7368557
150	0xbdb548be	-0.08851765
151	0x3ead6794	0.33868086
152	0xbe286411	-0.16444422
153	0x3d886ee6	0.06661777
154	0x3f1da426	0.61578596
155	0x3f083c9f	0.532175
156	0xb8a52235	-7.874185e-05
157	0xbc94dec6	-0.018172633
158	0x3eed0959	0.46296194
159	0xbf307611	-0.68930155
160	0x3e6d3376	0.23164162
161	0xbd87fff7	-0.06640618
162	0x3e86e54b	0.26346812
163	0x3e5521e3	0.20813708
164	0xbf600ee5	-0.8752273
165	0x3e7eea0a	0.24893966
166	0x3ea267ff	0.31719968
167	0xbe97db56	-0.29659528
168	0x3ef1edad	0.47251645
169	0xbe181aed	-0.14854021
170	0xbee34df5	-0.44395414
171	0xbef2f0ac	-0.47449243
172	0xbf1d6aab	-0.6149089
173	0x3c3cab4f	0.0115154525
174	0xbe407c80	-0.18797493
175	0xbf674aa6	-0.9034828
176	0xbeeeb3df	-0.46621606
177	0x3eb71ac9	0.35762623
178	0x3ec0a165	0.37623134
179	0xbee72912	-0.45148522
180	0xbec874f5	-0.3915173
181	0x3e80c018	0.25146556
182	0x3ed36d46	0.41294307
183	0x3edae0e7	0.42749712
184	0xbe2d5f01	-0.16930772
185	0x3e3e9fbf	0.18615626
186	0x3ea0173c	0.31267726
187	0xbe8a222a	-0.2697919
188	0x3d0dbfda	0.034606792
189	0xbd88c2a6	-0.06677751
190	0xbd101f0f	-0.03518587
191	0xbeba0459	-0.36331442
192	0xbf11b3c6	-0.5691494
193	0xbda16bed	-0.07881913
194	0x3dc2fcbb	0.09520861
195	0xbe3bee94	-0.18352729
196	0x3eb87dbb	0.36033425
197	0xbb645e60	-0.003484629
198	0xbf1c167e	-0.6097182
199	0xbea23e9c	-0.31688392
200	0xbe49fff3	-0.19726543
201	0x3e3ea47b	0.18617432
202	0xbe9e5470	-0.30923796
203	0x3e8b0a24	0.27156174
204	0x3c6ddb85	0.01451767
205	0x3f015e62	0.5053464
206	0xbe33beb8	-0.17553222
207	0xbe5cfdb5	-0.21581157
208	0x3e6d2c72	0.23161486
209	0x3eaa07a7	0.33208963
210	0x3d7fc530	0.062443912
211	0xbe971d8c	-0.2951473
212	0xbd8a1f83	-0.06744292
213	0x3e18e10a	0.14929596
214	0xbe861ba1	-0.26192954
215	0xbf0a8444	-0.5410807
216	0x3df646f0	0.12025249
217	0x3e965933	0.2936493
218	0x3f6965cd	0.9117096
219	0xbe474b3c	-0.19462293
220	0x3e7e44a0	0.24830866
221	0xbe655615	-0.22396119
222	0xbed3b96c	-0.41352403
223	0x3ea38841	0.3193989
224	0x3ec07bf4	0.3759457
225	0x3e569235	0.20954211
226	0x3e735b07	0.23765193
227	0x3ede0dcd	0.43369904
228	0x3ebf74da	0.37393838
229	0x3f8069ab	1.0032247
230	0xbe805fcb	-0.25073084
231	0xbedda1ee	-0.43287605
232	0xbf7195e0	-0.94369316
233	0x3e98857f	0.2978935
234	0xbe36e243	-0.1785975
235	0xbdbcae72	-0.0921296
236	0xbf465f52	-0.774892
237	0x3c8838ca	0.016628642
238	0x3e676e8c	0.22600764
239	0xbfe7816a	-1.8086369
240	0x3e5e2fb7	0.2169789
241	0x3d382838	0.04496023
242	0xbf8b809a	-1.0898621
243	0x3e32fe43	0.17479806
244	0x3f63e68b	0.89023656
245	0xbe5966dc	-0.21230644
246	0x3e177062	0.14788964
247	0xbf75ff9f	-0.9609317
248	0x3d1a7ff4	0.03771968
249	0x3f058924	0.52162385
250	0xbf0de24d	-0.5542343
251	0x3f412459	0.7544609
252	0x3e06e059	0.1317152
253	0xbec7370f	-0.38909194
254	0xbf3ba393	-0.7329647
255	0xbf748445	-0.9551433

hidden_layers.1.bias f4 [128]
0	0xbf065b3e	-0.52482975
1	0xbcf06a56	-0.02934758
2	0x3ef2d3d2	0.4742723
3	0x3daca581	0.08430005
4	0xba0c55cf	-0.00053533626
5	0xbf252e42	-0.6452371
6	0x3e894afe	0.26815027
7	0x3cc1b7e2	0.023647252
8	0xbf43cad5	-0.7648137
9	0xbdbcc090	-0.09216416
10	0xbe68b88b	-0.22726648
11	0x3e9dc56a	0.30814677
12	0x3cc2be2b	0.02377232
13	0x3e4ff460	0.20308065
14	0x3ed9a0b7	0.42505428
15	0xbe36163a	-0.17781916
16	0xbf13170f	-0.5745706
17	0xbf635525	-0.88801795
18	0xbf3cac47	-0.73700374
19	0x3cf8d645	0.03037561
20	0xbe7b2f7f	-0.24529837
21	0xbe027d65	-0.12743147
22	0xbe9ddf0e	-0.3083424
23	0x3ee73fb3	0.45165786
24	0x3d6013dd	0.054706443
25	0x3e35435b	0.17701475
26	0xbccf45c7	-0.025301827
27	0x3f271377	0.65264076
28	0xbef01457	-0.46890518
29	0x3e92f208	0.2870028
30	0xbf57e09e	-0.84327114
31	0xbe236776	-0.15957436
32	0x3ef8d640	0.4860096
33	0xbcade826	-0.021228861
34	0xbf69ebc8	-0.913754
35	0x3e6fb43d	0.23408599
36	0x3fa9be66	1.326123
37	0x3ea0321a	0.31288224
38	0x3ebe3163	0.37147054
39	0x3e4a8eba	0.19781008
40	0x3ec17c32	0.37790066
41	0xbe194336	-0.14967045
42	0xbe134c5d	-0.14384599
43	0x3e48a25e	0.19593188
44	0xbeb4ca85	-0.3531076
45	0xbdf7fb72	-0.12108506
46	0xbebfa505	-0.37430587
47	0xbe405480	-0.18782234
48	0x3f1ce576	0.6128763
49	0x3cf92777	0.030414326
50	0x3f17e1ca	0.593289
51	0x3f43818d	0.76369554
52	0xbf0cfdb3	-0.55074614
53	0xbf29703f	-0.661869
54	0x3e5cf640	0.21578312
55	0x3dd20a32	0.10255851
56	0xbe9ee738	-0.3103578
57	0x3ef89a64	0.4855529
58	0xbe7264b2	-0.23671225
59	0xbee2fd48	-0.44333863
60	0xbe91f5e0	-0.285079
61	0x3fbdad88	1.4818583
62	0xbf08919d	-0.5334719
63	0xbe03c763	-0.12869029
64	0x3ec3d0e8	0.3824532
65	0x3ec7348d	0.3890728
66	0x3e511aef	0.2042043
67	0xbf19895b	-0.5997521
68	0xbe4bfc1d	-0.19920392
69	0xbdc87964	-0.097887784
70	0xbfa57ba6	-1.292836
71	0x3ebc4a8e	0.3677563
72	0x3da69a65	0.08134917
73	0xbe66e97c	-0.22550005
74	0xbebc5a4f	-0.3678765
75	0x3d911203	0.070835136
76	0x3f25293f	0.6451606
77	0xbd3826f9	-0.044959042
78	0xbbe534a2	-0.0069947997
79	0xbf546e60	-0.8298092
80	0x3e97fd3c	0.2968539
81	0x3f4391f6	0.76394594
82	0xbebccc9d	-0.36874858
83	0x3e39819b	0.18115847
84	0xbe8426fb	-0.2581099
85	0xbf659d1e	-0.89692867
86	0xbe80390c	-0.25043523
87	0xbe238124	-0.15967232
88	0xbef42439	-0.47683886
89	0xbeac2e33	-0.33628997
90	0xbe872120	-0.2639246
91	0xbdc90ff0	-0.09817493
92	0xb899f7f0	-7.3417905e-05
93	0x3ded0b14	0.115743786
94	0xbd63f8b9	-0.055657122
95	0xbda63321	-0.08115221
96	0xbeb8f4f3	-0.3612438
97	0xbe09d5e6	-0.13460502
98	0x3e76836e	0.24073574
99	0x3f50d382	0.81572735
100	0x3e694508	0.2278024
101	0xbd3d6409	-0.04623798
102	0xbfc5bd70	-1.5448437
103	0xbd395ffa	-0.045257546
104	0xbf04ab92	-0.51824296
105	0x3d91d85e	0.07121347
106	0x3f2968dc	0.6617563
107	0x3e9d219a	0.30689698
108	0x3f09d6e5	0.5384353
109	0xbf2c7c33	-0.6737701
110	0x3e5038fe	0.20334241
111	0xbe5d899e	-0.21634528
112	0xbe8b4715	-0.2720267
113	0x3ecc21b4	0.39869463
114	0x3d7ba2ac	0.061434433
115	0x3e6b34ef	0.22969411
116	0x3e903d18	0.2817161
117	0x3eb06665	0.3445312
118	0xbeaa3fa0	-0.33251667
119	0x3e73988a	0.23788658
120	0x3ea29620	0.3175516
121	0xbe05b7e5	-0.13058431
122	0x3f224854	0.63391614
123	0x3e856498	0.2605331
124	0xbe6d608c	-0.23181361
125	0xbe1f6e3c	-0.15569395
126	0x3d467eff	0.048460957
127	0xbf85120e	-1.0396135

hidden_layers.2.weight f4 [128, 128]
0	0x3eb829f6	0.35969514
1	0xbc616e71	-0.013759241
2	0xbcede1d7	-0.029038353
3	0x3e077a2b	0.13230197
4	0xbe271703	-0.16317372
5	0xbe82bb32	-0.25533444
6	0x3f21cd31	0.6320372
7	0xbe2a694e	-0.16641733
8	0xbe184ac0	-0.14872265
9	0x3f78017b	0.9687726
10	0xbeaf5de8	-0.34251332
11	0x3e68c18f	0.22730087
12	0x3e2c2c80	0.1681385
13	0x3e0522a0	0.1300149
14	0xbed556c8	-0.4166777
15	0x3e950d69	0.29111794
16	0xbeeeda98	-0.4665115
17	0xbe485eba	-0.19567385
18	0xbe849718	-0.25896525
19	0xbebd1a85	-0.36934295
20	0xbea954bd	-0.33072463
21	0x3f0c376b	0.5477206
22	0x3e659ee5	0.22423895
23	0xbf7d9d57	-0.99068207
24	0x3e7f99de	0.2496104
25	0x3e007a6f	0.12546705
26	0x3ee88a63	0.4541808
27	0xbe4573a2	-0.19282392
28	0xbed7b62e	-0.4213118
29	0x3e9e70bd	0.30945387
30	0x3e80ad88	0.25132394
31	0xbe8632a5	-0.26210514
32	0xbe60b5de	-0.21944377
33	0xbebf87de	-0.37408346
34	0xbd580f7e	-0.05274915
35	0x3d14b589	0.036305938
36	0xbedd5579	-0.43229273
37	0xbd935c70	-0.071953654
38	0x3e529915	0.20566209
39	0x3f5ebb15	0.87004215
40	0xbdd7abbe	-0.10530804
41	0x3f065203	0.5246889
42	0xbef8be9b	-0.4858292
43	0xbe342e18	-0.17595708
44	0x3e132f36	0.14373478
45	0xbec82cfe	-0.39096826
46	0x3ed7efc4	0.42175114
47	0xbf02d638	-0.5110812
48	0xbefc8193	-0.49317607
49	0x3ec9e04d	0.3942894
50	0xbe9a8c7f	-0.30185315
51	0x3ed33ea0	0.41258717
52	0xbdf27102	-0.11837961
53	0xbdb655c2	-0.08903076
54	0xbcb0b016	-0.02156834
55	0xbef3f297	-0.4764602
56	0x3e2699c1	0.1626959
57	0xbed0e8a3	-0.40802488
58	0x3ea4bfe6	0.32177657
59	0xbe32ba00	-0.17453766
60	0x3ea12880	0.31476212
61	0xbe171ce9	-0.14757122
62	0x3dd80e1f	0.105495684
63	0xbf1e4423	-0.6182272
64	0x3deb059b	0.114756785
65	0x3e89bca9	0.2690175
66	0xbd6c0bab	-0.057628315
67	0xbecb6161	-0.39722732
68	0x3cfb1f20	0.03065449
69	0xbd84b7e4	-0.06480387
70	0xbeaade71	-0.33372834
71	0x3e3c2b88	0.18375981
72	0xbdb099f8	-0.08623117
73	0xbe0b8dd3	-0.1362832
74	0xbdb05232	-0.086094275
75	0x3cbe5582	0.023234133
76	0xbe6360f5	-0.22204955
77	0x3ebd933b	0.3702639
78	0x3e5082e9	0.20362438
79	0xbec28e3e	-0.37999147
80	0xbf018699	-0.50596005
81	0x3f003b10	0.5009012
82	0x3ecbd5e3	0.3981162
83	0xbd9410bb	-0.072297536
84	0x3d906dd3	0.07052197
85	0xbf2ecae6	-0.6827835
86	0x3da44db4	0.08022633
87	0xbe8bf8d2	-0.27338272
88	0xbf0999f4	-0.5375054
89	0x3da18029	0.07885773
90	0xbf0011ed	-0.5002735
91	0xbe6b2e15	-0.22966798
92	0x3f72ce80	0.94846344
93	0x3eb11b50	0.3459115
94	0x3e5c6c38	0.21525657
95	0xbedc5dfd	-0.43040457
96	0x3ec59c02	0.38595587
97	0xbc7e50f3	-0.0155222295
98	0x3d9dffae	0.07714783
99	0xbe0f8bec	-0.1401822
100	0xbdba4153	-0.09094491
101	0xbf4ed110	-0.80787754
102	0xbe037347	-0.12836944
103	0xbf3b8a7a	-0.73258173
104	0x3ea0f48c	0.31436574
105	0xbd970f60	-0.073759794
106	0xbd9b19bb	-0.07573267
107	0x3d845d49	0.06463105
108	0x3d92e0a0	0.0717175
109	0xbc06f92a	-0.008238116
110	0x3df404b4	0.119149595
111	0x3d974777	0.07386678
112	0x3cf811f6	0.030282002
113	0x3e140102	0.1445351
114	0xbe37b1f2	-0.17938974
115	0x3f3e467c	0.743263
116	0x3d224a3b	0.039621573
117	0xbdc33735	-0.09532014
118	0x3f1e0df0	0.61740017
119	0x3de6ad97	0.112635784
120	0x3e959ca8	0.29221082
121	0xbdbcbe3b	-0.09215971
122	0xbe7f5cdd	-0.24937768
123	0x3e64a00a	0.22326675
124	0x3e12664e	0.14296839
125	0x3da19e66	0.0789154
126	0x3cf99de4	0.030470796
127	0xbe37bd8c	-0.179434
128	0x3eafd1cb	0.34339747
129	0x3c0e66cb	0.0086915
130	0xbda565e6	-0.08076076
131	0x3d93633d	0.071966626
132	0x3e876b33	0.26448974
133	0x3f20cb6d	0.62810403
134	0xbdc65692	-0.09684481
135	0xbe389263	-0.18024592
136	0xbef8c637	-0.48588726
137	0xbd54f08d	-0.05198722
138	0x3e1d9fd4	0.15393001
139	0xbe999f75	-0.3000447
140	0x3e5e1c7f	0.21690558
141	0x3b966d2c	0.004590651
142	0xbe332ffe	-0.17498776
143	0xbe639b45	-0.222272
144	0x3de39f27	0.1111434
145	0xbe99b005	-0.30017105
146	0xbea8a604	-0.3293916
147	0x3ebb7a97	0.36616966
148	0x391718d6	0.00014409734
149	0xbeac3998	-0.3363769
150	0xbe7f9630	-0.24959636
151	0xbd404d6b	-0.04694883
152	0x3eb09bd0	0.34493876
153	0x3eba3500	0.3636856
154	0xbd88ec23	-0.066856645
155	0xbd3486bc	-0.044073805
156	0xbe243dad	-0.16039152
157	0xbe5ef6ef	-0.21773885
158	0x3e151b88	0.14561284
159	0xbef0ab22	-0.47005564
160	0x3ceaa8a5	0.02864487
161	0x3f750c94	0.9572232
162	0xbec7d9cf	-0.39033362
163	0xbe171c25	-0.1475683
164	0x3d3a3af4	0.04546638
165	0x3e16e85c	0.14737076
166	0xbf1c7d28	-0.61128473
167	0x3edf34c4	0.43594944
168	0xbd7a6a0f	-0.0611363
169	0x3e1ebfb3	0.15502815
170	0xbe1a48bc	-0.15066808
171	0xbe461992	-0.19345692
172	0x3e4f283e	0.20230195
173	0xbe8cd766	-0.27508086
174	0x3f23ebaf	0.640315
175	0xbf1e2b8d	-0.61785203
176	0x3e02f3b0	0.12788272
177	0x3da6c8dd	0.081437804
178	0xbde95149	-0.11392457
179	0xbebfffcc	-0.37499845
180	0x3f0f8dc8	0.56075716
181	0x3d8c2f23	0.06844928
182	0x3ea61dbe	0.32444566
183	0xbebfc457	-0.37454483
184	0x3e416ef8	0.18889987
185	0xbda5e25e	-0.08099817
186	0x3d316323	0.043307435
187	0x3efa7993	0.4892088
188	0xbbd56f07	-0.0065134796
189	0xbf04d963	-0.51894206
190	0xbce98ac5	-0.028508553
191	0x3e63731a	0.22211877
192	0xbe9673a6	-0.29385108
193	0xbc93684f	-0.017994074
194	0xbebd5e08	-0.36985803
195	0xbc9da6e6	-0.019244622
196	0x3ea5c0b6	0.3237359
197	0x3d526cb8	0.051373214
198	0xbecdc4ed	-0.40189305
199	0x3e2deeb9	0.16985597
200	0x3dac7728	0.08421165
201	0x3ec18330	0.377954
202	0xbea8b869	-0.32953194
203	0x3c72ea96	0.014826437
204	0x3e7c20d7	0.24621902
205	0x3e1d8ba5	0.15385301
206	0xbeff4d92	-0.4986387
207	0xbe02d978	-0.1277827
208	0xbeb7e2b2	-0.35915142
209	0xbd806032	-0.06268348
210	0x3ed06fa8	0.40710187
211	0x3ec75df4	0.38938868
212	0x3d0279ca	0.03185443
213	0xbe5b139e	-0.21394202
214	0x3db2a31c	0.08722517
215	0x3e5b621b	0.21424143
216	0x3ea41948	0.32050538
217	0xbe0135e7	-0.12618218
218	0xba113ea0	-0.0005540643
219	0x3efcfe45	0.49412742
220	0x3edf997b	0.43671784
221	0xbdafecc5	-0.08590082
222	0xbefccba0	-0.49374104
223	0xbcc48e12	-0.023993526
224	0xbe896a3b	-0.2683886
225	0x3ea6d927	0.3258755
226	0xbd8f56b5	-0.0699896
227	0xbe8e3d3a	-0.27781087
228	0x3e09509f	0.13409661
229	0xbec5fdac	-0.386701
230	0xbd4f7348	-0.05064705
231	0xbe64bfa0	-0.22338724
232	0xbe34e8e3	-0.17666964
233	0x3ea2c09f	0.31787583
234	0xbe177930	-0.14792323
235	0x3e46f8d0	0.19430852
236	0xbe021fdc	-0.12707466
237	0xbc98a32e	-0.018632498
238	0x3de9bb8b	0.11412724
239	0x3ebe0e9f	0.3712053
240	0xbd3ede57	-0.04659876
241	0xbe5ef71a	-0.2177395
242	0x3edeaa06	0.43489093
243	0x3ea8239e	0.32839674
244	0x3d97230e	0.07379733
245	0x3f3448dc	0.70423675
246	0x3e65cfe1	0.22442581
247	0xbc3854be	-0.011250673
248	0xbf0d1ec9	-0.551251
249	0x3ee7fe42	0.4531117
250	0xbe8087c1	-0.25103572
251	0x3e5f73b7	0.21821485
252	0x3edeeb1e	0.43538755
253	0xbe667cc6	-0.22508535
254	0x3ec13758	0.37737536
255	0x3e4b72a1	0.19867946

hidden_layers.2.bias f4 [128]
0	0xbf7f876e	-0.99816024
1	0x3efc79bc	0.49311626
2	0xbf8e29f9	-1.1106559
3	0x3ea367d4	0.31915152
4	0xbfb13ae6	-1.3846099
5	0xbfbcecb7	-1.475974
6	0xbf82e111	-1.0224935
7	0xbf943016	-1.1577175
8	0xbf431ff6	-0.76220644
9	0xbfcf6b3b	-1.6204599
10	0xbff0a14e	-1.8799226
11	0xbe42d8ed	-0.19028063
12	0xbea98e0b	-0.33116183
13	0xbf52fe6f	-0.82419485
14	0xbf8aeeb3	-1.0854095
15	0xbf48bdc2	-0.7841455
16	0xbdd8a4b2	-0.10578288
17	0xbf8c0a62	-1.0940669
18	0xbfa6d1c8	-1.303277
19	0xbf869218	-1.0513334
20	0xbd4e0e26	-0.05030646
21	0xbf875cc9	-1.0575191
22	0x402e8f06	2.7274795
23	0xbf67721a	-0.9040848
24	0xbf85b8e0	-1.0447044
25	0xbf8eac76	-1.1146381
26	0xbf55a315	-0.8345197
27	0x3e3b7594	0.18306571
28	0xbfb71278	-1.4302511
29	0x3f02d554	0.5110676
30	0xbf7d0f08	-0.9885106
31	0xbe494961	-0.19656898
32	0x3fc4eda9	1.5385028
33	0x3e1554e2	0.14583161
34	0xbf873bdb	-1.0565141
35	0x3eff77d8	0.4989612
36	0x3f1df4c2	0.61701596
37	0x3eeb6544	0.45975697
38	0x3f24e994	0.6441891
39	0xbfd5a16b	-1.6689886
40	0x3effd9bd	0.4997081
41	0xbfa10a42	-1.2581255
42	0xbf2b0f6a	-0.66820395
43	0xbf53cce6	-0.82734525
44	0x3f717c2b	0.9433009
45	0x3f7acef6	0.9797205
46	0xbfd89272	-1.6919692
47	0xbfd6820a	-1.6758435
48	0x3f82ac3a	1.0208809
49	0xbfff591e	-1.9949071
50	0xbfaa5204	-1.3306279
51	0xbe52b9dc	-0.20578712
52	0xbfcf733b	-1.620704
53	0xbfc46d76	-1.5345905
54	0xbf5495e4	-0.83041215
55	0xbf58c867	-0.8468079
56	0x3f172147	0.5903515
57	0x3f712cb3	0.9420883
58	0x3e898bc2	0.2686444
59	0xbf908c0d	-1.129274
60	0xbf327e1a	-0.69723666
61	0xbf2d4208	-0.6767888
62	0xbf1aed87	-0.6051869
63	0xbfc769d3	-1.557917
64	0xbf931a43	-1.149239
65	0xbf4f2ed2	-0.8093082
66	0x3daa6861	0.0832069
67	0xbfebf3d3	-1.8433784
68	0x3f53a95c	0.82680297
69	0xbf90a422	-1.1300089
70	0xbf893b95	-1.0721308
71	0xbfa4db3e	-1.2879407
72	0xbf0bc87b	-0.54602784
73	0xbfb58240	-1.4180374
74	0xbf753a56	-0.9579214
75	0x3e86486f	0.26227137
76	0xbf9f3cfa	-1.2440484
77	0xbf63b7db	-0.88952416
78	0xbf8d075a	-1.1017869
79	0xbf94561c	-1.1588778
80	0x3f37dbef	0.7181997
81	0x3f41f845	0.75769454
82	0xbed5525b	-0.41664395
83	0xbfe03dea	-1.7518895
84	0xbf970b5e	-1.1800344
85	0x3f9d45ca	1.2286923
86	0xbe697151	-0.22797133
87	0xbfe108b5	-1.7580782
88	0xbfbd3de3	-1.4784511
89	0xbfa22b8f	-1.2669543
90	0xbf7786dc	-0.96690154
91	0x3f84734a	1.0347683
92	0xbfd97993	-1.6990227
93	0xbe11c61b	-0.14235727
94	0xbfd14e1d	-1.6351963
95	0xbfb64603	-1.4240116
96	0xbf9e30c3	-1.2358631
97	0xbf670f08	-0.9025731
98	0xbf7ede3c	-0.9955785
99	0xbf2763fc	-0.6538694
100	0xbf056edd	-0.5212229
101	0xbf10a1f5	-0.56497127
102	0x3f7a52b8	0.9778247
103	0x3e96f9e9	0.2948754
104	0xbfc35992	-1.526171
105	0x3fbde2ff	1.4834899
106	0xbf7b9ede	-0.9828929
107	0x3f31ee8d	0.69504625
108	0x3e64c7f4	0.22341901
109	0x3f4a5814	0.79040647
110	0xbf3973b9	-0.72442204
111	0x3f682c59	0.9069267
112	0x3ed198ed	0.40936986
113	0xbf9e45d4	-1.236506
114	0x3fb6b5ed	1.4274269
115	0xbfb12865	-1.3840452
116	0xbf8d21f4	-1.1025987
117	0xbdc81d60	-0.09771228
118	0xbf0ddde6	-0.55416715
119	0xbee9c688	-0.4565928
120	0x3eebe1d2	0.46070725
121	0xbf888fd1	-1.0668889
122	0xbe6c7073	-0.23089771
123	0x3fc9096c	1.5706
124	0x3f8e3368	1.1109438
125	0x3fb168b4	1.3860078
126	0xbf23d36d	-0.63994485
127	0x3f59feaa	0.8515421

output.weight f4 [1, 128]
0	0xbc5cf7ad	-0.013486785
1	0x3c3a04a4	0.0113536455
2	0xbc937400	-0.017999649
3	0x3cb96e70	0.022635669
4	0xbc7be9d1	-0.01537557
5	0x3b04d8a9	0.002027074
6	0xbd1362b1	-0.03598279
7	0xbb1842aa	-0.0023233094
8	0xbc1253ad	-0.008931083
9	0xbca3a98c	-0.019978307
10	0xbcd5ce8c	-0.026099466
11	0x3cb50710	0.022098094
12	0xbca653db	-0.020303657
13	0xbcbcbf8e	-0.02304056
14	0xbcec462d	-0.028842056
15	0xbc8441ab	-0.016144594
16	0xbc86c36f	-0.016450612
17	0xbcafdf11	-0.021468671
18	0xbccb55ee	-0.024821248
19	0xbd32e8a0	-0.04367888
20	0x3c5eb396	0.013592621
21	0xbd82186d	-0.06352315
22	0x3ea1cc22	0.31601053
23	0x3cdec1bc	0.02719199
24	0xbc22b486	-0.009930735
25	0xbbb88fc8	-0.0056323744
26	0x3cb54f71	0.022132607
27	0x3c4e11c6	0.01257748
28	0xbc2daf06	-0.010600811
29	0x3c918461	0.017763318
30	0xbc38b43b	-0.011273439
31	0x3bf9e597	0.007626246
32	0x3ca735c5	0.020411381
33	0x3c3fcde0	0.011706799
34	0xbd18692a	-0.037209667
35	0x3d3518ef	0.04421323
36	0x3cad9bb9	0.021192418
37	0x3cb66936	0.022266965
38	0x3c82ba35	0.015957931
39	0x3a53a5a2	0.00080736924
40	0xbbf5fe05	-0.007507088
41	0x3c2f07a2	0.010682972
42	0x3ca9b07b	0.020714035
43	0xbb9c5bde	-0.0047716936
44	0x3ca20910	0.019779712
45	0x3cbfaed1	0.023398789
46	0xbc98547a	-0.018594969
47	0xbc5b4c13	-0.013384837
48	0x3d0b0f44	0.033950105
49	0xbc7007b1	-0.014650271
50	0xbc3ea930	-0.011637017
51	0x3bfb34d5	0.00766621
52	0xbc5b2ba3	-0.013377103
53	0xbb758bce	-0.0037467363
54	0xbc56722b	-0.013088743
55	0xbbd20d86	-0.0064103035
56	0x3cd0a8e7	0.025471164
57	0x3c8b12d6	0.016976755
58	0xbbe3b066	-0.0069485186
59	0x3af4bf51	0.0018672739
60	0xbca5038a	-0.02014329
61	0xbcaec4c8	-0.021334067
62	0x3ce945e3	0.028475707
63	0xbd17ea7e	-0.037088864
64	0xbcb64ebe	-0.022254344
65	0xbc5955e0	-0.013265103
66	0x3ce66ed2	0.028129015
67	0xba58954b	-0.00082619925
68	0x3c4399da	0.011938537
69	0xbc28403f	-0.010269224
70	0xbc544884	-0.012956742
71	0xbc8c89df	-0.017155586
72	0xbcbf9fe0	-0.023391664
73	0xbc812308	-0.015763775
74	0x3d07bc04	0.03313829
75	0x3c92cfc5	0.017921338
76	0x3b0f2bcf	0.002184618
77	0xbc874d19	-0.016516255
78	0x3c35872f	0.011079594
79	0xbceff166	-0.029289912
80	0x3cc1bbd8	0.023649141
81	0x3c088766	0.008333063
82	0xbc894c78	-0.016760096
83	0xbd2171df	-0.039415237
84	0x3c0585e3	0.008149597
85	0x3c51787f	0.012785076
86	0xbd0dfed9	-0.03466687
87	0xbcf8fce3	-0.030394023
88	0x3c367856	0.011137089
89	0xbd1db4af	-0.03850239
90	0xbc8f5c0e	-0.01749995
91	0x3ceb2403	0.028703695
92	0xbc404684	-0.011735562
93	0xbc3550a6	-0.011066591
94	0xbb3cf104	-0.002883018
95	0xbcb55c71	-0.022138806
96	0xbc73b618	-0.0148749575
97	0xbcb949a9	-0.022618132
98	0xbce5ca75	-0.02805064
99	0xbd17a869	-0.037025843
100	0xbc3f2083	-0.011665466
101	0x3cb22667	0.021746827
102	0x3c5fa468	0.013650037
103	0x3c822946	0.015888821
104	0xbcc4340c	-0.0239506
105	0x3cda91cb	0.026680848
106	0xbcca36ba	-0.024684299
107	0x3bcee6d7	0.0063141393
108	0xbcd44159	-0.025910066
109	0x3cade0fa	0.021225441
110	0x3c5aa218	0.01334431
111	0x3cd36fec	0.025810204
112	0x3cad77cc	0.021175288
113	0xbd069997	-0.03286132
114	0x3ce21e17	0.027602239
115	0xbbc9e1e9	-0.006160964
116	0xbbd8e4bd	-0.0066190646
117	0x3cd5797b	0.026058903
118	0xbd0cd425	-0.034382004
119	0xbb808505	-0.003922107
120	0x3c0f872f	0.008760258
121	0xba76e893	-0.00094188115
122	0x3c0b30e8	0.008495547
123	0x3c950dc0	0.018195033
124	0x3c82de0d	0.015975023
125	0x3c3f4b3b	0.011675651
126	0xbc919133	-0.017769432
127	0x3ca0bcc3	0.019621259

batchnorm.weight f4 [33]
0	0x3e770660	0.24123526
1	0x3df48547	0.11939483
2	0x3e93fca8	0.289037
3	0x3cd26110	0.025681049
4	0x3cb79155	0.022408167
5	0x3c904c3d	0.017614478
6	0x3d05c2ff	0.032656666
7	0x3c92d590	0.0179241
8	0x3d454157	0.048158016
9	0x3d51c87c	0.051216587
10	0x3d7bc5f3	0.061468076
11	0x3d823721	0.06358171
12	0x3d87837d	0.06616876
13	0x3ee35ba3	0.4440585
14	0x3e258cc4	0.16166979
15	0x3eec5171	0.46155885
16	0x3ced4025	0.02896125
17	0x3c9a1b97	0.018811984
18	0x3ce2ddf7	0.027693732
19	0x3cf58023	0.029968327
20	0x3d3f0ce0	0.046643138
21	0x3d2127cd	0.039344598
22	0x3cf12e8c	0.02944114
23	0x3e29e7b6	0.16592297
24	0x3dd805b1	0.105479605
25	0x3e24a9cf	0.16080402
26	0x3ed20784	0.4102136
27	0x3ec8bbbc	0.3920573
28	0x3ecaa96d	0.39582387
29	0x3f406a98	0.7516265
30	0x3e6d1ad8	0.23154771
31	0x3f3124fd	0.69197065
32	0x3edf268c	0.43584096

batchnorm.bias f4 [33]
0	0xbd197a77	-0.037470307
1	0xbe2072cc	-0.15668792
2	0xbd433669	-0.04765931
3	0x3c9974fa	0.018732537
4	0x3bdc3f84	0.006721439
5	0x3b5feb93	0.0034167513
6	0xbc97eb15	-0.018544713
7	0xbc186d63	-0.009303424
8	0x3b476399	0.0030424355
9	0xbb98b594	-0.0046603177
10	0xbc92de6c	-0.017928325
11	0xbd0b6933	-0.034035873
12	0x3b33b194	0.0027419077
13	0xbe2c4871	-0.16824509
14	0xbd2d491e	-0.042306058
15	0xbcc9e798	-0.024646565
16	0xbc00ff94	-0.007873435
17	0xbb8408e2	-0.004029379
18	0x3bba1bc5	0.00567958
19	0xbb4388b0	-0.002983611
20	0xbc2389e5	-0.009981607
21	0x3bb7f979	0.0056144563
22	0xbc1456c1	-0.009053887
23	0xbd50d8d3	-0.05098803
24	0xbbb1e157	-0.005428474
25	0x3c4b60fe	0.012413261
26	0xbe3b7ae0	-0.18308592
27	0x39cd2765	0.00039129998
28	0x3d2559dd	0.040368903
29	0xba8ec5a4	-0.0010892642
30	0x3a8eebf9	0.0010904066
31	0x3aeab821	0.0017907658
32	0x3d7adf7e	0.061248295

batchnorm.running_mean f4 [33]
0	0x3fad653e	1.3546522
1	0xc02173aa	-2.5226846
2	0xbefc6996	-0.49299306
3	0x3f499d7a	0.78755915
4	0x3e15cd26	0.14629039
5	0xbc859241	-0.01630509
6	0xbd6a04fd	-0.057133663
7	0xbd832a16	-0.06404512
8	0x3c1f6ec2	0.009730997
9	0x3b2f1c78	0.002671985
10	0xbbe17c12	-0.0068812454
11	0xbd02d1e5	-0.031938452
12	0x3e082a64	0.1329742
13	0x3fc74de3	1.5570644
14	0xc03db8af	-2.9643972
15	0xbec9b4a1	-0.3939562
16	0x3d11ad36	0.035565577
17	0xbd4eea9f	-0.05051672
18	0xbc19564e	-0.009358956
19	0x3c954653	0.01822201
20	0x3e09d9e6	0.13462028
21	0x3bbe9ee3	0.0058172806
22	0x3ce16286	0.0275128
23	0xbcba0ba0	-0.022710621
24	0x3d8b804e	0.068115816
25	0x3e9c7abb	0.30562386
26	0x3f006b0a	0.5016333
27	0xbf7ffffc	-0.99999976
28	0x3eaa955d	0.3331708
29	0x00000000	0.0
30	0x3f7ffffc	0.99999976
31	0x00000000	0.0
32	0x3b5c91cc	0.0033656238

batchnorm.running_var f4 [33]
0	0x404101f6	3.0157447
1	0x3f7c3295	0.9851468
2	0x4062bce9	3.5427802
3	0x3e0a97e7	0.13534509
4	0x3d6460b7	0.055756297
5	0x3d793803	0.060844433
6	0x3dca5aaa	0.09880574
7	0x3ef82eef	0.48473307
8	0x3d435aee	0.04769414
9	0x3dc92bd6	0.09822814
10	0x3fe20a2b	1.7659353
11	0x3f987cc0	1.1913071
12	0x40172900	2.3618774
13	0x416ed6a1	14.9274
14	0x400be9f2	2.186154
15	0x419b2e34	19.39756
16	0x3e0dbe9b	0.13842241
17	0x3eb233fd	0.3480529
18	0x3df01f75	0.1172475
19	0x3eca27b1	0.39483407
20	0x4006ed0a	2.1082177
21	0x3f0a209e	0.5395602
22	0x3fad4d54	1.3539224
23	0x40dac6ff	6.8367915
24	0x403979ef	2.8980672
25	0x410a4047	8.640693
26	0x41f83bc5	31.029184
27	0x00000004	6e-45
28	0x420277c4	32.61696
29	0x00000004	6e-45
30	0x00000004	6e-45
31	0x00000004	6e-45
32	0x3e9c71f2	0.30555683
