Continuous Control/checkpoint_actor.pth (torch_old, 170678 bytes, 10 tensors)

hidden_layers.0.weight f4 [256, 33]
00000000: ea48 d73d a423 9bbe 22e5 6e3e ae8e 5e3e
00000010: 79c0 a73e 501c 28bd 44be 24bf 1a0a 853e
00000020: 4d43 6fbe bdef cf3e 9126 663e 5e3d aebe
00000030: ce44 903d c1e0 90be eebf 9c3e 80d4 6cbb
00000040: 19fd e23e e698 ac3c 2fc2 05be 8969 f4bd
00000050: d927 f33d 53fa b33b 296b 47be f344 f2bd
00000060: 907a f83e fd3b f1bd ce91 cebe b5f8 2cbf
00000070: f05d 14bf 65f0 4b3e 7c3c 69bc 9d68 59bd
00000080: 1fde adbe 08fe c53e 6617 993b 0bc3 383f
00000090: 665f b93e 38f3 253e c93d e9be dc87 3cbe
000000a0: e12f a53d 3894 8a3d df36 9dbe 73c1 e13c
000000b0: 2167 0cbe 7b70 b1bd c5a7 8ebe cf5e 72be
000000c0: dc56 33bf 8b0f 45be 7b99 0abe 180e 97be
000000d0: e86a 08be b3e8 443d 8789 f83e d480 183f
000000e0: ad79 9cbc 7a03 ca3d 6d2b 8f3e a38a 363e
000000f0: 2569 2ebc 7381 95bd bb35 f0bd 8cbe 793d
00000100: b0e1 babd b965 a83d 8d62 84bd 7532 323d
00000110: 7143 9eba 4d26 96be 2d69 88bc ace6 62be
00000120: 33c9 5a3c 5d93 953e 6b36 9e3d 7755 ebbd
00000130: 3e49 3b3e 1f6f cebd 0e67 943d b562 553d
00000140: 1e3b 6fbd 8886 3a3d 92b6 d7bd 3162 613e
00000150: b6c3 d13d 1814 63be 5873 11bd f2c3 9abe
00000160: 690f 443d 37e7 733e 2b06 e4bb 0374 b33c
00000170: 9563 a23e 2f4b 4ebc b510 70bf 3541 6e3e
00000180: beaf 13be 47c3 4b3e 932c 18bf ba46 15be
00000190: ea7b 3fbc 1b4a 753f eb21 b1be 5d3b be3e
000001a0: 92f6 22be e04a 18be 7eba 613e 3e21 b0be
000001b0: 67a6 89be e641 8a3e d8c5 223e 431a b53e
000001c0: 0b73 f53e 5dc7 83ba 20ac 7cbf 93f5 0fbe
000001d0: 3613 bd3e eb18 00bf d9de dcbd 14d5 943c
000001e0: 5983 183e 5d4d ebbd 39d7 823e b20f 25be
000001f0: c5b8 57bd c02a 98bd ebad 983e 7656 f63e
00000200: 0e86 2e3e a0b4 b4be cd9e 713e 4109 8b3e
00000210: e7e9 39be ad52 293f 42fd bbbd e39c 123e
00000220: 6475 143c 966c d3be f1c9 38bf a760 b8be
00000230: 9494 703f 9f7b ae3c 8ba9 95be 8021 da3e
00000240: 3e77 b73d d867 143f b98c 8fbe f4e0 a6be
00000250: edcd 07be 6147 293d 2c43 0d3d 35e5 8a3d
00000260: 26fd 0c3f d91b 14bf e259 f23e 58cf 9bbe
00000270: 805f 64be 9939 0bbf acaf 7abd 3d2a ab3d
00000280: 88dd c8be 9b27 7f3e 162b 5c3e 1a8f aabe
00000290: 28cb 83bd 4b4d 15be e90f bc3e 02ae 16be
000002a0: cb2e c4be bb57 81be ea37 e73d 8632 7abe
000002b0: 61e6 f0bd be2e b43e 595f 903e 5325 963e
000002c0: 2224 bb3b e527 adbe c346 ab3e b94e 25bf
000002d0: 8a3e 28bf b81a 43be 716d a43e e7ca 4cbd
000002e0: 5bf4 403c 3f36 10bd b7d0 4f3e 8092 0e3e
000002f0: 930b cf3d 1dc1 83be 8b0d b8be 37a6 d6be
00000300: 868e 00bf dd50 5ebf 188c 64be 5ee8 9bbe
00000310: 67b2 ed3e 9702 30be a3f9 b43e 8954 a73e
00000320: e4dc ea3e 98e3 043e 3ba1 e1bc 4053 12bf
00000330: 98aa 74be 2d29 2c3e 69d5 f0be b78a 80be
00000340: b998 04be 551f 3e3d c0a7 e93d c340 dfbe
00000350: edfd 06be 7515 163e 7835 81be 6c7e dd3d
00000360: d800 13bf 3d37 17bf bc89 713e a776 abbe
00000370: 8ce4 2b3e f7f1 b9be 152b 133d a33c 193c
00000380: dec0 4d3f ce2b 4a3e f4ea 2ebe eed3 483e
00000390: 0efb 5abe 81f0 3cbe fc26 79bf ede6 18bf
000003a0: 0ded 4b3f 6be8 f6bc 0e31 303d 91dc 55be
000003b0: fd90 0dbe 309d c3be 73df 8a3e 7bcd 2bbe
000003c0: 4b65 913e 81ca 01bf 75db 1d3f ecc5 b03e
000003d0: cb80 b03e c464 2ebe cc21 073f 765a 12bf
000003e0: c37b 773e 78d4 3cbe 9742 60be a226 1f3e
000003f0: 090c 043c 78fc 83be 1d0c 473e 996c 6ebe
0.10511954 -0.3030063 0.23329595 0.21734115 0.32764032 -0.041042626 -0.6435282 0.2598427
-0.23365517 0.40612593 0.2247565 -0.34031194 0.070443735 -0.28296474 0.3061518 -0.0036137402
0.44333723 0.021069001 -0.13062356 -0.11934192 0.11872835 0.0054924875 -0.19474472 -0.11829557
0.48531008 -0.1177902 -0.40345615 -0.67566997 -0.5795584 0.19915922 -0.014235612 -0.053078283
-0.33958527 0.38670373 0.0046719788 0.7217261 0.36205596 0.16206062 -0.4555495 -0.18411201
0.08065773 0.06766552 -0.30705926 0.027558064 -0.13711216 -0.08664032 -0.27862373 -0.23668979
-0.7005441 -0.1924421 -0.1353511 -0.2950294 -0.13322031 0.04807348 0.48542425 0.59571576
-0.019100988 0.09863944 0.2796282 0.17826323 -0.010645186 -0.07300081 -0.11728998 0.060972735
-0.09125078 0.08222527 -0.064641096 0.04350515 -0.0012074542 -0.29326096 -0.016651714 -0.22158307
0.013353634 0.29213992 0.07725223 -0.114909105 0.18289658 -0.100797884 0.072462186 0.052096087
-0.058405988 0.045538455 -0.105328694 0.22010113 0.10242407 -0.22175634 -0.03551039 -0.3022762
0.04786626 0.2381867 -0.006958743 0.021905905 0.317166 -0.012591167 -0.9377549 0.23267062
-0.14422509 0.19898711 -0.59443015 -0.14577761 -0.011687258 0.958162 -0.3459619 0.37154666
-0.15914372 -0.14872313 0.22043797 -0.34400362 -0.26884767 0.27003402 0.15895784 0.353716
0.47939333 -0.0010053922 -0.9870014 -0.14058523 0.3692872 -0.5003802 -0.10784692 0.01816801
0.14893855 -0.11489365 0.25554827 -0.16119269 -0.052666444 -0.07430029 0.2982019 0.4811284
0.17043325 -0.35294056 0.23595734 0.27155498 -0.18155633 0.6614178 -0.091791645 0.1431766
0.009061191 -0.41293782 -0.7218314 -0.3601124 0.9397671 0.021299182 -0.29230914 0.42603683
0.089582905 0.57970953 -0.2803705 -0.325935 -0.13262148 0.041327838 0.03448789 0.06781999
0.55073774 -0.5785499 0.473342 -0.30431628 -0.22302055 -0.5438476 -0.06120269 0.08357666
-0.39231515 0.24917452 0.21500811 -0.33312303 -0.06435233 -0.14580266 0.36730888 -0.14714816
-0.3831695 -0.25262246 0.11289962 -0.24433336 -0.11762691 0.3519191 0.28197744 0.2932535
0.0057110945 -0.338195 0.33452424 -0.64573246 -0.6572043 -0.19053161 0.32114747 -0.04999819
0.011777009 -0.035207983 0.20294462 0.13923073 0.101096295 -0.2573327 -0.35947832 -0.41923687
-0.50217474 -0.8684214 -0.22319067 -0.3045072 0.46425173 -0.17188488 0.35346708 0.32681683
0.4587165 0.12977445 -0.027542701 -0.5715828 -0.23893201 0.16812582 -0.4703782 -0.2510583
-0.12948884 0.0464166 0.11408949 -0.43604097 -0.13182802 0.14656623 -0.25236106 0.10815129
-0.5742316 -0.5906866 0.23587698 -0.33488962 0.16786402 -0.36317417 0.035929758 0.009352836
0.80372417 0.19743273 -0.17081815 0.19612095 -0.21384832 -0.1845112 -0.9732511 -0.59727365
0.79658586 -0.030140122 0.043015532 -0.2088492 -0.1382484 -0.38205862 0.27123603 -0.16777603
0.28397593 -0.5069962 0.6166299 0.34526002 0.3447326 -0.17030627 0.52785945 -0.5716928
0.24168305 -0.18440425 -0.21900402 0.15542081 0.00805951 -0.25778556 0.19438215 -0.23283614

hidden_layers.0.bias f4 [256]
00000000: 854d e3bb 8147 933d 605b 01be b4bc 513e
00000010: 1b4d 20bc 5a98 c4be d595 6fbe 227d 1abe
00000020: 62e2 343e e73d 943c c5ef 01bf f5c8 2638
00000030: a9ec 94bc ebbf 74bd 4986 d93e 02cb f53d
00000040: 190d c0be 682b 33be 22ba d0bd a2d6 69be
00000050: 5948 393d d3ad 0d3e 9aa2 cdbd b7b1 81be
00000060: 330d 11be 84d0 a6be 59bc cdbe 7b90 ccbd
00000070: 5262 cbbd ba2a 61be 83aa a7be d2e9 a9be
00000080: d855 86be 0bcd 04bd c793 983c 6aa8 a1be
00000090: 9fbb 473e ebae a5be 4433 edbe 8083 cf3c
000000a0: c3a0 50be 9436 a73d e70e 20be 67ba 7abe
000000b0: fd91 813e 9650 4fbe 587a 5f3d 0a52 7dbd
000000c0: c112 d6bd c16d edbc 9253 debe 7a57 b4bd
000000d0: a98f 80be 397b 0ebf 0292 343d 5353 94be
000000e0: 739c f6bd ba65 223e 012e c3bd 791e 82bd
000000f0: 0782 dbbe a4f2 113e 5c74 b6be c7fa 0fbe
00000100: 4c44 85be e222 f0bd f690 e03d 55d0 673c
00000110: 9719 dd3d 633a 9e3e 40f3 c23e 572a eb3d
00000120: 8186 f1be b661 9ebe 958d 863d ac94 5d3b
00000130: cbfc 44be b626 92be e316 b5bd 2ab6 1dbe
00000140: 3b92 463e d8af ba3c 0e43 1abe 2988 ef3d
00000150: a44c 04be 6256 8d3d 7456 073e fbb9 003e
00000160: 27b2 0cbe bbdd f93c 176f 2bbe bf64 1f3e
00000170: defd abbd bff0 c8be 4abb 1ebe 6431 f13e
00000180: e6a2 283e 6caf 7dbd 82d8 013e 59bf 19be
00000190: d345 3c3e 1e97 53be 3481 b1bd 20a4 10be
000001a0: a3ee 9cbe 2e3e 8c3c cabb 15be d5e7 e63d
000001b0: 3550 2d3e 5bd3 903d 5fd7 34be 77c5 d73d
000001c0: 7898 11bd 23fd 06be 7ec9 0b3e b9bd 71be
000001d0: ae89 0ebd 0bd2 b4be b3dd a7be e980 02bf
000001e0: 73cb 653c 9100 c13b 57b7 4cbe cc54 adbe
000001f0: 9b3a 79be 486c 2f3e 0acf 5e3e 082e 80be
00000200: d856 03be 7459 06be f7b9 83bd 9fdc 80be
00000210: 7de4 f4bc 3f96 ad3e 22d7 643e d603 b63d
00000220: 30ab b8be 5e46 55be e618 a1be 938f 6dbe
00000230: 79f1 1bbe d1ac babe d06a 1fbd 95b6 8fbe
00000240: e528 7cbd 78cf e4be 2783 99be 47e9 80bd
00000250: 050f 453b 17c3 a9bd 960d 3abe 5a7b 0fbe
00000260: d2be a5bd 51a8 7cbe 3eb0 4fbd bd20 ee3d
00000270: d0bc 2ebe 7851 243e 0fb7 12bf c4fd d1be
00000280: b11f 8dbd 4697 f83c 77f1 b3bd 2696 1abe
00000290: 297d 353d 4ab3 f4be 1562 463e 056a 59bd
000002a0: 3e75 75bd abfd 03be e5ce 96be 32cc 5f3c
000002b0: c82a d43d 5a62 5b3e 7bb9 1ebe b919 eabd
000002c0: b4a3 4e3e ab19 a8bd a0c5 1a3d f32e b6bd
000002d0: 6cc1 163d ef3e 64be 59e3 8f3d 178d 74bd
000002e0: 752c f0bd 8926 073e 038d 9fbe a595 c93e
000002f0: 7da6 303d 433c a73d 594b 4bbe 72bf 4ebe
00000300: 702f eebd 1819 11be 1d49 513d 62b9 79bd
00000310: 5105 05bd fb23 64be 8f88 d9bd d61e 613c
00000320: e7ef b6bd 5b9a 863e 1fa3 aeb9 dfc9 d0be
00000330: 6ef2 3ebe 61e2 203d de97 e8bd 016c ce3c
00000340: 4245 f6be c86d 863d 0ad2 0e3f a27b 74bd
00000350: 6e06 c33d e8d1 c3ba 3868 86ba 7e4a 3d3e
00000360: 6ded 0bbe d593 bebe 0227 6ebe 6bb9 4739
00000370: f5ae 5f3b 50b3 8ebe 703a 533d 7bb3 d7be
00000380: 61c2 a3be a215 243c b389 babc 6ddc c5bd
00000390: 5eb3 a83d f279 b63c 1a25 66bd e558 013e
000003a0: a44d b5be 5812 8ebb 5f03 7d3e f62a c9be
000003b0: aba8 18be bba7 f63d 6aaf 943e 0786 2dbe
000003c0: 71bb c03d 334c 043d 0247 92bd 0435 88bc
000003d0: e94b d43c 2951 843d 0ce8 9bbe 6d4a dabe
000003e0: a96c d03d 2b56 20bd 61cf 75bd 31b7 cebb
000003f0: 22af 2dbd fd56 4f3e b287 c1b9 fe8d b5bd
-0.0069367313 0.07191373 -0.12632513 0.20482141 -0.009784008 -0.38397485 -0.23397 -0.15086797
0.17664483 0.018095924 -0.50756484 3.976464e-05 -0.018179255 -0.05975334 0.42485264 0.12001611
-0.37509993 -0.17497027 -0.10191752 -0.22835782 0.04523501 0.1383584 -0.100407794 -0.25330898
-0.14165191 -0.3258096 -0.4018276 -0.09988495 -0.099308625 -0.21988955 -0.32747278 -0.33186203
-0.2623737 -0.032422107 0.018625153 -0.31573802 0.19505166 -0.32360014 -0.46328175 0.025331259
-0.20373826 0.08164707 -0.15630685 -0.2448517 0.25306693 -0.20245585 0.054560035 -0.061845817
-0.10452796 -0.028982999 -0.43423134 -0.08805747 -0.25109604 -0.5565677 0.044084556 -0.2896982
-0.12041559 0.15859118 -0.09530259 -0.063534684 -0.4287264 0.14252716 -0.3563565 -0.14060508
-0.2602867 -0.11725403 0.10965149 0.014148791 0.107958965 0.3090392 0.3807621 0.11482685
-0.4717293 -0.30933923 0.065699734 0.003381054 -0.19237058 -0.2854516 -0.08842256 -0.15401521
0.1939172 0.022788927 -0.15064642 0.11695892 -0.12919861 0.06901242 0.13216573 0.12570946
-0.13739835 0.030501237 -0.16741596 0.15565775 -0.08398031 -0.39246175 -0.15501133 0.47107995
0.16468391 -0.061934873 0.12680247 -0.150144 0.18386011 -0.20663115 -0.08667222 -0.14125109
-0.30650815 0.017119493 -0.14622417 0.11274687 0.16925128 0.07071563 -0.17660283 0.1053571
-0.035545796 -0.13182501 0.13651082 -0.2360753 -0.03479927 -0.353165 -0.3278633 -0.5097795
0.014025557 0.00588996 -0.19991814 -0.33853757 -0.24338762 0.1713115 0.21758667 -0.2503512
-0.12826097 -0.13120061 -0.06431954 -0.2516832 -0.029894108 0.3390369 0.22347692 0.088874504
-0.36068106 -0.20827624 -0.31464309 -0.231993 -0.15228833 -0.36459973 -0.038920224 -0.28068987
-0.061562438 -0.44689536 -0.29982874 -0.06294494 0.0030068767 -0.082891636 -0.18169245 -0.14011899
-0.08093037 -0.24673583 -0.050705187 0.11627338 -0.17064214 0.16046703 -0.57310575 -0.4101392
-0.0689081 0.03034557 -0.0878629 -0.1509634 0.044308815 -0.47793037 0.19373353 -0.053079624
-0.059926264 -0.12889735 -0.29454723 0.013659524 0.103597224 0.21424237 -0.15500443 -0.114306875
0.20179635 -0.08208021 0.037786126 -0.088956736 0.036805555 -0.22289632 0.07025785 -0.059704866
-0.117272295 0.13198294 -0.3116227 0.39371982 0.043127526 0.08165791 -0.19852962 -0.20190218
-0.11630142 -0.14169729 0.051095117 -0.06096781 -0.032475773 -0.2227935 -0.106217496 0.013740262
-0.089324765 0.2628964 -0.000333094 -0.40779015 -0.18647167 0.03927839 -0.11357091 0.025197985
-0.48099715 0.06563908 0.55789244 -0.059688218 0.09522711 -0.0014939876 -0.0010254448 0.18485448
-0.1366479 -0.37222162 -0.23257068 0.00019047192 0.0034131382 -0.2787118 0.051569402 -0.4212912
-0.31984237 0.010014923 -0.022770738 -0.096611835 0.082373366 0.022274945 -0.056187727 0.12631567
-0.35410798 -0.004335683 0.24708317 -0.3929059 -0.14908092 0.12043711 0.2904008 -0.16945659
0.094107516 0.03229923 -0.0714245 -0.016626842 0.025915103 0.064607926 -0.30450475 -0.42634907
0.10176975 -0.039144676 -0.060012225 -0.006308459 -0.042403348 0.20248027 -0.0003691293 -0.088649735

hidden_layers.1.weight f4 [128, 256]
00000000: 044a ddbe 45da bb3d 29a4 903d b97a 743e
00000010: 8382 bf3e 6631 d6bd 4001 1f3e 270c 0cbc
00000020: 7253 21bd 8395 8e3d 8b3f 143f 4643 8d3d
00000030: 80a0 923d 5541 453e b7dc 423e c1ca 173e
00000040: c197 2d3f 387f 97be 4f05 003f 0a3b 8d3e
00000050: f218 15be c1e7 0f3e 72cf 9abd e524 1dbe
00000060: 7b1f ab3d 1fb5 74be 7db2 8ebd 5e02 8fbc
00000070: 0215 773c d6db 293e e264 403d 9973 823e
00000080: ffc6 61bd 91c9 99be 88d8 03be e064 e63d
00000090: 7d43 313d b0d3 113e 455e 003f a6e2 8d3d
000000a0: 23a3 4e3d ee13 9c3d 820d 3e3a 7e10 d3be
000000b0: e92f b7be f62c fabd 9f99 a1bd a247 3fbe
000000c0: 1759 46bf 6c13 983d dd36 a6be 9877 b93d
000000d0: cea3 4f3d 9ecf 7d3e 0de1 0abf 8dd1 4f3d
000000e0: 7089 f8be 1415 a63e acc0 5bbe dd54 2ebf
000000f0: 464c 95be 1979 1d3e d0b5 03be dd6d 76bd
00000100: f98c 75bd 8b95 f6bd b49c c0be 1291 4cbd
00000110: 0859 473e ca71 3ebe ba2d 0fbe 57f9 903e
00000120: 8921 51be 0730 d2bd b4b0 03bd 9173 053d
00000130: ed1d d8be 96f0 c73e ca91 11bf 7891 163c
00000140: 9ff5 bebd 3026 163e c82a 66be 8d54 083e
00000150: 103d 493d 63ea a4be 5617 ec3e f002 6cbd
00000160: 2f87 ff3c 08d0 243d 8c4d 21bd 4b47 13be
00000170: ae35 d4bd 40e6 16bf 17fe 0d3e 31e5 a13e
00000180: f163 ddbd 48d4 893e dc14 ffbd 8508 a63a
00000190: 44b1 113d 9f3a 86be dc28 3fbe fb91 d83e
000001a0: a33a 4ebd 868b 1e3e d29b acbe 97c9 893d
000001b0: e3c9 39be fd86 4ebe 2b19 183e 6e4d c3bd
000001c0: 256f 7d3c 48d0 e4bd f926 e8bd 816f 99be
000001d0: 78a5 8ebe cfe2 0b3e f0d4 383e 9fc4 82be
000001e0: 5ed4 8c3d ad3c 5c3e 556b cc3d f3c2 8abe
000001f0: 547d bd3e bbed 273d 796d 79bd 72a9 9abd
00000200: 951e c33e 23b1 a3be 22ce e2bd 9be1 81be
00000210: 6362 2abe ba13 10bd 445d 173c 43be 28be
00000220: 7447 f6bc 688a c03c b01f aabe 5016 9c3c
00000230: 1790 1abe bb9c e23d 0e63 e7bd 325c be3e
00000240: e51e bcbc c643 a13c ddc9 3cbd 0fff f0be
00000250: 7814 b33d 7372 2e3e a24c 3a3e fbfc b3be
00000260: 523e 343e 46f4 34be 72d4 83be d2c3 a7bc
00000270: 9105 713e 385f d3be 9d80 b83c 0bd2 a43d
00000280: b93b 303e ad7b 8b3e 397d a7be 5c6f 9dbd
00000290: bcc5 b4bd d110 d7bd 70e0 60be 05bd 60be
000002a0: 892e 8abe 64f3 553e abcd 033e 3b92 03bf
000002b0: 033a 2a3e f6a8 293e 2fd8 0fbe 849c d83e
000002c0: 8467 30be 3fa2 1cbe c11d 0ebe f18d 073f
000002d0: dd8d 0a3e e553 c03d 1769 a5bd 6cd4 763e
000002e0: c6bf a3be 2015 153e f7af 2dbe a894 383d
000002f0: 5604 863e eaac a1bd e124 a4be f626 ff3d
00000300: 332c 77be dc28 ae3e c8e7 01bf 56fd 533d
00000310: 2a1a 593e 2e24 47be bb90 89be 788b d83d
00000320: 51c4 ea3b d55a d0bd 0c18 5bbe 992d 7dbe
00000330: 8b88 a0bc ec3d 083e fe44 82bd 407b 353e
00000340: f7ba 843d c436 28be 8460 aabd a503 643e
00000350: e891 f0bc 9b06 aa3d 2559 7abe 5197 fa3c
00000360: b573 b03d 47d9 ce3e 4ed4 03bc b667 21bf
00000370: 7d0f 993e 0a29 92be aed7 cc3d d544 89bd
00000380: cd9d 86bd f392 ebbd 1e1e 123e e8e9 c7bd
00000390: 7af3 183f de56 e0bc 50ff 4ebe 1464 9f3c
000003a0: c9da 12bc eafa 57be d91a 5fbd 3383 9dbd
000003b0: 2c5b 4ebf bff1 a03d 88f0 483e afbd cabd
000003c0: a1d9 7bbe 5251 18bf 529d d03e 8770 f4bc
000003d0: 75d8 c2bc 0322 ad3e ab30 3b3e cd26 613e
000003e0: 00ee df3d 0139 7a3d c246 de3d 6967 a5be
000003f0: 9f8e e33e d192 dcbe 7099 92be b894 e9be
-0.43220532 0.09172491 0.07062561 0.2387494 0.3740426 -0.10458641 0.1552782 -0.008547819
-0.03938622 0.06962111 0.5790946 0.06897597 0.07159519 0.19263203 0.19029509 0.14823438
0.67809683 -0.29589248 0.500081 0.27584106 -0.14560297 0.14053251 -0.07559098 -0.15346105
0.08355614 -0.23897217 -0.06967638 -0.017457183 0.015080692 0.16587767 0.04697121 0.2547882
-0.055121418 -0.30036595 -0.12875569 0.11249709 0.043277252 0.14240909 0.50143844 0.069279954
0.050448548 0.07620989 0.00072499376 -0.4122352 -0.3577874 -0.12215607 -0.07890629 -0.1867967
-0.7747969 0.074255794 -0.32463732 0.09056014 0.050693326 0.24786231 -0.5424965 0.050736953
-0.48542356 0.32437956 -0.21460217 -0.6809824 -0.29159755 0.15378226 -0.12862325 -0.060163368
-0.059948895 -0.12040242 -0.37619555 -0.049943037 0.19467556 -0.18598095 -0.13982287 0.2831523
-0.20422949 -0.10263067 -0.03215094 0.032580916 -0.42210332 0.3905074 -0.5686308 0.009189956
-0.09324192 0.14663005 -0.22477257 0.13313504 0.0491305 -0.32210073 0.46111554 -0.05761999
0.03119239 0.040237457 -0.039380595 -0.14382665 -0.10361801 -0.58945084 0.13866459 0.31620172
-0.10810078 0.2691977 -0.124551505 0.0012667334 0.035569444 -0.262166 -0.1866793 0.42298874
-0.05034889 0.15482911 -0.3371263 0.06727903 -0.1814342 -0.20168681 0.14853351 -0.09536253
0.015468393 -0.11172539 -0.113355584 -0.29967883 -0.27860618 0.1366074 0.18049979 -0.25540635
0.06876443 0.21507521 0.099814095 -0.2710186 0.3700968 0.0409982 -0.060895417 -0.075518504
0.3810927 -0.31971082 -0.11074473 -0.25367436 -0.16639094 -0.035175063 0.009238545 -0.16478829
-0.030063368 0.023503497 -0.332273 0.019053608 -0.15094028 0.1106505 -0.1129819 0.37179714
-0.02296395 0.019685637 -0.04609095 -0.47069594 0.087441385 0.17035846 0.18193296 -0.35153946
0.17601898 -0.17671308 -0.2574802 -0.020479117 0.2353728 -0.41283584 0.022522265 0.08047875
0.17210282 0.27242795 -0.32712725 -0.07687256 -0.08826777 -0.10501254 -0.21960616 -0.21947105
-0.26988629 0.20893627 0.12871425 -0.51395005 0.16623692 0.1656836 -0.14047311 0.42306912
-0.17226988 -0.15296267 -0.13878538 0.5295096 0.13530679 0.093910016 -0.08076685 0.2410447
-0.3198225 0.1455884 -0.16961657 0.045063645 0.26175183 -0.07894309 -0.32059386 0.12458603
-0.24137954 0.34015548 -0.50744295 0.05175527 0.21201387 -0.19447395 -0.26868233 0.105734766
0.007164516 -0.10173575 -0.21395892 -0.24724425 -0.019596359 0.13304871 -0.063608155 0.17722797
0.06480973 -0.16427141 -0.0831919 0.22267015 -0.029366449 0.08302041 -0.24448068 0.030589731
0.08615819 0.40400144 -0.008046223 -0.63048875 0.2989463 -0.28546935 0.10002075 -0.06702582
-0.06573067 -0.11502638 0.14269301 -0.09761411 0.59746516 -0.027385172 -0.20214581 0.0194569
-0.008963295 -0.2109181 -0.054468963 -0.0769104 -0.8060787 0.078586094 0.19623005 -0.098994605
-0.24594738 -0.59499085 0.40745026 -0.029838813 -0.023784855 0.3381501 0.18280284 0.21987458
0.10934067 0.06108952 0.1085334 -0.32305458 0.4444475 -0.43080762 -0.2863269 -0.45621276

hidden_layers.1.bias f4 [128]
00000000: 140f e63d b538 3ebe 6296 00be deb0 07be
00000010: a740 4cbd 7e05 4d3e fedb 1bbc 272b 62be
00000020: 04cc 163e d414 823d 4ad0 73be 39a2 17be
00000030: f998 3c3b bfc6 24be 4c5f 84bd 0c24 2f3e
00000040: c861 b83d 9542 74bd 0ac9 34be 0a80 5b3d
00000050: 9236 57be e663 2e3e 4579 05be 554c fb3d
00000060: ee25 94be 3f64 69be 92fc 96be d34a fbbd
00000070: eefa 84be 3ee3 20be b888 81be 63d2 6abe
00000080: 3049 843d 6f9a 593d a349 c03d e3c6 2ebe
00000090: f0b1 c0bd c458 0bbe 0c06 113e 79c3 633d
000000a0: 26fc 463e 56fa b5bd b41d 023e 7158 1d3e
000000b0: 3f4f debd 3071 aebe 7ce0 3fbc 8f57 95bd
000000c0: 7bf2 a4bd 8579 1abe 67d6 88bd 6849 ca3d
000000d0: e392 383d b8cb 36be aa4b 4ebd bbde 12bd
000000e0: 8627 21be 6959 473e 645c 34bd 0197 ae3d
000000f0: 53c5 3bbe bd7d 20be fd87 013e 9e82 c13d
00000100: e2d5 13bd 219f 323d 7520 16be c2c4 6c3c
00000110: 22a1 b23a 3d0c 853d 84bd af3d 9652 94bc
00000120: 3bd3 7fbc cb2c c43d ad77 02be f42e 59bd
00000130: 5f66 053e 8220 f23a 8952 ca3d 46dc 0bbe
00000140: 0936 1cbe 6eaa 8cbe e06a b6bd 9df7 9dbc
00000150: 0e6e fdbd 5ec5 02be 996b a03d 0591 803d
00000160: 8d64 2fbe d353 4d3d 9550 c13c e6dd 76bd
00000170: 1b7b eabd 045d 64bd 4777 8c3d 60c5 143d
00000180: 1737 3bbe f5d6 95bc d8ec 8cbd 8b73 443c
00000190: 6fae 81be 205f 73be 9f81 1ebe e0a6 9abe
000001a0: a0ae 58bd 11e6 5bbd 5c7d 973d 15d9 113e
000001b0: 6854 e23d 5c80 0ebf 95c0 2fbd e60c f6bb
000001c0: 1be8 173e b67a 7fbd 1060 f83d 2041 403d
000001d0: 37e3 5e3e f84b ccbb 52d4 0dbd 85c3 de3c
000001e0: d15f f1bd 60ab 34be 95d2 e03b da99 a1be
000001f0: 62ba 04be ff2d 1b3e 7689 8abd d5e9 65be
0.11233345 -0.1857632 -0.12557366 -0.13251063 -0.049866345 0.20021626 -0.009512899 -0.22086774
0.14726263 0.06351629 -0.23809925 -0.14807977 0.0028777702 -0.1609144 -0.06463489 0.17103595
0.09003025 -0.05963381 -0.17654815 0.053588904 -0.2101691 0.17030296 -0.13034542 0.122704186
-0.28935188 -0.22792147 -0.2948957 -0.12270131 -0.25972694 -0.15711686 -0.2529962 -0.22931819
0.06459272 0.053125795 0.09389045 -0.17068057 -0.09408939 -0.1360808 0.14162463 0.05560634
0.19432124 -0.088856384 0.12706643 0.15365769 -0.10854959 -0.3407073 -0.011711236 -0.07292091
-0.08054062 -0.15085419 -0.06681519 0.098772824 0.045061957 -0.1785115 -0.050365128 -0.035856944
-0.15737733 0.19467701 -0.044033423 0.085248955 -0.18336992 -0.15672965 0.12649532 0.094487414
-0.036092646 0.04360879 -0.14660819 0.014451208 0.0013628344 0.06496475 0.08581069 -0.018105786
-0.015614326 0.09578856 -0.12740965 -0.053023294 0.13027333 0.0018472823 0.098790236 -0.13658246
-0.15254988 -0.27473778 -0.089071035 -0.01928311 -0.12374507 -0.12770602 0.078330226 0.0627766
-0.17128201 0.05012877 0.023597995 -0.060270213 -0.11449262 -0.05575277 0.06858688 0.036321044
-0.18282734 -0.018290976 -0.06881112 0.011990438 -0.25328395 -0.23766756 -0.15479134 -0.3020544
-0.05290091 -0.053686205 0.07396957 0.14242966 0.110512555 -0.5566461 -0.04290827 -0.007508862
0.14834635 -0.062372886 0.121276975 0.046937108 0.21766363 -0.006234642 -0.034626313 0.02719284
-0.11785854 -0.176435 0.006861041 -0.31562692 -0.12961724 0.15154265 -0.067645 -0.22452481

output.weight f4 [4, 128]
00000000: dbc8 11bf ca5c 173c 67e0 c6bc ac8d bfbe
00000010: 51e9 71bd 9bf5 e73d 6451 943e eb97 f3be
00000020: 98b7 98bd a334 963e f640 59be b5f5 93be
00000030: f89e af3e cae7 343e 4f6b c2be 23c3 363c
00000040: de68 d43e 9748 9d3d 2894 b9bf bf5a 483e
00000050: 677c 123f 2aeb e33e 1742 e6bd 2c6f b33f
00000060: 4ad0 26bf 12c6 aabe 8767 7a3e da7d d73e
00000070: 579f 13be 961d 01be 233b 9abe 32ec 73be
00000080: 87c8 f73d f042 f43d df2f 573e abaa a5be
00000090: ad3d c63d d0ce cbbe 2179 043d 4dcf 46be
000000a0: 1394 0fbf 73da 053f 0ff5 d93e dbd4 833e
000000b0: 8737 11bf f8eb b9bf c9b6 76bf b547 b4bd
000000c0: cbaa 6fbf d393 acbd 5496 b9be efcd b9bd
000000d0: d521 3d3e 810a f2be 65b5 a73f 017e 8ebe
000000e0: 6646 ddbc 1415 4fbd 2bcf 433f fa52 ae3d
000000f0: faff bbbd 95fc 283f 869d ad3e 7b81 323f
00000100: 4975 e3be 7dd4 29bf 64d3 733d d56a 653e
00000110: d057 87be b5eb 363f b951 1a3f d50c 04be
00000120: 833b 133d 1cb1 8dbd ae3f 6a3e eadf e5bd
00000130: b91e 7abe 0394 1e3e d202 e53d 040a eebe
00000140: 5cf9 80be 7790 243f 591e 08bf 9ead 6ebe
00000150: a040 163f 79c5 913e d4fa b73e 0520 32bd
00000160: ffa5 febd 795b a3bd db04 2b3e fba7 90be
00000170: a99f 9b3d 2ec1 643e 0452 43be c8e7 bd3d
00000180: 2e91 6e3e 7b9e 173f 9ea0 2a3f a4a2 bfbd
00000190: d259 0bbd e3ba 283c f0fb d5be a12b eb3d
000001a0: 8528 fb3c a8b2 d3bd 0924 7ebe 5e60 0ebf
000001b0: 78d5 9cbe 2b98 5ebf 2c60 cf3d a5db 7cbf
000001c0: ef08 c63d 909f e6bd 3911 8c3e e069 bebe
000001d0: eaa3 ecbe 534a 453f 3024 6a3f 5be0 9e3e
000001e0: 8174 473e 4eed 54bf 955b 583e 3205 c73e
000001f0: 8421 3cbe 6851 a7be af3b 31bf e24c 09be
00000200: 8cb1 afbe 8580 9abd d4c0 1fbe c0dc 743e
00000210: 6635 8dbc b447 403d 0f5c bdbd c932 4f3f
00000220: d4a4 15bc d869 71bd 0c30 4fbf fe85 853e
00000230: d2e3 63bf e935 0bbe a14f 093d b588 44ba
00000240: baa3 b8bd f6c8 87be 8ab4 eb3d be4d 373e
00000250: 4fe3 e13c f099 603f f0ab a13e bbc3 303f
00000260: f569 76bf 2902 dc3e a040 40bf be48 2bbf
00000270: da4a 5abd 67e7 b1bd 6815 06be 5b68 e6be
00000280: 68ca 8d3e 67be 3cbd 2a37 363d a33b 093e
00000290: d2cc 10bf 9a74 9abe 9517 033f e4fc 653e
000002a0: e36e d03d 2fd1 c73e f92a a53e 0a09 d23e
000002b0: 97ae a2be d54a 2c3f 2921 27bd db26 f5be
000002c0: 556f 643e 68f6 d83e 2f34 c73c 179a 563f
000002d0: a1bd 65be defc 48be ec61 843f 9189 9dbe
000002e0: 0fcd b7be 9d89 28be e053 843d 2d6f 24be
000002f0: 299c 81be 2891 01be bf52 833c a69a 3bbf
00000300: bb38 23bf 5560 04bf 13a6 1ebf 4fd7 1b3d
00000310: 377d 323e 42b0 bd3b dd18 bbbe 6c4f 883f
00000320: 9800 08bf a398 9b3e 51b1 8abe 7c34 2b3f
00000330: 8746 e3bd 329a f5bd 647c 023f c344 6a3e
00000340: 2d88 0b3d f5b9 89be 5826 aebe 0f68 06bf
00000350: 5fdc 943d f7f2 9cbe 0a4d 8dbe 1631 17bf
00000360: 5b73 3c3d 0699 af3e 74fb ce3e 0048 653e
00000370: 7cb6 9f3e 9995 8cbe d889 28bd 8f0c 113e
00000380: 8fdd 043f 7779 b5be 3df0 5c3f 0ed6 bfbd
00000390: d42f fd3d 2b3a c33e 6ed9 0ebe 5141 583f
000003a0: 7c0a 09bf dd85 833f e596 c83e 313c 5d3f
000003b0: 88e3 c3bd 5862 82bf fbb1 53be 2050 fe3e
000003c0: 1de2 45be 9d63 54be 584c 073d f2a2 1f3f
000003d0: 5ec8 4f3e 0d72 a33e 8def d2be f14e 98bd
000003e0: 3f0f f9be 4952 053f 779c 4fbe 7fe2 363e
000003f0: 83f4 e4bd 3d93 bc3e 10d4 5a3d 0538 04be
-0.56947106 0.009238431 -0.024276925 -0.37412775 -0.0590604 0.113261424 0.28968346 -0.47576842
-0.07456893 0.29337034 -0.21216187 -0.28898397 0.3430097 0.17666546 -0.37972495 0.011154923
0.41486257 0.07679861 -1.4498339 0.19565867 0.5722107 0.44515353 -0.112430744 1.4018302
-0.65161574 -0.3335424 0.24453555 0.42088205 -0.14416252 -0.12608942 -0.30123243 -0.2382057
0.120987944 0.1192683 0.21014355 -0.32356772 0.096797325 -0.39806223 0.03234208 -0.19415016
-0.5608532 0.5228645 0.42569777 0.25748333 -0.56725353 -1.4525137 -0.9637266 -0.088027395
-0.93619984 -0.08426633 -0.36247504 -0.09072482 0.18469937 -0.4727364 1.3102232 -0.27830508
-0.027011108 -0.05055721 0.7648799 0.0851192 -0.09179683 0.6601041 0.33909243 0.6972882
-0.4442542 -0.66339856 0.05952777 0.22404034 -0.26434183 0.7145341 0.6028095 -0.1289552
0.035945427 -0.069185466 0.22875854 -0.11224349 -0.24425782 0.1548615 0.111821786 -0.46492016
-0.25190246 0.64282936 -0.53171307 -0.23308417 0.5869236 0.28470972 0.35933554 -0.043487567
-0.12434005 -0.079764314 0.16701071 -0.2825316 0.07598812 0.22339317 -0.19074255 0.092727244
0.23297569 0.59226197 0.6665133 -0.09357193 -0.034021206 0.0102984635 -0.41793776 0.11482931
0.03065897 -0.1033681 -0.24818434 -0.55615795 -0.30631614 -0.8695094 0.10125765 -0.9877265
0.09669673 -0.11260903 0.2735689 -0.3719015 -0.46218807 0.77066535 0.9146147 0.31030545
0.19478036 -0.831746 0.21128686 0.3887115 -0.1837216 -0.32679296 -0.69231695 -0.13408235
-0.34315145 -0.075440444 -0.15600902 0.23912334 -0.017237376 0.04694338 -0.092460744 0.80936867
-0.009133536 -0.05893883 -0.8093269 0.2607879 -0.890195 -0.13594784 0.033523206 -0.00074971776
-0.09015603 -0.2652051 0.115090445 0.1790075 0.02757421 0.8773489 0.3157649 0.6904866
-0.9625543 0.42970398 -0.7509861 -0.6690787 -0.05329404 -0.086867146 -0.13094103 -0.45001492
0.27693486 -0.04608002 0.044486202 0.13401656 -0.5656253 -0.30167085 0.5120786 0.22459751
0.101774 0.39026782 0.32259348 0.4102252 -0.31773826 0.67301685 -0.04080311 -0.47881207
0.22308095 0.42375493 0.024316875 0.8382887 -0.22435619 -0.19627711 1.0342383 -0.30769017
-0.35898635 -0.16458745 0.064613104 -0.16058035 -0.25314453 -0.12653029 0.016030667 -0.7328285
-0.6375844 -0.5170949 -0.6197216 0.03804713 0.17430578 0.005788834 -0.36542407 1.0649238
-0.53125906 0.3038989 -0.27088407 0.6687696 -0.110974364 -0.11992301 0.50971055 0.22877793
0.034065414 -0.26899686 -0.3401363 -0.5250253 0.07268595 -0.30654117 -0.2759784 -0.59059274
0.04600845 0.34296435 0.40426219 0.22390747 0.31193912 -0.27457884 -0.041147083 0.14164947
0.5190057 -0.35444233 0.86304075 -0.093669996 0.12362638 0.38130316 -0.1395013 0.84474665
-0.5353162 1.0275227 0.39177623 0.8641997 -0.095648825 -1.0186262 -0.20673363 0.49670506
-0.19324537 -0.20741124 0.03303179 0.6235801 0.20291278 0.3192295 -0.41198388 -0.07436932
-0.48644444 0.5207868 -0.2027453 0.17859839 -0.111794494 0.36831084 0.053424895 -0.12911995

output.bias f4 [4]
00000000: 4c09 3e3e 5d95 9d3d f33e 42bd 05e5 c13d
0.18558234 0.076945044 -0.047423314 0.0946751

batchnorm.weight f4 [33]
00000000: 5bf9 933f 773c 6c3f e75d 953f ba7d b23b
00000010: a758 68bc c56f 463d 6a17 16bb 80d3 123e
00000020: 50cb 5c3e 920b 7b3e fdb0 ac3e 9673 f33e
00000030: 6185 9e3e 768a c93f d9c2 973f 6a8b d13f
00000040: f417 7a3b 4e72 04bc f252 93bc b7c2 5d3d
00000050: 545b a33e c2a6 3dbe f0d2 613e 6e6f 383f
00000060: 0655 043f 56da 3a3f 3275 c73f 7e48 3f3f
00000070: 3e6c babf 3895 403f 239a 043f 1d40 3a3f
00000080: 6aaf a73f
1.1560472 0.9227976 1.1669282 0.0054471167 -0.014181293 0.048446435 -0.002290214 0.14338493
0.21561933 0.24516132 0.3372878 0.47549123 0.30961135 1.574538 1.1856338 1.6370671
0.003816125 -0.008083893 -0.017983887 0.054140773 0.31905615 -0.18520644 0.22053123 0.7204503
0.51692235 0.72989404 1.558264 0.7471999 -1.4564283 0.7522769 0.51797694 0.7275408
1.3100407

batchnorm.bias f4 [33]
00000000: 74ec babd d9b2 17bf c5d7 a6bc 20cd df3e
00000010: 8cd2 8b3e e848 083d b499 ba3e 4151 f5bc
00000020: 95dd a53e 7402 57bc 3fcd 28be f846 d3be
00000030: 2e01 cb3c ced1 99be 4c2e 7cbe 1692 2f3e
00000040: d1ed 863e 0784 fabe 5301 5e3e 2aa7 4d3d
00000050: be06 a13c c5f6 473e cde1 c8bd e483 3fbe
00000060: 0e57 cc3c 2e0b 93bd 22bb 5dbe cc0d 873e
00000070: 7607 48be 9757 3fbe 9605 693e c213 38be
00000080: bc06 75bd
-0.09127131 -0.59257275 -0.020366559 0.43711185 0.27309072 0.033272654 0.3644539 -0.029945971
0.32395616 -0.013123143 -0.16484545 -0.41265082 0.024780836 -0.3004288 -0.24627036 0.17145571
0.26353315 -0.48928854 0.21680193 0.05020825 0.019656535 0.19527729 -0.09808693 -0.18702656
0.024943855 -0.07179867 -0.21653417 0.26377714 -0.19534096 -0.18685757 0.22756037 -0.17976287
-0.059820876

batchnorm.running_mean f4 [33]
00000000: 5151 a13f f016 23c0 b1db 1ebf ed9a 473f
00000010: 3adb 0a3e 41b3 91bc dfbc 8fbd f7b8 31bd
00000020: da55 493c d7f7 9b3b 68af c2ba 9598 e9bc
00000030: 820a bf3d 60a0 ad3f d3ad 3ec0 e07b 25bf
00000040: 5eac be3c 0aff ebbc 65b4 41bc f9e4 f53c
00000050: 9105 173e 8017 c63c acfd ef3c 9c9d 26bd
00000060: 689c cc3d 4275 4a3e 107c af3e fcff 7fbf
00000070: 0b6d 103d 0000 0000 fcff 7f3f 0000 0000
00000080: 8ed4 2a3c
1.2602941 -2.548275 -0.6205397 0.77970773 0.13560191 -0.01778567 -0.07018446 -0.043389287
0.012288535 0.0047597694 -0.00148533 -0.02851514 0.09328176 1.3564568 -2.9793594 -0.64642143
0.02327555 -0.028808136 -0.011822795 0.03001641 0.14748217 0.024181128 0.029295765 -0.04067765
0.099907696 0.19771293 0.3427434 -0.99999976 0.03526024 0.0 0.99999976 0.0
0.010426654

batchnorm.running_var f4 [33]
00000000: 8bf6 4140 bb75 663f 2226 6840 4c36 183e
00000010: 5752 663d d470 813d 15db ca3d 30ee d43e
00000020: 68cf 463d 8336 da3d d84a ef3f 3819 9c3f
00000030: 701e 1440 ad00 7241 0e66 0940 4896 9d41
00000040: ef29 083e 9729 b13e 251f f33d 995d cd3e
00000050: 47de 1540 cf06 0d3f d5b8 963f 4dd5 e140
00000060: 95c5 5640 27b4 0a41 9513 f941 0400 0000
00000070: e8d2 0342 0400 0000 0400 0000 0400 0000
00000080: 179a a23e
3.0306728 0.9002339 3.6273274 0.14864463 0.05623087 0.063203484 0.09905068 0.41587973
0.04853764 0.106549285 1.8694715 1.2195196 2.3143578 15.125165 2.146854 19.69838
0.13297246 0.34602043 0.11871175 0.40110472 2.3416917 0.55088514 1.1775156 7.0572877
3.3558095 8.6689825 31.134562 6e-45 32.955963 6e-45 6e-45 6e-45
0.31758186
